GGCN/pretrained/GGCN_texas_08_01_55_00.pt (torch, 222209 bytes, 10 tensors)

convs.0.deg_coeff f4 [2]
00000000: 75eb d73e 36d1 adbd
0.42171827 -0.084871694

convs.0.coeff f4 [3]
00000000: 54f7 a8bf 3e1f 99bf 6e88 b93f
-1.3200479 -1.1962659 1.449476

convs.0.fcn.weight f4 [16, 1703]
00000000: 83ea 263d 8380 8c34 3ba1 0b3b a024 883a
00000010: 01ff 403c dc0c eab9 a85a 95bd e7e9 543c
00000020: 7243 ba3c 9242 0235 c3d2 563c 4017 843d
00000030: da64 1b3c 8ad0 b8bd 9c70 e1b4 a5a0 da3c
00000040: 7371 5f34 113e 833d bede 013e b024 863c
00000050: be29 ee3b 76e8 753d 7e83 6f3d 7077 a8bd
00000060: c0cc 0bbe 54ca 9d3b 01e3 83b3 47d0 42bd
00000070: 6571 f93b 01cb 2e34 0d21 c13d 0473 043d
00000080: 059f 0537 0587 28be 103d 23bd 2904 0d3c
00000090: e776 103b 04ac ad3c 1d4c fa3b 4f80 4d34
000000a0: a1f6 fcba 6ab7 08ba 7225 033b 7e78 0035
000000b0: 4824 9733 8d28 0a3d e465 033c d7c8 073b
000000c0: 88b4 163d efb2 3535 6a14 a5bd ce7e 13bc
000000d0: 0fc8 5a3d 1076 83bc 9112 9e3a edb6 bf31
000000e0: ccea bd34 f9fe 9abd e8d0 8337 84ef 3a3b
000000f0: 9095 ca33 fba5 8c34 dd2c 0d3c bece 5c3b
00000100: 1fc2 223d e2fe 623c 9e9e 9bbe e48c b339
00000110: 5e86 0e3d 3d33 a9b4 4581 3e3b 8454 16ba
00000120: 76f3 b0b4 d219 813d 6533 a634 b0ff 80b4
00000130: 5643 87bc 6606 c73b a594 12bd af7e 873c
00000140: 30ae 113c 2ed1 89bd 3780 d8bb db76 453d
00000150: d346 4a3c 15de 12b3 38cc 7bbc d848 7c3c
00000160: 6561 2f34 1e93 40bb d317 473d a33f f53c
00000170: c0b7 383d 38d8 11bd 8dfd 273b a3e5 0a3d
00000180: 24fb c8bd 8db1 b53b 1c84 0d3c 9b3d dd3d
00000190: 8229 e0ba b4ab 42b4 a7d0 72bb 5d4d d034
000001a0: da77 96ba fa7a 123d 06fa 173c 8903 b3b3
000001b0: ea69 40bc 9df3 9d3d eb9d 8d39 7991 2135
000001c0: f503 473a d468 0ebd e4d4 09bc ab00 cebd
000001d0: 23cf 6f3d 5e34 c73c 544b 653d ff04 843c
000001e0: bfc7 eb3d 4900 223c 9734 2bb5 5f3d b8b4
000001f0: 52ad 0a3d 552d 37b9 f463 94bd aba2 993c
00000200: d6d5 553d d8b8 3934 de3a 67bc 7de3 3a3c
00000210: 1bd5 83bb ff64 4e3c 5538 aebb 07e1 743d
00000220: d826 1e3d 257c daba 4e5d a83c c5b6 ee3c
00000230: eac8 d4b3 1f04 83bd da8f a8ba ede8 45bd
00000240: f570 fb3d 4392 103d 644f e1bd 84c7 cc3b
00000250: 8a25 3dbb 4064 8d3d a5f3 8e3b 875f 21bd
00000260: 9771 dabc cfe2 2a3b 9ae9 55be fe33 57b4
00000270: 949f 86b4 6d69 c03a 1e80 43bb 6eed c3b4
00000280: edf3 d339 98a1 c33c 83d8 3bbb 70ee 53bb
00000290: 2296 823d fa7b 04b4 9f89 5a39 6bb1 023c
000002a0: aeb8 4335 8f05 2e34 9e67 8c3c d720 d83b
000002b0: 6bd0 3eba 95e8 babd 4ed6 e1ba d0bc 7cb4
000002c0: 4b52 8433 618d 9a3c 36de d0bd f435 adb3
000002d0: 982b 8234 4de3 82be c6ca 1f3d c421 293a
000002e0: c2f5 b23c 1e6d d03c 315d 8db3 8a4b e8bd
000002f0: e9f2 68bb 383c 25b5 045e b13c 3fe9 7fb3
00000300: c055 c6b4 489c c6b4 1bb5 4b3c 3303 92bd
00000310: 33e3 ddbd 520d ba32 7cde 403d aa04 e934
00000320: 5725 c9b8 bbde b7bd 4a91 78b3 1145 713c
00000330: a115 993d 2b41 3b3c ccb9 823c 4b5b b1ba
00000340: 1739 7334 bd0c c0b9 6590 2e3d 76df 0abc
00000350: 3bf3 2d33 0c48 193d b412 8b3d 87f2 25be
00000360: 3b5f 96bb 27dc 59bb afff 8cbd 3d19 9ebd
00000370: e247 663d 527d 043d dabf 72b8 d811 703d
00000380: 1eac c2b4 1662 443c eb56 46bb ac3d f13c
00000390: e758 02be 8db7 c43c e451 413d 9e85 d7b4
000003a0: dba8 12bb 14ae 9f3c 5070 1d3d ebc3 9b3c
000003b0: e85c 8ebe 5e52 9d3c b54d 0b3c 4733 783c
000003c0: ed29 a03c dde5 0235 5ca3 4e3d 8c1b af3d
000003d0: 0124 203d d4de 4fbc d69c 323a 541c e13c
000003e0: 59cd f2bc 6ebe 3a3a 6f15 2a3a a86b 1aba
000003f0: a377 2e3d 2bbd 1ebb 2836 46b3 1068 e5bb
0.04075099 2.6170537e-07 0.0021305818 0.0010386892 0.011779548 -0.0004464154 -0.07292682 0.01299522
0.022737239 4.8525646e-07 0.013111773 0.06449747 0.009484494 -0.09024151 -4.199145e-07 0.02668793
2.0809766e-07 0.064083226 0.12682626 0.016374916 0.0072681597 0.060036145 0.05847501 -0.08225906
-0.13652325 0.004815379 -6.1414546e-08 -0.04756191 0.0076123946 1.6278865e-07 0.09430132 0.03233625
7.964442e-06 -0.16457756 -0.039853156 0.008606949 0.0022043528 0.021200188 0.007638468 1.9138791e-07
-0.0019299575 -0.0005215319 0.0020011333 4.7859055e-07 7.038085e-08 0.03373008 0.008019898 0.0020719075
0.03679326 6.7688137e-07 -0.08060534 -0.009002401 0.053413447 -0.016047508 0.0012059977 5.579628e-09
3.537483e-07 -0.075681634 1.5713696e-05 0.002852411 9.433563e-08 2.61978e-07 0.008616653 0.0033692564
0.03973591 0.013854714 -0.30394453 0.00034246512 0.03479611 -3.1515984e-07 0.002906875 -0.00057346397
-3.2959696e-07 0.06303753 3.0957304e-07 -2.4027895e-07 -0.0165116 0.006073761 -0.03578629 0.0165399
0.008891627 -0.06729351 -0.0066070813 0.048209053 0.012345987 -3.4195256e-08 -0.015368514 0.015398227
1.6333577e-07 -0.0029384564 0.048606705 0.02993757 0.045097113 -0.035606593 0.0025633306 0.033910405
-0.09813526 0.0055448473 0.008637454 0.10802766 -0.0017102214 -1.8130123e-07 -0.0037050636 3.8799308e-07
-0.001147981 0.03576181 0.009275919 -8.33598e-08 -0.011744002 0.07712481 0.00027011274 6.0188864e-07
0.0007591837 -0.03476794 -0.0084125735 -0.10058721 0.05854715 0.024316963 0.05598004 0.016115664
0.11512708 0.009887763 -6.377899e-07 -3.4317324e-07 0.033856697 -0.00017469127 -0.07245627 0.018754324
0.052205883 1.7296713e-07 -0.014113156 0.0114067765 -0.004023207 0.0125973215 -0.005316774 0.059784915
0.038611263 -0.0016669078 0.020552304 0.029139886 -9.908565e-08 -0.063972704 -0.0012860254 -0.04831784
0.12277404 0.035295736 -0.11001471 0.00624937 -0.0028861486 0.06903887 0.004362541 -0.039397743
-0.026665492 0.002607513 -0.20889893 -2.004235e-07 -2.5075553e-07 0.0014679857 -0.0029831002 -3.6494333e-07
0.00040426795 0.023880765 -0.0028662987 -0.0032338165 0.06376292 -1.233856e-07 0.00020841368 0.00797687
7.2911905e-07 1.6207035e-07 0.017139252 0.0065957117 -0.00072789815 -0.09126393 -0.0017230005 -2.3538018e-07
6.161698e-08 0.018866243 -0.101986334 -8.065754e-08 2.4246106e-07 -0.25564042 0.03901174 0.000645187
0.021845702 0.025442656 -6.5827756e-08 -0.11342533 -0.0035545176 -6.155492e-07 0.021651275 -5.958395e-08
-3.6942765e-07 -3.6994084e-07 0.012433316 -0.071295165 -0.108343504 2.1659307e-08 0.047087178 4.3403026e-07
-9.591382e-05 -0.08978029 -5.787414e-08 0.014725939 0.074748285 0.0114291115 0.015957735 -0.0013531236
2.2651908e-07 -0.00036630585 0.042618174 -0.008476129 4.0500918e-08 0.037422225 0.06790677 -0.16205798
-0.004588989 -0.0033242793 -0.06884705 -0.077196576 0.056220897 0.032346077 -5.7875972e-05 0.058610767
-3.6260548e-07 0.011986276 -0.003026421 0.029448353 -0.12729226 0.024013305 0.047197238 -4.014409e-07
-0.0022378478 0.019492187 0.038437188 0.01901432 -0.27805257 0.019204315 0.0085024135 0.015148944
0.019551242 4.876327e-07 0.05044876 0.08550176 0.039096836 -0.012687404 0.00068135315 0.027479328
-0.029638933 0.0007123713 0.0006488179 -0.0005890676 0.042594563 -0.002422164 -4.6149722e-08 -0.0070009306

convs.0.fcn.bias f4 [16]
00000000: 82cd 003d a6c6 06bc e5c9 163c 35ce b8ba
00000010: d35d aebc 6bd4 323c 8abe 1d3c 645f 2bb9
00000020: 5b2f 57bb 597b cc3c 07b5 903c 8aed ab3c
00000030: 3721 1fbc a74c 57bd 41e8 03bc 1bdd 40bc
0.031445988 -0.008226072 0.009203409 -0.001409954 -0.021284973 0.010914902 0.009627948 -0.00016343367
-0.0032834623 0.02496116 0.017664446 0.02098729 -0.009712509 -0.052563336 -0.008050979 -0.011771466

convs.1.deg_coeff f4 [2]
00000000: 733e 7b3f 8b0a eebe
0.98142165 -0.4649242

convs.1.coeff f4 [3]
00000000: b004 8bbf a448 98bf b591 9b3f
-1.0860806 -1.1897168 1.2153841

convs.1.fcn.weight f4 [5, 16]
00000000: 39d7 dd3e 8c64 1ebf e98d 043e 84b2 253f
00000010: 8e8d 4b3e c89c 723e e188 343f 7efd 67bf
00000020: 0236 703f 1b05 8c3f 36bc 693f 648e 5a3f
00000030: 9396 033f 8031 94bf a1e4 a7bf cc38 9dbf
00000040: bdc9 4ebf 3ae9 a0bd cac1 63bf 3518 0a3e
00000050: f0e6 1cbf df11 1dbf 3d25 033f 1bb3 d33c
00000060: d66a 293f aff7 1abd 7404 a53d f357 4d3e
00000070: b6a9 813f 7b62 993f 8c4c dc3e 0f81 303f
00000080: 8988 91bf e65c 68bf 13db 06bf 5854 5ebf
00000090: a5f4 2bbf 7eff 43bf 44e9 553f bbd0 823f
000000a0: 92bb 70bf ac9c 893f b0f3 4bbe 778c 913f
000000b0: 96ab 37bf ec45 9bbf 4193 883f 18b2 8c3f
000000c0: b96a f83e 21eb 893f 021c a13e 82e0 76bf
000000d0: 7952 833f 8d12 833f c66e 64bf e80e 663f
000000e0: 0b01 1ebf 1edb 4cbf 437c 6dbf f02c 7dbf
000000f0: e7de 853e 28cd 5a3e 12ee 473f 5384 7cbf
00000100: ab11 203e 2153 8fbf 9727 1c3f fa27 a03f
00000110: 60f0 5ebf 96bb 49bf 1d94 38bf e02c 94bf
00000120: e178 a8be 2a49 9ebf 262e 4b3f 8d48 d03e
00000130: 9b3e 8bbf dd9d 6c3f 1555 a9bd 4c69 9a3f
0.43328264 -0.6187217 0.1294476 0.6472552 0.19878218 0.2369262 0.7052136 -0.90621173
0.9383241 1.0939058 0.9130281 0.8537352 0.51401633 -1.1577606 -1.3116647 -1.2282958
-0.8077658 -0.078569844 -0.88967574 0.13485797 -0.6128988 -0.61355394 0.51228696 0.02584224
0.66178644 -0.037833866 0.0805749 0.20053081 1.0129917 1.1983179 0.4302715 0.6894693
-1.1369792 -0.9076675 -0.5267803 -0.8684745 -0.6717017 -0.76561725 0.8355906 1.021995
-0.9403621 1.0750937 -0.19917178 1.1370991 -0.71746194 -1.2130713 1.0669938 1.099185
0.48518923 1.0774881 0.3146668 -0.9643632 1.0259544 1.0240036 -0.89231527 0.89866495
-0.6172034 -0.80021846 -0.92767733 -0.98896694 0.26146623 0.21367323 0.7809764 -0.9863941
0.1563174 -1.1197244 0.6099791 1.25122 -0.87085533 -0.7880186 -0.72101 -1.1576195
-0.32904723 -1.2366078 0.7936729 0.40680352 -1.0878481 0.9242838 -0.08268181 1.2063384

convs.1.fcn.bias f4 [5]
00000000: 53f4 6b3e 7f2c cbbe 67e0 76be 33ae 20bb
00000010: 0714 f93d
0.23042421 -0.39682385 -0.2410904 -0.0024517893 0.12162023

fcn.weight f4 [16, 1703]
00000000: b501 903b b87f 77b4 b155 adb7 4f6e 213a
00000010: b1f8 f93c 8703 3f3b b4f9 6bbd 51c0 853a
00000020: ede1 673c 331f 1bb5 ec40 31bd 5fc0 72bc
00000030: 6147 2b3c 8349 90bd b8b9 d6b4 8760 f7bc
00000040: fd39 24b5 412a e73c 5b48 443d ea82 b0ba
00000050: 5763 3b3c db57 bdb9 7b79 b73b 6ccb 71bd
00000060: 7529 81bd 9328 1dbb 824d ecb3 292e 34bc
00000070: ee28 ea3b 27cc 0935 d074 cd3c a972 fa3b
00000080: 04ce 40b5 2135 c8bd 8f59 b3bc af86 d7bb
00000090: d541 9aba 8eed 2c3c b76f a0bb 60f0 20b5
000000a0: 9178 423a 967d 0c3a 8e0b 313c 9126 8a34
000000b0: 3555 4eb4 e0c8 b63c c18e 203c d8dd 3c3a
000000c0: 4ad0 5f3c f278 f434 e7ad 27bd c460 433b
000000d0: 39d0 2bbc 20f9 febb 80ba 3839 1d8c d2b4
000000e0: e98f 1f35 77e9 00bd b7e6 a134 66d9 e33b
000000f0: 98b8 d8b3 f740 96b2 3430 533c 2ae2 973b
00000100: 78a5 6a3c d70c 8aba a037 e3bd f6df 9cb9
00000110: cc88 a2bb 9b69 d0b1 08e4 c2ba 9943 94b9
00000120: 0d60 1534 73c4 cc3b e090 8db4 da71 8f34
00000130: 828e d93a 2e93 563b 0b4a ecbc 21d4 d03c
00000140: db54 843c 13b4 b1bc 9ecd a43a db90 e83b
00000150: 6fb8 f23b 7f93 4ab5 f613 dd3b 1417 3b3c
00000160: 6510 23b5 1e1a abba 1f63 bf3c 40d0 d03c
00000170: b404 873c c3c9 bcbc 2d15 9839 c1b7 d43b
00000180: eb1d 5cbd 2d71 b6bb bd99 c9b9 974e 13bc
00000190: 5526 06ba 91f2 1ab5 1e2f 703b 667d 0db3
000001a0: 11b2 beba d74a 183c 3063 fa3a fbda bc34
000001b0: 6f44 b03a 6ac9 6f3d 178c 7e39 14b8 69b4
000001c0: 468c ddbb 0dc6 d6bb 5c0d 8ebc 7197 d9bd
000001d0: 1524 fd3c d0b8 103b 35a3 3d3c 97ff 06bb
000001e0: 1d52 4b3d 67b3 a63c 1e8a 0fb4 b1df c1b4
000001f0: b288 c93b 3d9d 84ba e419 1f3c 5649 783c
00000200: 1d15 2d3c 5c4b 9eb4 ab74 79bc 69a4 163c
00000210: 0f83 4ebb e448 20bc ec10 713b 42ca f73c
00000220: 10ad d33b 24d6 b13a 88de ea3c 657d 2abc
00000230: c22c 3235 546e 6abd 1f4c 3abb 1beb 45bc
00000240: e235 d53c f093 9b3c 034f fcbc 090e 893b
00000250: abe7 42bb 7c2c 063d 8b89 53b9 f6e5 82bc
00000260: bee7 493b 9f48 02bc 0e3b 97bd 5c06 5db5
00000270: f255 5b34 f1b1 30ba 48d2 97ba d888 33b5
00000280: b080 9cb9 3c52 f0ba 5187 453a ed39 1cbd
00000290: 5832 a13c b9f7 e133 8056 3cb9 0bfc 92b9
000002a0: e9f7 31b3 c5a8 1634 2972 ee39 8249 c4bb
000002b0: 5248 c23a 3404 03bd e28f 113a 159c 0235
000002c0: ded3 fcb4 3611 2a3c 01ef 90bd 46db 6fb4
000002d0: 74ca e5b3 71cc e8bd b585 34ba 254d c939
000002e0: 17f5 9d3c 5589 f33b 5c25 35b4 6324 95bd
000002f0: b939 a43b 616f 23b5 1674 b23b 139d 08b4
00000300: 39fd 08b5 e1a2 a234 5a17 6eba 2e70 90bc
00000310: 835a 61bd d1d9 2db4 6d05 0dbc 3e4f 85b4
00000320: c19f c3b7 dc82 25bd 044b 6e34 d34e c739
00000330: d50c 7d3b 6114 b63b 6dc8 ad3b 82c0 023c
00000340: 7f1f c534 a6bd 93b9 7006 763c 614d 89ba
00000350: 97c5 1c33 4819 3d3c 4c86 01bc 033b 9bbd
00000360: 65c9 943a ab9a 683b ee77 1dbd c498 d5bc
00000370: 18af c53b 69c9 e43a 6332 4c37 4317 553c
00000380: 1625 3ab5 afd2 9b3b 51d3 133c 74ec 483c
00000390: 9e5b b9bd 158c c7bb b8be 043d 118b 9c34
000003a0: 611e a83b 32a2 663c 2646 553c 189c 343c
000003b0: 39bd cdbd 48fc c0ba 7e2a 7f3b 1dc5 643b
000003c0: 7218 a63b d684 cc34 11a5 5cbc 471c 0a3d
000003d0: 235f 25bc 04fd cf3a 2d28 1f3c eeac abba
000003e0: b633 4cbc 17d4 2f39 5c31 d43b 74ad 9c3b
000003f0: 0f3f bfba e274 f5b8 6460 8634 858c 5bbb
0.0043947347 -2.3050131e-07 -2.066311e-05 0.00061581 0.030514093 0.002914639 -0.057611182 0.001020441
0.014152986 -5.77874e-07 -0.043274805 -0.014816373 0.01045403 -0.07045271 -3.9995734e-07 -0.030197395
-6.1179145e-07 0.02821839 0.047920566 -0.001346675 0.011437259 -0.00036114347 0.0055991984 -0.05903189
-0.063067354 -0.0023980483 -1.1003705e-07 -0.010997334 0.0071459925 5.133356e-07 0.025080115 0.007643063
-7.1825366e-07 -0.097757585 -0.02189329 -0.006577335 -0.0011768887 0.010554684 -0.00489613 -5.9954436e-07
0.00074184785 0.000535929 0.0108059775 2.5732564e-07 -1.9216243e-07 0.022312582 0.00979966 0.0007204688
0.0136605 4.553654e-07 -0.04093733 0.0029812315 -0.010486656 -0.007781163 0.00017617084 -3.9217494e-07
5.944153e-07 -0.03147265 3.0156454e-07 0.006953406 -1.0091861e-07 -1.749184e-08 0.0128899105 0.004635115
0.014321677 -0.0010532391 -0.11094594 -0.00029921503 -0.004960155 -6.0656027e-09 -0.0014868984 -0.00028279124
1.391165e-07 0.0062490045 -2.6368707e-07 2.6718664e-07 0.0016598257 0.0032741535 -0.0288439 0.025491776
0.016153743 -0.021692311 0.0012573486 0.0070973462 0.00740724 -7.54655e-07 0.0067467643 0.0114190765
-6.074609e-07 -0.0013054048 0.023362694 0.025489926 0.016481735 -0.023045426 0.00029007476 0.0064916317
-0.05373947 -0.005567691 -0.00038452251 -0.008990905 -0.0005117406 -5.772245e-07 0.0036649178 -3.294317e-08
-0.0014548918 0.009295187 0.0019103047 3.5177058e-07 0.0013448129 0.058541693 0.00024275515 -2.1766783e-07
-0.0067611067 -0.006554371 -0.017340355 -0.10624588 0.030900994 0.0022082813 0.011574556 -0.002059912
0.049638856 0.020349218 -1.336816e-07 -3.6111808e-07 0.0061503286 -0.0010117661 0.009710763 0.015154203
0.010564116 -2.9484625e-07 -0.01522557 0.009194472 -0.0031511222 -0.0097830035 0.0036783768 0.030247811
0.0064598396 0.0013567847 0.028670564 -0.010405873 6.63753e-07 -0.057234123 -0.002842672 -0.012079979
0.02602667 0.01899144 -0.030799394 0.0041825813 -0.0029740136 0.032757267 -0.00020173767 -0.015978795
0.0030808295 -0.0079518845 -0.07384311 -8.233817e-07 2.0427231e-07 -0.00067403825 -0.0011583054 -6.688183e-07
-0.00029850518 -0.0018335055 0.00075351173 -0.03814118 0.019677326 1.05224395e-07 -0.00017961301 -0.00028035077
-4.1436497e-08 1.4031237e-07 0.00045479953 -0.005990208 0.0014822579 -0.03198643 0.0005552751 4.8655903e-07
-4.7092811e-07 0.01038008 -0.070768364 -2.2338381e-07 -1.07004695e-07 -0.11367119 -0.0006886379 0.00038395185
0.019281907 0.0074321427 -1.687053e-07 -0.07282331 0.005011764 -6.088431e-07 0.0054459674 -1.272313e-07
-5.1032436e-07 3.029336e-07 -0.0009082459 -0.017631616 -0.05501796 -1.6191122e-07 -0.008607251 -2.4830837e-07
-2.3320203e-05 -0.040408 2.2192768e-07 0.00038014966 0.0038612385 0.0055566286 0.0053034336 0.007980468
3.6717026e-07 -0.00028179324 0.015016183 -0.0010475331 3.6501287e-08 0.011541672 -0.007905554 -0.07579615
0.0011351524 0.003549258 -0.038444452 -0.02607382 0.0060328357 0.0017455044 1.2171079e-05 0.013006034
-6.9344367e-07 0.00475534 0.00902255 0.012263406 -0.09050678 -0.006089697 0.032408446 2.9158448e-07
0.0051305746 0.014076756 0.013017213 0.011023544 -0.10045857 -0.0014723623 0.003893524 0.0034907528
0.005068832 3.8094612e-07 -0.013467089 0.033718374 -0.010093483 0.0015868251 0.0097141685 -0.0013097802
-0.012463501 0.0001676831 0.0064756107 0.0047814194 -0.0014590936 -0.000117042815 2.5029578e-07 -0.0033500504

fcn.bias f4 [16]
00000000: afa8 e83d 06f2 a03d f9fe 4d3e dad9 f73c
00000010: 1389 123e b78f 133e 973f e23b c1df aa3d
00000020: e400 29bd afe3 073e 8f3e 2d3d b1ee a03d
00000030: 9cb3 9ebd b380 57bc b501 f53d f943 a73d
0.11360299 0.07858662 0.20116796 0.030255247 0.14310102 0.14410292 0.006904553 0.08343459
-0.041260615 0.13270448 0.04229599 0.07858027 -0.077491015 -0.013153243 0.11963216 0.08167262
