GGCN/pretrained/GGCN_cora_04_14_04_45.pt (torch, 269501 bytes, 130 tensors)

convs.0.deg_coeff f4 [2]
00000000: 9349 ca3f 0fd9 aa3f
1.5803703 1.3347491

convs.0.coeff f4 [3]
00000000: 76de 4f3f fa17 7bbf 132b e83e
0.81198823 -0.9808346 0.45345363

convs.0.fcn.weight f4 [16, 1433]
00000000: 9ec3 503d fcd0 133d b3f8 49bd 7172 aabb
00000010: 576d f33d 9108 653d 5e14 2fbe 0221 62ba
00000020: 4af0 b7bb 7d8b 23be 3615 193c bc6f adbd
00000030: 7c68 94bc 0917 383e 87ec e1bd 1590 aa3c
00000040: 3a40 5ebe aad5 29bd b2ce 05be 0396 1abe
00000050: 9e66 29bd e19a 91bd db5d 043d 0397 1ebd
00000060: 3df8 723d dc3f ec3c 2761 d5bd b8f7 d3bd
00000070: eb91 663c 4b10 a13d 7951 d937 4c11 4dbc
00000080: 61cc 103c f840 1dbd 445c c13d b555 b1bd
00000090: 6839 a83c a644 1abb 2062 35be 4458 4bbd
000000a0: 3c41 623e 411d 9dbd d069 4c3d 0877 89bd
000000b0: 21c6 6bbd c77c 87bc 3b8d 703d 9412 33bd
000000c0: 8c55 993d 9dde 263d c747 403d a997 d0be
000000d0: 3939 1dbd a868 173d e454 fe3d bd9d 4fbd
000000e0: 8d7a a53d 2711 31bc 72d9 47be ffb2 f23b
000000f0: e31b 6cbb c13a da3d 1683 983d d099 093d
00000100: 832b 253e cc14 aa3d 5173 06bb 5b5f 4c3d
00000110: a7e2 bf3c 1042 43bd 6fb0 563d a4d8 013b
00000120: c593 7a3d 2ed6 4a3d aefe 35bd 6105 a23d
00000130: 1a08 4bba d82c 163d ddd7 1fbd 3c3d d3bc
00000140: e005 47be 6232 043e 2635 913c 31a3 723d
00000150: 53f7 c7bd adc6 673e 6213 6a3d 4f87 e9bc
00000160: 2834 183e 9b9b a1bd 375e 3dbd c77a 64bd
00000170: bb06 a9bd e359 a03d 1df1 a23d 047d 8dbd
00000180: b85c 343d 0038 14bd a1c0 e73d 968b 48be
00000190: de0a d0bd f8a3 91bb 4ecf 62bd 254e 293e
000001a0: f189 ecbc cd71 d73c 2932 18bd a748 3ebc
000001b0: 42d6 0e38 7c6c 813d 8498 eebc 4c6e d6bd
000001c0: 93db 293d 80df 92bd 9c47 d13c 06e8 9ebd
000001d0: a9b5 2dbd 3629 3bbc a4ab fabc a078 0dbd
000001e0: 68bc 62bd c270 c43d 7551 b33d 7aec 2dbc
000001f0: c40c 333c 0213 413d b542 643d ae70 24be
00000200: c69e f13d 9a94 87be c7f0 163e 4339 6fbe
00000210: 683b 26bd 7ffd b83b d3be c5bc c025 a0bc
00000220: 2fd7 993d 0903 653d 1da0 16be 3da5 043d
00000230: 0755 2abe f353 22bb f068 6dbd 8c93 1e3e
00000240: b93c e6bd 8ecb e5bd 7388 fdbd 7234 eb3c
00000250: a059 24bd 64c4 89bc d3be a23d 7517 22be
00000260: 13cf 963d 274e a33c 5e84 56be d6d5 c13c
00000270: 2b2f 4e3e 5d13 c53d 8573 86bd 5dd9 88bd
00000280: 3af1 7a3d 3b83 9a3d 7bad 1fbe 8b0b e4bc
00000290: bb47 bdbc 8573 e2bc 8e7c 323d a5d2 143e
000002a0: 4717 59be 779e afbc 932d 9f3d 50e1 66bd
000002b0: f5d4 e73c 1041 3d3b 4c8a 313d e9ae b73d
000002c0: eb28 9b3c c184 043e 28dd 37bd 10d0 393e
000002d0: deef fa3c abb6 91bd 54bf 9e3c 0adc ea3c
000002e0: 72d0 523c 7e8c a03b 1e9a fd3d 7d8d 76bd
000002f0: 9361 613d e4f4 683e 31f8 893d 71c1 e43c
00000300: 7be9 533b 27b1 003d 9708 a7bd a229 74b9
00000310: 6418 1abd 4041 54bd acd3 9abd 3ce9 96bd
00000320: 21d5 973d 3a29 623d 3f8a f93d 4870 28bd
00000330: c5ea c53d b933 943e 8b04 5c3d 119e 34bd
00000340: bb75 0cbd 3c85 a0bd 3af3 c3bc fe4f dcbd
00000350: 577e b3bd 4906 763d cb42 d7bc 02e4 a53d
00000360: d935 453b 6cc4 393e 0ab3 133e 6140 2b3d
00000370: d7ed 1d3d 8828 b33c bd55 553d 45be 5ebd
00000380: ad84 edbb 2002 9cbb fe79 403d 35da 88bd
00000390: 6765 513d a1ba f3bd 822a 233d bea6 423e
000003a0: 2bee 72bd 9cf2 df3d fc3f 90bb aa4c 023e
000003b0: 99d5 bb3d fc22 933d 04a2 393e 1131 a43c
000003c0: 8768 483d 0ef2 f0bd 5496 503d 41b9 36bd
000003d0: b20f 443d bffe 663d 3a87 5bbe e612 f5bb
000003e0: 8e43 8c3d 6cba 56bd 7a3d 8dbd b905 923d
000003f0: c69d 6c3d 7181 39bd 7434 d5bd 8be3 8d3d
0.050967805 0.036087975 -0.049309444 -0.0052016308 0.11886089 0.055916373 -0.17097613 -0.00086261344
-0.0056133615 -0.1597118 0.009343436 -0.08468577 -0.018116228 0.17977537 -0.11031442 0.020820657
-0.21704188 -0.04146353 -0.13067129 -0.15096287 -0.04135763 -0.07109619 0.03231607 -0.038718235
0.05931877 0.028839044 -0.10418921 -0.10349983 0.0140728755 0.07864436 2.5906354e-05 -0.012516331
0.00883779 -0.038392037 0.094414264 -0.086589254 0.020535186 -0.0023539453 -0.17713213 -0.049644724
0.22095197 -0.07671595 0.0499056 -0.067121565 -0.057561997 -0.01653899 0.058728438 -0.04371889
0.0748702 0.040739644 0.046943452 -0.40740708 -0.03838465 0.036965042 0.12418535 -0.05068754
0.08080015 -0.010807312 -0.19516543 0.007406592 -0.0036027364 0.10655738 0.07446878 0.033593953
0.1612988 0.08304748 -0.0020515511 0.049895626 0.023423506 -0.047670424 0.052414354 0.0019812966
0.06117608 0.049520664 -0.044432335 0.07911182 -0.00077450427 0.03666386 -0.039024223 -0.025786035
-0.19435835 0.12909845 0.017725538 0.059237663 -0.0976397 0.22634383 0.05714739 -0.028506903
0.14863646 -0.078910075 -0.04623243 -0.055781152 -0.08253237 0.078296445 0.07956145 -0.069086105
0.044033736 -0.03618622 0.11316038 -0.19584498 -0.10158323 -0.0044445954 -0.055373482 0.16533716
-0.02887437 0.026299382 -0.03715721 -0.011614001 3.405498e-05 0.0631952 -0.02912546 -0.10470256
0.041469168 -0.071715355 0.025546841 -0.07759099 -0.042409573 -0.0114234 -0.030599423 -0.034538865
-0.05535546 0.09591819 0.08755771 -0.010615462 0.0109283365 0.047137268 0.05572768 -0.16058609
0.11797862 -0.26480561 0.14740287 -0.23361687 -0.040583998 0.0056454535 -0.024138844 -0.01954925
0.07511746 0.055911098 -0.14709516 0.032384146 -0.16633998 -0.0024769276 -0.057961404 0.15485972
-0.11242051 -0.112204656 -0.12379541 0.028711531 -0.040124536 -0.01681728 0.07946553 -0.1582926
0.07363715 0.019934727 -0.20948932 0.023661535 0.2013518 0.09622834 -0.06565002 -0.06682084
0.061265208 0.075445615 -0.15593521 -0.027837535 -0.023105493 -0.027642975 0.043575816 0.1453348
-0.21200286 -0.021437867 0.077723645 -0.05636722 0.028299788 0.0028877892 0.04334478 0.08968908
0.01894041 0.12941267 -0.044888645 0.18145776 0.030631956 -0.07114919 0.019378342 0.028669376
0.01286708 0.0048995605 0.12382911 -0.060193527 0.055024695 0.22749668 0.06736792 0.027924271
0.003233521 0.031418946 -0.08155935 -0.00023285163 -0.037620917 -0.05182004 -0.075599045 -0.07368705
0.07413698 0.055215098 0.121845715 -0.041122705 0.09663919 0.2894571 0.05371527 -0.044096056
-0.034291964 -0.078379124 -0.02391969 -0.10757445 -0.08764332 0.060064588 -0.026276967 0.0810013
0.003009191 0.18141335 0.14423767 0.041809443 0.0385569 0.021869913 0.05208372 -0.054380674
-0.007248482 -0.0047609955 0.04699134 -0.06682245 0.051122095 -0.11900831 0.03983546 0.1900892
-0.059309166 0.10934946 -0.004402159 0.12724558 0.091716 0.07184407 0.1812821 0.020042928
0.04892781 -0.11764918 0.050924614 -0.044610266 0.04786653 0.05639529 -0.21438304 -0.0074790595
0.068488225 -0.05242388 -0.06896491 0.07129998 0.057767652 -0.04528946 -0.10410395 0.06928166

convs.0.fcn.bias f4 [16]
00000000: e19e c13a 7f3c c43b 1330 33bb cbb6 c43b
00000010: 0448 7d3b ab69 22b9 1b52 93bb 707c 673c
00000020: ca5d 523b f5c2 c93b 09bf 833e a4ab 43bc
00000030: d603 6cbb 58f8 6bbb a656 11bb 7775 ed3b
0.0014772081 0.005988657 -0.0027341887 0.006003236 0.003864766 -0.00015488888 -0.0044958717 0.014128789
0.003209936 0.006157274 0.25731686 -0.011942778 -0.0036013029 -0.0036006179 -0.002217689 0.007246669

convs.1.deg_coeff f4 [2]
00000000: 98b5 993f 04c8 b63f
1.2008543 1.427979

convs.1.coeff f4 [3]
00000000: 0966 993f 2972 91bf f39c 08be
1.1984264 -1.1362964 -0.13341121

convs.1.fcn.weight f4 [16, 16]
00000000: e716 7d3f e7a1 a0bd 92bb 56bd 54be 7ebe
00000010: 09d9 843f cef4 733e dd9b ccbd 1383 93be
00000020: 5aef 863d a0b9 c1bc 0194 47bd 1f92 523e
00000030: d83e bc3e aa7a c53e 4f15 acbc 53be e4be
00000040: 5449 0abe 9014 3d3f 95dd 253e 1a54 9abe
00000050: c26b 29be a38f 88be 3799 a43e 211a 413f
00000060: c769 a3bd 4820 bf3e d4e2 733d c2cd 4bbf
00000070: 5eee c3bd 1767 ca3d ecf3 84be c346 6d3b
00000080: 01c1 65bd f747 2d3e e7ce 663f 0de5 98be
00000090: 1efc a23d 69ca 0cbf 779c bebe 0bcb 073c
000000a0: 810f 123e 894d 09bf 5920 843d 425c 34be
000000b0: ecff 30bf 6d04 543e 1721 f8bd 772e 36bd
000000c0: 9088 8cbe 3e14 89be 0a29 2abe 4abb 433f
000000d0: e0c6 45be a547 943c 81c7 b43d d5b1 1abe
000000e0: 5a89 283f 2a0c 663e 5793 bb3d c2e1 9e3e
000000f0: 6427 ac3e 9335 25bf bce9 293f 033c a33c
00000100: dd20 863f c7fe 12bd a6be 653d 99b4 36be
00000110: 3a61 8a3f a076 143e 93a0 39be a9ef 95be
00000120: 3f9d 653e bc57 6abd c3e1 51bd 7532 453e
00000130: 261f d43e 889b a23e a96e b63d 763a edbe
00000140: bdcf 523e 7744 38be 95b3 febe 8b9b 1a3d
00000150: e698 653d 7330 533f 0577 fe3e e1d0 46be
00000160: 96a2 1fbe 48e0 0e3f d33d c5bc 6138 593e
00000170: be33 4dbe f4e4 afbd 9920 4bbd e68a 2cbf
00000180: 0db8 8bbe ab2c f73e 4084 05bf a987 1a3d
00000190: 40c1 b4be 7ff2 d43e 41a5 8c3f ed8d 893e
000001a0: 5faf c4ba ceea 553f 2e20 e4bc 0cbc 55be
000001b0: c1fb a3be 9e60 34bc ad4b 5f3e 1a4a b3bd
000001c0: c400 afbe de97 393f 6a8b a13d 01da bbbd
000001d0: d4f6 bdbe 87d3 aabe e6e0 b03d f362 5d3f
000001e0: 6f6a 2ebd ef8f b03e 2c52 163e ab83 55bf
000001f0: 5e49 a13d 6613 c4bd a466 70be 4458 043e
00000200: 207c 583c e4b4 5fbd 785e b03d b893 333f
00000210: c885 333e 5cee 7abe bf4a 66bd 79f3 a8bd
00000220: ca61 7e3f 03a9 503e 6e2b 133c e0ed b93d
00000230: d32d 8c3e 93a3 36bf 6a99 423f ada7 8bbe
00000240: 31c9 0fbe 8ba0 f63e 2615 0abf 6be4 953e
00000250: 6501 58be 22a1 e33e 5da2 423f c9b0 df3e
00000260: e72c a63e bb00 483f dfa2 cc3c e814 c5be
00000270: 6d59 f23c 643f c5be 2b7f 833e 6e5b d4be
00000280: 50b3 773e 5b68 c23d 82a4 373c 738e f43d
00000290: 4cbc 253e caf1 f43e bdad 56bb 4470 673e
000002a0: 572f 68bd 0053 853e 73f2 583e 6d93 dc3d
000002b0: 73a1 a03e a4d9 3b3e d664 103d 5ca0 603d
000002c0: 3da6 6b3e 8d9d 33bf 2e15 7dbd 2f9e 8e3e
000002d0: 0573 773e 1033 b33e 1dbc 1a3a 2345 4ebf
000002e0: dcc6 9e3d 75e0 6cbe d5d6 d53c 323f 613f
000002f0: 6350 fc3a c73b ad3d 6498 c63e ea67 a43d
00000300: 1826 ca3e 6cdb ecbd 7bdc 24bf b523 c13e
00000310: b4e1 d93e 83ed 8fbe 71e7 aebe dea5 323d
00000320: 70bd 3e3e 8769 fdbc 5d9a da3c 1659 4d3d
00000330: c65a 933f 87f1 2dbe 8dd7 893e 1a86 ab3e
00000340: 4504 bd3e d767 773e e709 8c3e bcd4 39bf
00000350: 8663 833e 8669 54ba 27a1 c13d 6dbe 003d
00000360: 051e 46bf 248c 89be 4669 863d aa79 33bd
00000370: 339b 6ebe efd1 603f 0aff ffbe b9a6 b63e
00000380: 52e8 9ebd d743 4bbe 1e29 c5bd a868 333f
00000390: e97d 0c3d 45d1 5fbd c20a 7b3e e9eb 83be
000003a0: fb14 4b3f 4211 803e f159 9c3d f630 b63e
000003b0: 2b72 983e d782 02bf 5c75 483f ea4d 4b3d
000003c0: 6a9e 05bf 689f 1c3d 67b4 303d ea92 35bc
000003d0: 136d 01bf 27f3 26bf e014 a7bd 22e2 b93d
000003e0: c65c 9ebe 927b e0be 8780 1f3e ed5d e33c
000003f0: 1834 823e 7e98 913e c561 4dbc 6b27 823f
0.9886307 -0.078433804 -0.052424975 -0.24877292 1.0378734 0.23823854 -0.09990666 -0.2881094
0.065886214 -0.023648083 -0.048725132 0.20563553 0.36766696 0.38570148 -0.021006254 -0.44676456
-0.13504535 0.738595 0.16197808 -0.3014229 -0.16545013 -0.26672086 0.32148144 0.75430495
-0.0797916 0.37329316 0.059542492 -0.79610837 -0.09566949 0.09882944 -0.25967348 0.0036205507
-0.056092266 0.16921984 0.9015946 -0.29862252 0.07958244 -0.54996353 -0.37228748 0.008288155
0.14263727 -0.53633934 0.06451482 -0.17613319 -0.69140506 0.20704813 -0.121156864 -0.044477906
-0.2744794 -0.26773256 -0.16617218 0.76457655 -0.19314146 0.018100569 0.08827115 -0.151069
0.6583458 0.22465578 0.09158962 0.31031615 0.33623803 -0.6453487 0.66372275 0.019926077
1.0478779 -0.035887506 0.05609002 -0.1784233 1.0810921 0.14498377 -0.1812766 -0.2928441
0.22423266 -0.057212576 -0.051240694 0.19257529 0.41430014 0.31759286 0.089078255 -0.46333665
0.20587058 -0.17994867 -0.49746385 0.037745994 0.05605402 0.824958 0.4970018 -0.19415618
-0.15589365 0.55810976 -0.024077332 0.21212913 -0.2003927 -0.08588591 -0.049591634 -0.6739944
-0.27288857 0.48276266 -0.5215492 0.03772703 -0.35303688 0.4159126 1.0987931 0.26866093
-0.0015005878 0.8356141 -0.027847376 -0.20872515 -0.3202801 -0.011009363 0.21806212 -0.08754368
-0.34180272 0.72497356 0.07887919 -0.0917244 -0.37102377 -0.33364508 0.08636646 0.8647911
-0.04258197 0.34484813 0.14679784 -0.83404034 0.07875322 -0.095740125 -0.23476654 0.12924296
0.013213187 -0.05461587 0.086117685 0.70147276 0.17531502 -0.2450499 -0.056223627 -0.08249564
0.99367964 0.20376973 0.008982522 0.09078574 0.2737871 -0.71343344 0.7601534 -0.27276364
-0.14041592 0.4816936 -0.5393852 0.29275832 -0.21094282 0.44458872 0.76028997 0.43689564
0.32456133 0.78126115 0.024980007 -0.38492513 0.029583657 -0.38524926 0.2568296 -0.41476005
0.24189496 0.094925605 0.011208655 0.119412325 0.16185111 0.4784072 -0.0032757365 0.2260142
-0.05668577 0.26039886 0.21186237 0.10770307 0.31373176 0.18344742 0.035252415 0.05484043
0.23012634 -0.7016228 -0.061787777 0.2785506 0.2416497 0.34999895 0.0005902665 -0.80574244
0.07752773 -0.23132499 0.026103416 0.87987053 0.0019250031 0.08458667 0.3878814 0.080276325
0.39482188 -0.11565289 -0.64398926 0.37722555 0.4255501 -0.28110895 -0.3416095 0.043615215
0.18626952 -0.030934108 0.026684934 0.050133787 1.1512077 -0.16986667 0.26922265 0.3350075
0.3691732 0.24160706 0.27351305 -0.7259023 0.25661868 -0.00081028824 0.094545655 0.031431604
-0.77389556 -0.2686473 0.06563048 -0.0438172 -0.23301391 0.87820333 -0.49999267 0.35674074
-0.07759155 -0.19850098 -0.09626983 0.7008157 0.034299765 -0.054642934 0.24515823 -0.25765923
0.7932889 0.25013167 0.076343425 0.3558423 0.29774603 -0.50980896 0.78304076 0.04963485
-0.52194846 0.03823796 0.043140795 -0.01108239 -0.5055706 -0.6521477 -0.081582785 0.090763345
-0.30930156 -0.43844277 0.15576373 0.027754748 0.2543037 0.28436655 -0.012535517 1.016828

convs.1.fcn.bias f4 [16]
00000000: 66ce 173e 7e15 1b3e db9e 253e 110e a33e
00000010: 2bb5 2d3e 72d6 763e 7857 0a3e cba8 853e
00000020: 4336 673e abfe 913e 8364 3a3f 14a5 ab3e
00000030: 1004 543e 744a 813e 3081 cb3e cca7 683e
0.14824829 0.15144917 0.1617388 0.3184667 0.16963641 0.24105242 0.13509929 0.2610534
0.22579293 0.2851461 0.7280962 0.33524382 0.20704675 0.25252116 0.39747 0.2272026

convs.2.deg_coeff f4 [2]
00000000: 15f4 283f d135 ac3f
0.6599744 1.3453923

convs.2.coeff f4 [3]
00000000: 1004 923f 33aa 71bf bb14 e5bd
1.140749 -0.9440033 -0.11185595

convs.2.fcn.weight f4 [16, 16]
00000000: 5aa6 0c3f 89be 15bd 3f31 223d 2be9 ccbd
00000010: 3149 073f 7afd fb3d 808b abbd d9ea 06be
00000020: 7562 273d ebbb 7bbc 8c81 3cbd f739 cc3d
00000030: 1854 3e3e f437 4a3e 34e3 79bc ae54 69be
00000040: 57ae 74bd c004 bf3e d799 e53d 3f5a 0dbe
00000050: 7775 89bd fa91 01be 92ea 063e eaae c43e
00000060: 8182 adbc 5b83 1e3e 0544 743d 6138 bbbe
00000070: 511b 41bd 8c9e b93d f36f 07be 638e b23c
00000080: 576b c83a 2997 863d b3c6 063f 084a 20be
00000090: 7707 723d 6f23 7dbe 9dae 79be 958e 083d
000000a0: 5263 db3c 941f 87be e2cb cb3d 30e5 3bbd
000000b0: f210 8dbe d375 193e 4b7d 83bd 8b93 573c
000000c0: 448e d1bd fc07 f2bd e9d0 a9bd 2a7d ba3e
000000d0: d792 71bd f18b 0a3d c891 9e3c aeb9 58bd
000000e0: 5498 b43e a5f9 0f3e 9ad9 8d3d 74d2 213e
000000f0: ec2a 453e 186d a5be c36a b23e cb95 7f3b
00000100: fff1 0e3f a035 77bd 6d47 143d 9db8 c3bd
00000110: 6592 0b3f 5f04 973d 526a 0bbe 4fdd 22be
00000120: 0570 bf3d 6fc8 51bd a549 6abd 1e6b ef3d
00000130: 7908 403e 6d55 193e 607e 983c 82ff 7cbe
00000140: ab43 d03d 3c78 e3bd 2a23 8abe 27ac 6b3b
00000150: 2986 353d 64e5 e53e 0e7f 3e3e ca43 bcbd
00000160: 9d12 c4bd f0e5 743e 8f09 72bd bec0 703d
00000170: 6371 89bd 1167 6fbd 4876 83bd a9ed acbe
00000180: c4af 1dbe ddd6 853e f1ed 84be 0768 043d
00000190: e86c 5abe cfbd 613e f457 323f 64bf 203e
000001a0: 6ae0 8f3c 91e4 053f eb86 e63c 7fee e0bd
000001b0: 5e94 21be d393 66bc 896e da3d 9adb 22bd
000001c0: f513 1ebe 7aa4 a13e c4bf 403d 762a 7fbd
000001d0: 1620 38be 9764 e2bd 105b 793d d541 ca3e
000001e0: 0049 56bc 6f86 103e 5663 ad3d d4ca bdbe
000001f0: e8dd 9f3a 8d40 88bc 84c5 fabd 019d 4d3d
00000200: c4a7 8e3c 215e 3fbc 3be1 a33d 1060 b53e
00000210: b048 bb3d 9f0c b8bd 202e d0bc 7b4a 8739
00000220: 86d2 0c3f d608 103e 2e39 383d 2d3c 4f3d
00000230: 0977 253e c61e c1be c095 cf3e e766 18be
00000240: b3bc 59bd 73ec 853e 98b0 4fbe 7c70 043e
00000250: 4db9 bdbd ab6b 883e 2eed f43e b2de 8d3e
00000260: 980c f63d c339 0a3f f036 a53d 29e8 26be
00000270: d4bb fd3c 2e69 0bbe c5ca f83d 84b3 2bbe
00000280: 6e73 603d 374f 6f3b 6a2b 6bbd b83e ac3c
00000290: 0060 2d3d f3f8 d63d b467 2ebd 58cb 523d
000002a0: 3c1c eabc ea10 513d 64b8 0a3d 1b7b 83bb
000002b0: 2d0a b33d f4aa 7f3a 9c20 e0bc 94f1 83bc
000002c0: a907 173e e901 a4be 6a33 37bd 54cb e63d
000002d0: 688d 213e 9a7a 2c3e ef54 55bc d1c0 c1be
000002e0: b6f8 df3c 16ce b6bd 4118 d63c d4e8 df3e
000002f0: bfd7 333d e093 343d 1786 3d3e 44c8 ae3c
00000300: e4c7 513e 2366 21bd ffac 8cbe 8591 593e
00000310: fd80 463e c974 49bd 7f34 d1bd 474d 533d
00000320: b59b 213e b128 7a3d 7d45 763d 10ac 833d
00000330: fb8f 1c3f 4bdb adbd 78c1 323e b214 293e
00000340: 086d 2b3e 0767 dc3d c9a7 0a3e 7f81 c5be
00000350: 0f73 043e 9ce3 bdbc 4615 303d f390 a83b
00000360: 236d bfbe 3683 16be 2771 d03c 9cc1 bdbc
00000370: cdf1 12be 550d fa3e 8f29 89be ef9d 1c3e
00000380: 4aab a3bc 36f6 6bbd 412e debc dc70 b43e
00000390: 4be9 d33c eabb edbb 97b8 053e c96d 9ebd
000003a0: b074 c33e a79a 1f3e 9c60 cf3d 1809 453e
000003b0: 73c9 433e 5b23 69be 16d7 cc3e aaff 2c3d
000003c0: 1407 80be a59c 823d 3439 353d d04a 74bc
000003d0: 0090 79be 91c5 91be 201b 0d3d ac51 be3d
000003e0: c44e fabd 5568 0bbe 8bde 063e b8c1 a23c
000003f0: a7bf d23d 915e 233e f68a 7b3c 98fe 103f
0.5494133 -0.03655866 0.039597746 -0.10005411 0.52846056 0.12304206 -0.08376217 -0.13175525
0.04086538 -0.015364627 -0.046021983 0.099719934 0.18586767 0.19747907 -0.015251923 -0.22786209
-0.059736576 0.3730831 0.11210983 -0.13803957 -0.06711858 -0.12653342 0.13175419 0.384147
-0.021180393 0.15479796 0.05963518 -0.3656645 -0.04714519 0.090634435 -0.13226299 0.02179641
0.0015290779 0.065718 0.5264694 -0.1565324 0.05908915 -0.24720548 -0.24383016 0.0333391
0.026780758 -0.2639128 0.09950997 -0.045872867 -0.2755199 0.14986353 -0.06420382 0.013157736
-0.10232213 -0.11817929 -0.082917996 0.36423618 -0.058977928 0.033824865 0.019356623 -0.052911453
0.35272467 0.14060076 0.0692627 0.15802938 0.19254655 -0.32309794 0.34847078 0.0038999196
0.55838007 -0.060353875 0.03620093 -0.095566966 0.54520255 0.073738806 -0.13614777 -0.15904735
0.09347538 -0.05121654 -0.05719914 0.11690353 0.18753232 0.14973994 0.018614948 -0.24706843
0.10169157 -0.11106917 -0.26979953 0.0035960765 0.0443174 0.44901574 0.18603155 -0.09192617
-0.09573863 0.23915839 -0.059091147 0.058777563 -0.0671108 -0.0584479 -0.06419045 -0.3377507
-0.1539908 0.2614049 -0.25962785 0.03232577 -0.21330607 0.22045062 0.69665456 0.1569801
0.017563064 0.5230189 0.028140506 -0.109829895 -0.15779254 -0.01407333 0.10665614 -0.03976021
-0.154373 0.31570798 0.047057882 -0.062296353 -0.1798099 -0.11054342 0.06087786 0.3950335
-0.013078928 0.14113782 0.084662125 -0.37068808 0.001219687 -0.016632343 -0.12244704 0.05019856
0.017413981 -0.011680157 0.08001944 0.35424852 0.091447234 -0.08986782 -0.02541262 0.000258047
0.55008733 0.1406587 0.044976406 0.050594497 0.1615869 -0.3771879 0.40543938 -0.14883004
-0.053158473 0.2615696 -0.20282209 0.12933534 -0.09263859 0.26644644 0.47837204 0.27708966
0.12014121 0.5399439 0.08067119 -0.162995 0.030973352 -0.13614342 0.1214805 -0.16767699
0.054797582 0.0036515722 -0.05741445 0.021026 0.04232788 0.10496702 -0.042579368 0.051463455
-0.028577916 0.05104152 0.033867255 -0.004012478 0.08742175 0.0009752952 -0.0273593 -0.016106404
0.14749016 -0.32032707 -0.044726767 0.112692505 0.15776598 0.16843644 -0.013020738 -0.3784242
0.027340274 -0.089260265 0.026134612 0.4373232 0.043906923 0.044086337 0.18508182 0.021335728
0.20486408 -0.039404046 -0.27475736 0.21246918 0.19385143 -0.04918364 -0.10215091 0.05158737
0.15782054 0.061073963 0.060124863 0.06429303 0.61157197 -0.084890924 0.17456615 0.16511801
0.16740811 0.107618384 0.13540567 -0.3857536 0.12934516 -0.023179822 0.042989038 0.0051442324
-0.37387952 -0.1469849 0.02544458 -0.02316361 -0.14350052 0.48838297 -0.2678952 0.15294622
-0.019979138 -0.057607852 -0.027121665 0.35242355 0.025868079 -0.007255067 0.13058697 -0.077357836
0.38174963 0.15586339 0.10125849 0.1924175 0.19119816 -0.22767393 0.40007848 0.042236008
-0.250054 0.06377534 0.044244006 -0.014910415 -0.24371338 -0.28471044 0.034449697 0.092929214
-0.122220546 -0.13614018 0.13170831 0.019867763 0.10290461 0.15954043 0.015352955 0.5663848

convs.2.fcn.bias f4 [16]
00000000: 375b e23d 8dfd 053e e7e0 193e a8cf 483e
00000010: 08b1 343e 54ae 2b3e cc2c 4c3e 7464 193e
00000020: b8ed 2b3e d2ce 823e c317 523e f5d0 4b3e
00000030: 0b01 533e 43c8 3e3e d58d 8b3e bee9 243e
0.11052554 0.13085003 0.150272 0.19610465 0.17645657 0.1676572 0.19938964 0.14979726
0.16789901 0.25548416 0.20516877 0.1990393 0.20605867 0.18631081 0.27256647 0.1610479

convs.3.deg_coeff f4 [2]
00000000: 5a93 543d 4749 f43e
0.051898338 0.47712156

convs.3.coeff f4 [3]
00000000: a710 273c 1c15 5bbe cafe 8c3d
0.010196841 -0.21394771 0.06884535

convs.3.fcn.weight f4 [16, 16]
00000000: ef9c 983d a942 13bc 91e3 c3bc e0a1 e5bc
00000010: 8918 8e3d 079a 0e3c 14d0 27bc 452a 20bd
00000020: d9dd f3ba 286e 63bb f1b7 b4bd bd33 34bc
00000030: c44d 9f3c 04ba cf3c 052a aabc 0bcc 6ebd
00000040: 4349 2ebc 1efd 4f3d 69fb 483c 283b edbc
00000050: 6964 27bc 8825 d8bc c3ae bc3c 3dee 763d
00000060: ee87 5dbb 0605 b53c 4122 313b 9978 8ebd
00000070: ae0d 93bc e87e 963b 6b2b 00bd ae07 b5bc
00000080: 93dc c63b 170e c73c ffd8 053e b510 0abd
00000090: 68d9 0b3c 9085 2ebd 22db 23bd 707c 843c
000000a0: d670 37b9 acc5 08bd 67a9 cc3d f8f4 2cbc
000000b0: 0800 87bd 76c5 5a3d 8d29 c9bb 5cec 213c
000000c0: 240b a7bc 0270 dcbc 055c 2dbc 1855 883d
000000d0: 4013 7ebb bb57 9a3b 9027 1bbb 57ca 62bc
000000e0: f7eb 6b3d 0be3 753c def1 8b3c e043 063d
000000f0: cfeb e13c 7fee 76bd f590 7d3d a0eb a1b8
00000100: afba d43d d7cf 3fbc d362 283c 0fd2 83bc
00000110: 6c22 eb3d ce04 bb3c 8393 acbc e86b 11bd
00000120: 499a b73c 5ae8 25bc f686 3abd e470 ad3c
00000130: 6487 2e3d 49a9 c53c 0343 653b dff1 66bd
00000140: d591 c83c 791e 0abc ef14 1bbd 8d68 7a3c
00000150: 46a9 113c 0c74 f33d 68e8 613d 9789 cfbb
00000160: 9d97 acbc 25dc 8d3d d757 423b 85a8 ec3c
00000170: 5823 bb3b d989 91b9 d430 863b 3e2b 52bd
00000180: 4420 a4bc 5f91 5b3d 4afd 1abd 8b7d 933a
00000190: 9233 0bbd 8ba8 5e3d 19b4 113e 3ae4 093d
000001a0: ce6c 11bc 43e5 d73d 2b69 783d 94c9 b5bb
000001b0: c6ba d3bc fbbb 9a3c 8d80 823c c35f 83ba
000001c0: 66ab 82bc 218a 7b3d 66c2 c43c f134 60bc
000001d0: b3b2 a9bc 8e9c 5bbc a207 0b3c 1708 933d
000001e0: 365f ebbb 94a3 b33c ee72 e83c 1545 66bd
000001f0: adb4 973b c90a f43b 2dfb ccbc 21b3 8c3b
00000200: 8cc2 143b 1466 e73a a52f bc3c ade1 8b3d
00000210: fc14 483c b68d b6bc c083 b7bb 9f5f 4dba
00000220: 0f3b db3d 4c86 0d3d 8b32 123d 5196 0f3c
00000230: 46ef f33c e3a4 a8bd edf5 b63d 8bab fbbc
00000240: 6b17 60bc 00e3 fd3c 257b 68bd 6011 cf3c
00000250: 711d d1bc 329a 2c3d 8630 a63d 7f64 363d
00000260: af5c bc3c b954 d33d 4350 8ebb 3898 19bd
00000270: 74a4 e5ba 5cd9 38bd f40b 873c acec 49bd
00000280: ad68 6eb9 4969 143b b343 7abc 3d52 2e3b
00000290: 2afa ca3b 6b1d 333c 1fed 97bb 125e ae3b
000002a0: 282e 87bb cba0 d63a 5b3f 00bd f5d6 a6ba
000002b0: 63a6 403c f6c1 32bc e9e5 c2b9 99ba 15bc
000002c0: 8156 c73b 7d17 36bd 60cd 85bc 1f57 f73c
000002d0: 388a 323c 864c f33c 92f4 153c d2ea 7abd
000002e0: 27e3 aa3c 994b c83a e10a 9b3c 90af a83d
000002f0: 020d 4d3c aa89 7fbb 7b46 203d 6789 673c
00000300: 95a0 283d 8e9d 9ebc f871 54bd cc96 9a3c
00000310: 85f0 273d 8824 ccbb 9d58 07bd 17bb 70bc
00000320: ff7b 783c dd7e 02bc c854 a7bd afc8 1b3c
00000330: 6a49 d43d 1821 aebc cba1 753c 2fd4 b03c
00000340: 24fe 2b3d 9ce4 a73c 6442 ed3c 91bf 8ebd
00000350: 892b 063d fe74 37bb dc71 aa3c af31 09ba
00000360: ab3b 52bd 44fc 94bc 4be7 a03c 2bfb 103b
00000370: 1776 d9bc c7ed c23d a744 3cbd 2bdf 033d
00000380: 4d34 9bbb 6d70 a0bc 9c52 4abb cb38 6b3d
00000390: 9e8c 163c 2373 00bc 6de1 763c c1dc bdbc
000003a0: a997 8b3d 9718 d13c bffe 1b3d a52a 0d3d
000003b0: 0d3a a53c 8b16 5abd 4067 943d b4ee c2bb
000003c0: f97e 34bd 3f41 2c3b 070f 8d3b d7b4 23bc
000003d0: e0ad 53bd 90e4 80bd 8248 98ba ba42 1cb8
000003e0: e3be 68bc db58 24bd 4dd5 983d dc9f 5a3c
000003f0: 47e0 883b 3c34 393d ae50 b5ba 3be0 dc3d
0.07451808 -0.008988061 -0.023912223 -0.02803129 0.069382735 0.008703715 -0.010242481 -0.03910281
-0.0018605544 -0.003470311 -0.088241465 -0.0109986635 0.019446261 0.025357254 -0.02077199 -0.05830006
-0.010637584 0.0507785 0.012266972 -0.028958872 -0.010216811 -0.026385084 0.023032552 0.060285795
-0.0033802944 0.022097122 0.0027028474 -0.06956596 -0.017950859 0.004592765 -0.031291407 -0.022098389
0.006068775 0.02429871 0.13071059 -0.03370734 0.00853572 -0.042607844 -0.040003903 0.016172618
-0.00017494275 -0.03339164 0.099932484 -0.010556452 -0.06591803 0.05341097 -0.0061389864 0.009883013
-0.020391054 -0.026908878 -0.010581021 0.06656855 -0.0038768798 0.0047101653 -0.0023674704 -0.013842187
0.05759808 0.015007745 0.017083105 0.032779574 0.027578263 -0.06028604 0.06190582 -7.720967e-05
0.103871696 -0.011707268 0.010277468 -0.016091375 0.11481175 0.02282944 -0.021066433 -0.035503298
0.022412436 -0.010126198 -0.045538865 0.021171995 0.042609587 0.024128573 0.003498257 -0.05638301
0.0244836 -0.008430117 -0.03786176 0.015283716 0.008890456 0.118873686 0.05515328 -0.0063335407
-0.021068389 0.06926755 0.0029654407 0.02888895 0.0057110004 -0.0002775926 0.0040951762 -0.05131077
-0.020034917 0.053605434 -0.03783921 0.0011252625 -0.03398473 0.054359954 0.14228858 0.03366492
-0.008876039 0.10541775 0.06064717 -0.0055477116 -0.025845896 0.018888464 0.015930438 -0.0010023046
-0.01595087 0.061411027 0.024018478 -0.013684497 -0.020715093 -0.013404025 0.0084857065 0.071792774
-0.007182981 0.021928586 0.028375115 -0.056218226 0.0046296925 0.0074475748 -0.025022114 0.0042938148
0.0022698967 0.0017654323 0.022971937 0.068301536 0.012212034 -0.02228437 -0.0056004226 -0.0007834378
0.10704624 0.034551904 0.035692733 0.008763866 0.02977718 -0.08234575 0.08933625 -0.030721446
-0.013677458 0.030992031 -0.056758065 0.02527684 -0.025526734 0.04213924 0.08114724 0.044529434
0.022993414 0.10318894 -0.004343064 -0.037498683 -0.0017520324 -0.045129165 0.016485192 -0.049297974
-0.00022736443 0.0022645763 -0.01527493 0.002659931 0.0061943727 0.010932307 -0.0046364213 0.0053212726
-0.0041253753 0.0016374824 -0.03131042 -0.0012728857 0.01175842 -0.010910502 -0.0003717386 -0.009138727
0.00608331 -0.044455994 -0.016333282 0.03019291 0.010897212 0.029699575 0.009152548 -0.0612591
0.020860268 0.0015281319 0.018926086 0.08236611 0.012515308 -0.0038991966 0.039129715 0.01413188
0.041168768 -0.019362237 -0.0518665 0.018870734 0.04100086 -0.006229941 -0.033043493 -0.014693043
0.015166282 -0.007964817 -0.081704676 0.009508296 0.10365565 -0.021256015 0.014992188 0.021585552
0.041990414 0.020494752 0.028962322 -0.06970132 0.032756362 -0.0027993317 0.020806246 -0.00052335387
-0.051326435 -0.018186696 0.01964154 0.0022122364 -0.026545567 0.09518009 -0.04596391 0.03219525
-0.0047364593 -0.019584859 -0.0030871993 0.05742721 0.009188799 -0.007839951 0.015068394 -0.023176553
0.06816036 0.02552442 0.03808474 0.034464497 0.020169282 -0.053244155 0.07246256 -0.005948866
-0.044066403 0.0026284007 0.00430477 -0.009991846 -0.051679492 -0.06293595 -0.0011618289 -3.7255442e-05
-0.014205667 -0.0401238 0.07462559 0.0133437775 0.0041771266 0.04521583 -0.0013833249 0.10784956

convs.3.fcn.bias f4 [16]
00000000: df15 3638 e023 1dbb ac40 203d b297 e33c
00000010: b319 2a3d 8369 e63d 5cfb c93d eeef 8c3d
00000020: 520a 1c3d ea7f 8e3d 145d 493c e81f 1a3d
00000030: 70ea 693a 9e4f a03d 78fc 443d 44be 0d3d
4.341255e-05 -0.0023977682 0.039124176 0.027782295 0.041528415 0.112505935 0.09862396 0.068817005
0.03809578 0.069579914 0.012290258 0.037628084 0.00089231785 0.07827686 0.048092335 0.03460528

convs.4.deg_coeff f4 [2]
00000000: c805 0f3b edc5 1c3c
0.0021823514 0.009568674

convs.4.coeff f4 [3]
00000000: 6196 9fb9 275a 89bc a543 9d3c
-0.00030438884 -0.01676662 0.019197294

convs.4.fcn.weight f4 [16, 16]
00000000: 978d 2e3d 367f 093a fa80 83bc f151 71bc
00000010: abc1 173d bcac e23b 39a3 cebb 7556 3cbc
00000020: abb6 a4ba ac1d f9bb ac9a 87bd f27e 87bb
00000030: a469 9e3c f7e6 e73b f0a4 f9bb ef6b b5bc
00000040: 1fba 143a aa85 de3c 90d9 223c 3904 78bc
00000050: 85af b5bb 391b 98bb 6135 583c 0044 a53c
00000060: 6290 43bb 141a 1c3c 5995 9d3c 7b97 d7bc
00000070: 3cf8 a5bb 12b3 0c3c 6205 2ebc f4b3 5039
00000080: 676c 8f3b 5021 ec3b 44ff 2f3d 8b72 ffbb
00000090: e9de a43a c2b3 acbc fc1e 22bc 2dbe 983a
000000a0: 6fd1 1d3c 6616 05bc bec4 983d 40db a6bb
000000b0: fca6 b9bc 78a6 903c a4d4 e1ba 9a07 28bb
000000c0: 49c0 febb b73f 50bc 264e babb 3126 f43c
000000d0: b2db 2aba 2cb6 4a39 f52d debb 6a31 63bb
000000e0: f1fe aa3c c860 1b3c 52f9 783c 63ef 113c
000000f0: d1a6 7d3c 95a5 ddbc d9a6 ac3c cda9 673a
00000100: 09b6 3b3d 86ec 5e3b 107a b93b e394 0bbc
00000110: 3ace 333d 2085 5f3c 3d57 3b3b 57d6 9cbb
00000120: 2336 f53b 0bf4 ce3b 0546 01bd bb30 3d3b
00000130: 2837 353c 4c0c 4c3c 716b e43a ba90 5fbc
00000140: c2db ff3a e01b 01bc 07f7 08bd eefa 91ba
00000150: a5af 15bc 6d65 003d f86f 763c f0dd 66bb
00000160: de17 2abc bc73 a13c 5ebb 69bd cd95 acbb
00000170: fab6 71ba 9064 4fbc 1cd1 11bc faf0 ccbc
00000180: 8b83 f1bb 5222 853c 55af c1bc c3f7 263a
00000190: cb37 33bc 40db 833c 6f35 6c3d 4947 da3b
000001a0: c239 3fbb f41f 253d 9a88 b43c a662 a0bb
000001b0: 70f2 5bbc b7a0 6d3a 3e81 de3a 9407 2cbb
000001c0: ea97 23bc 83f5 b13c 68f1 253c fa97 09bc
000001d0: 20fa 22bc f93a abbb 39f1 9cbb 34ba 043d
000001e0: 779a 98bb 794b 023c 1b2e 463c 6378 dabc
000001f0: 166a 7abb 3ea0 403b 4c21 65bc 24db 01bc
00000200: 1d01 b53b 9f16 fcbb a8a8 d53a 57d0 9a3c
00000210: 53a2 893c 1513 acbc c32d 0abc c9c9 30bc
00000220: 0a4c 163d 4ae3 af3a 0ee6 4439 7928 f5ba
00000230: 8430 443c 784c 15bd 9045 a53c 91fc a8bc
00000240: 7ede dab9 ee66 8d3c af01 babc d3cc 6b3b
00000250: 364d 1bbc 9a9b a13c 7dbb 083d ae79 9a3c
00000260: e1d2 a83b 6b5e 1a3d f805 bcbc 160f a3bc
00000270: ca99 ecba 2a72 8fbc fcbf 3a3b 5a1f c3bc
00000280: 3d3d 1a3b 2cfb 92ba 2264 b9bb a698 663a
00000290: a052 c93a fb08 533b 62cc 9ebb b33d f339
000002a0: 8084 45bb de1d 7bb9 668d 0cbc 435e 0bbb
000002b0: b099 bc3b 195b 183b b140 89bb 74a9 06ba
000002c0: 3ce9 a23b 34cd b8bc 8219 67bb 8292 103c
000002d0: 90be 003c 1c0a 323c cb4a 173b 86de b3bc
000002e0: 3062 f43b 3c85 01bb de67 093c a51f fa3c
000002f0: d4b1 e23b 14ec b6ba c890 223c 848c 3a3c
00000300: 8b67 dd3c 41be a3bb 9836 78bc 24a9 083c
00000310: 158c 173d b27e f93a 48ff bbbc b381 77ba
00000320: 028c af3b c484 f3bb b1a3 59bd 7ca2 5a3a
00000330: b9ff 3e3d e673 33bb 6b7f 0c3b 4d72 1b3c
00000340: e4b0 293c f786 743c c347 cd3b 2421 04bd
00000350: 6730 ec3a 2ff5 96bb 70ec 0a3c bd48 983a
00000360: 0b62 ecbc f3f0 38bc 6cbe a13a 3aa6 783a
00000370: 46e5 a0bc a8c1 1c3d fcfa d2bc 58ff 493c
00000380: e4d1 8d3b 6be2 d9bb 9794 f0bb 6c5b 963c
00000390: bf2d e73b ad9a 60bc b381 123c 4d98 0bbc
000003a0: 6c27 a73c 8b1c cc3b 870b cf3c a7b8 ba3b
000003b0: 9240 5d3c 71b9 a3bc 0c3a 383c 2113 16bb
000003c0: 3739 5abc 4186 0ebb 6824 373b feac ccbb
000003d0: d9e8 8bbc 999d e6bc 284d a5bb 02a9 d1bb
000003e0: c105 45bc 32ac babc e0ec c53c ec38 233c
000003f0: 0053 133b 0505 683c d0b1 7ebb 6197 1f3d
0.0426155 0.0005245091 -0.016052712 -0.014729009 0.03704993 0.006917564 -0.0063060788 -0.011495222
-0.0012566646 -0.007602414 -0.06621298 -0.004135006 0.019337483 0.0070770937 -0.007618539 -0.022146193
0.0005673486 0.027163345 0.009939566 -0.0151377255 -0.005544605 -0.004641917 0.01319632 0.020174026
-0.0029840698 0.009527702 0.019236254 -0.026317349 -0.0050649922 0.008587616 -0.010621401 0.00019903464
0.0043769362 0.0072061196 0.04296805 -0.007795637 0.001257864 -0.021081809 -0.009895083 0.0011653356
0.009632452 -0.008123016 0.074594006 -0.0050920546 -0.022662632 0.017657503 -0.001722951 -0.0025639297
-0.007774387 -0.012710503 -0.0056855856 0.029803367 -0.00065177225 0.00019332086 -0.006780381 -0.0034666904
0.020873519 0.009483524 0.015196161 0.008907172 0.015481667 -0.027056495 0.021075653 0.0008837253
0.0458279 0.003401549 0.005660303 -0.008519384 0.043897845 0.013642579 0.0028585934 -0.0047862935
0.0074832602 0.0063157133 -0.031560916 0.0028868157 0.011060514 0.012454104 0.001742704 -0.013645345
0.0019520449 -0.007880181 -0.03343871 -0.0011137405 -0.009136115 0.031346727 0.015041344 -0.00352275
-0.010381667 0.019708507 -0.057063453 -0.005266881 -0.0009220686 -0.012658253 -0.008899953 -0.02501725
-0.0073704175 0.016251717 -0.023643175 0.0006369317 -0.010938595 0.016095757 0.057668146 0.00666133
-0.0029178713 0.040313676 0.022037793 -0.0048945723 -0.013424501 0.0009064781 0.0016975773 -0.0026249634
-0.00998495 0.021723514 0.0101283565 -0.00839805 -0.00994733 -0.005225536 -0.004789498 0.03240414
-0.0046570855 0.007952564 0.012095953 -0.026668733 -0.0038210205 0.0029392387 -0.013984989 -0.007925782
0.0055238144 -0.0076931263 0.0016300874 0.018898172 0.016801035 -0.021005193 -0.008433762 -0.010790297
0.03669361 0.0013419178 0.00018777719 -0.0018704078 0.011974458 -0.03644988 0.020174772 -0.020628246
-0.0004174597 0.017260995 -0.02270588 0.003598024 -0.009478858 0.019727517 0.033381928 0.01885685
0.005152092 0.0376877 -0.022952065 -0.019904654 -0.0018051204 -0.017510492 0.002849578 -0.02381866
0.0023535036 -0.0011213771 -0.0056576887 0.000879655 0.0015359707 0.0032201398 -0.0048461417 0.0004639454
-0.003013879 -0.00023948352 -0.008578634 -0.00212659 0.0057556257 0.0023247658 -0.00418862 -0.0005136945
0.0049716514 -0.022558786 -0.0035263007 0.008823993 0.007857934 0.010866668 0.0023085352 -0.021956693
0.007457994 -0.0019763252 0.00838658 0.030532667 0.0069181714 -0.0013955855 0.009922214 0.011386041
0.027026912 -0.0049970453 -0.015149735 0.0083411075 0.036998827 0.001903495 -0.022948876 -0.0009441629
0.0053572664 -0.0074315984 -0.053134624 0.0008340252 0.046630595 -0.0027382313 0.0021438252 0.009487701
0.010357115 0.014924756 0.006264658 -0.032258168 0.0018019796 -0.004606865 0.008479223 0.0011618357
-0.028855344 -0.0112879155 0.0012340075 0.0009485219 -0.019640576 0.038270622 -0.025754444 0.012328945
0.0043279994 -0.0066493056 -0.007341932 0.01835414 0.007055014 -0.013708753 0.0089420555 -0.008520198
0.02040454 0.0062289885 0.025274051 0.005698282 0.013504164 -0.019985886 0.011244308 -0.0022899585
-0.013319305 -0.0021747502 0.0027945284 -0.006246208 -0.017078804 -0.02815132 -0.005044598 -0.006398321
-0.012025298 -0.022787187 0.024160802 0.009962302 0.0022479892 0.014161353 -0.0038863309 0.038962726

convs.4.fcn.bias f4 [16]
00000000: d46f 85bc 494e ff3b 10ce 3b3d 1fc7 243c
00000010: 3339 e239 ed2b 00bc fb21 333c b06a 2a3c
00000020: dd8a 02bc 344f 34bb fd4d ec3a 0e3a 3a3c
00000030: 4457 12ba d5a7 c13b 3dde de3a ed11 2a3c
-0.016288675 0.0077913147 0.045850813 0.01005724 0.00043148696 -0.007822973 0.010933395 0.010401413
-0.007967678 -0.002751303 0.0018028613 0.01136638 -0.00055824616 0.0059098997 0.0017003488 0.01038025

convs.5.deg_coeff f4 [2]
00000000: 6ded abba 7f59 b83b
-0.0013117023 0.005625903

convs.5.coeff f4 [3]
00000000: f2f3 87ba e6bd abbb e2b5 933b
-0.0010372384 -0.0052411435 0.004507766

convs.5.fcn.weight f4 [16, 16]
00000000: 5f47 bd3c ba1e 613b 00f1 f53a db25 27bb
00000010: 83ba eb3c fb67 d83b 4eed a83a 7458 e53b
00000020: 7738 ed3b ae29 e53a c8a0 15bc 58a3 3cb9
00000030: ab92 433c a995 fd3b 5455 1fba 5e0d 2fbc
00000040: 2f5f 89bb f786 773c 50b1 8a3b 5126 02bc
00000050: 7dc7 a5bb 0cb3 d539 5c2a 733b c28a 643c
00000060: 5348 8fbb 731a 843b 3264 fb3b c743 99bc
00000070: 8740 cabb 2d41 383b b9e1 00bc 761a abbb
00000080: fedb 99ba a762 a53b 1921 fc3c 015b 2ebc
00000090: 7fd4 133c e990 8bbc 9a74 28bc 917f bb3b
000000a0: 7156 873a a359 54bc 3f5d 9d3c 96d9 85bb
000000b0: 4c57 2dbc b52e 5b38 238d 8dbb 4c08 723b
000000c0: 1b5f 80bb bf7a dfbb 52a5 ccbb 2127 8b3c
000000d0: 7954 9ebb 4251 82bb 3ccd 6cbb ef9d 2eba
000000e0: 24f6 813c 5c40 ab3b bcbe a23c c760 db3a
000000f0: 0678 063c 9451 a1bc a6e1 843c d0e1 13bb
00000100: bbfb d63c 5214 133a 759c dab9 b768 1ebc
00000110: f2d5 ab3c 3d6f f63b 72ba a4bb 6d3f 0bbc
00000120: 2c42 b43b 7076 2dbb 4052 8ebc f2a2 a83b
00000130: 06c3 253c 89a3 4a39 791c c9bb e597 7fbc
00000140: f590 433b 1917 a8bb 4ba9 82bc c054 a63b
00000150: 11e0 8f3b a7bb d43c 0339 1f3c 2dc1 b7ba
00000160: 350a 9cbb 5ef3 8b3c e215 11bc 1d7e 3d3b
00000170: 0913 013a 3856 bb3a ffef 89ba 6117 21bc
00000180: 272c 24bb df40 5a3c 78cd 01bc 8a6b 953a
00000190: 0adb 8abb 4968 883c 8cf7 0c3d f53e e33b
000001a0: a4bd 7abb 95bf d03c f33b fa3c 31be a93b
000001b0: 464c a3bb d423 203c 1b75 093c 0573 e93b
000001c0: a00f 0ebb 1ed8 6d3c 8df3 dd3b fc73 823b
000001d0: 5db9 d0bb 2829 1738 e435 bd39 0a0a 733c
000001e0: 1931 09bb f802 793b 6c76 523b 5ce7 4bbc
000001f0: a1e8 d438 eb86 423b f2ce 07bc ae59 73bb
00000200: 1877 d339 c599 75bb d47b b7ba fde0 4d3c
00000210: b4ae 1d3b 0d19 45bc 48cd 57bc ec2b e7ba
00000220: 618e e03c 037e bfbb 1646 76bb e09f e7bb
00000230: fc92 f03b e6f6 d0bc db81 5b3c 7081 6bbc
00000240: 66b4 85bb c368 4a3c 90a3 16bc 0fda 363c
00000250: 2bfe 80bb 11f0 393c 7bae b63c 5abd 063c
00000260: 0788 b33b d2d7 ba3c e666 28bb 4243 eebb
00000270: cb41 fdba 8857 39bc 9e77 a43b c64a 2dbc
00000280: 4669 e03a 7b0c fe39 a924 7fbb 9cf7 8b38
00000290: 5708 c93a 95e4 983b cebb 1ebb 4926 273b
000002a0: a987 27bb db6c 913a 45aa 43bc 096b e83a
000002b0: 2cdc a53b c4a9 02bb a99a 2ebb c455 50bb
000002c0: ca0e 85ba 3268 5dbc 1151 f0bb d8da b7bb
000002d0: baca 9eba 560d ac3b d40b bfba d768 0abc
000002e0: 0078 5d3b 47d3 c5bb 2ef3 5c3c f466 023c
000002f0: 8e0a f039 a732 92ba e9ed 0d3c 9b36 523b
00000300: edb2 963c 71d0 86bb 05ec 3ebc ef6c 9c3b
00000310: d239 593c 8e88 c3bb f8f0 8abc b007 b6bb
00000320: bdf8 b63b e913 0cbb fc09 14bd 5c0a 853b
00000330: e050 e93c 1d8d cfbb 90d9 4c3b 869b 943b
00000340: ead1 433b 074b 0f3c b079 ea3b 685f 7ebc
00000350: cadd d53b 86b9 ba3b 0595 613c 874e 24b8
00000360: 094a 98bc 982a 6abb 35b8 b93b e719 133b
00000370: 62c2 f4bb 945a cf3c 7227 3fbc 8a01 2b3c
00000380: 3f5a d339 8b55 f0bb 0f19 c3bb f8ad 563c
00000390: b1ab 533a 33a2 43bc fb3b 05bc 5304 d8bb
000003a0: 0c62 623c 57fe 08bb d121 283c e280 583b
000003b0: 567b 2f3b 6ae3 8dbc 3675 1b3c 14e5 3cbb
000003c0: 4d46 e1bb a2fd 3537 4896 3f3a 3ebe 8cbb
000003d0: 6015 48bc d887 91bc eccf 05bc 551c 40bb
000003e0: 1739 a5bb 7c2c 44bc a749 e13c c63d 803b
000003f0: e7e1 e7b8 7b93 623c be57 06bc 841d f33c
0.023105321 0.003435059 0.001876384 -0.0025504741 0.02877546 0.0066041923 0.0012888105 0.00699907
0.007239397 0.0017483735 -0.0091325715 -0.00017989927 0.011936824 0.007738788 -0.00060780835 -0.010684339
-0.004192255 0.015107862 0.004232563 -0.007943706 -0.0050591812 0.00040759926 0.0037104106 0.013949098
-0.0043726354 0.0040314733 0.0076718563 -0.018709077 -0.006172243 0.002811502 -0.0078663165 -0.0052216602
-0.0011738536 0.0050471607 0.030777501 -0.010641814 0.009022831 -0.017036872 -0.010281706 0.005721994
0.0010325444 -0.012960824 0.019209502 -0.004084776 -0.010579895 5.2257168e-05 -0.0043198033 0.0036931215
-0.0039175875 -0.0068200524 -0.0062452937 0.016986432 -0.0048318473 -0.003976972 -0.0036133071 -0.0006661107
0.01586444 0.005226178 0.01986634 0.0016737216 0.008207327 -0.01969222 0.016220879 -0.0022565015
0.026243081 0.0005610633 -0.0004169677 -0.009668521 0.02097604 0.007520585 -0.005027109 -0.008499009
0.0055010524 -0.00264683 -0.017373204 0.0051463777 0.010117298 0.00019325143 -0.0061374274 -0.015600179
0.002984104 -0.0051297066 -0.015949866 0.005076021 0.0043907245 0.025968386 0.0097181825 -0.0014019363
-0.004761959 0.01708382 -0.008855315 0.002891428 0.0004923796 0.0014292663 -0.0010523795 -0.009832234
-0.002505073 0.013321131 -0.007922523 0.0011399847 -0.0042375373 0.01665129 0.034415767 0.0069349953
-0.0038260007 0.025481978 0.030546164 0.0051801433 -0.0049834577 0.009774167 0.0083897365 0.007124307
-0.0021676794 0.014516858 0.0067734183 0.0039811116 -0.0063697533 3.6039535e-05 0.0003608904 0.0148339365
-0.0020933805 0.0037996154 0.0032114042 -0.012445297 0.00010152278 0.0029682468 -0.008289086 -0.003713231
0.00040333788 -0.0037475687 -0.0013998696 0.012565848 0.002406043 -0.012029898 -0.013171501 -0.0017636991
0.027411642 -0.005843879 -0.0037578396 -0.007068619 0.0073417407 -0.025508355 0.013397659 -0.014374122
-0.004080343 0.012354079 -0.00919427 0.011160388 -0.003936549 0.01134874 0.022299996 0.008223856
0.005478862 0.02280799 -0.0025696098 -0.0072712013 -0.0019321976 -0.011312373 0.0050191423 -0.010576909
0.0017121218 0.00048455954 -0.0038931763 6.674157e-05 0.0015337568 0.004665921 -0.0024220827 0.0025504997
-0.0025563037 0.0011095064 -0.011942451 0.0017732094 0.005061647 -0.0019937614 -0.0026642478 -0.0031789402
-0.0010151502 -0.013513612 -0.0073338826 -0.005610805 -0.0012114861 0.005250613 -0.0014575669 -0.008447847
0.003379345 -0.006037149 0.013485713 0.007959116 0.0004578423 -0.0011154012 0.008662679 0.0032076004
0.018395865 -0.0041142036 -0.011652951 0.004773728 0.013258414 -0.0059672063 -0.016960606 -0.0055551156
0.005583851 -0.0021374172 -0.036142334 0.004060073 0.028480947 -0.0063339607 0.0031257607 0.0045351414
0.0029879757 0.008745915 0.0071556196 -0.015525676 0.0065266835 0.0056983856 0.013768439 -3.917378e-05
-0.01858999 -0.0035730954 0.005667711 0.002244586 -0.0074694613 0.025311746 -0.011667119 0.010437379
0.00040312295 -0.0073344163 -0.005953915 0.013103001 0.0008074595 -0.011940527 -0.008131976 -0.0065923124
0.0138173215 -0.0020903551 0.010261969 0.0033035805 0.0026776395 -0.017320354 0.0094883945 -0.0028823065
-0.0068748356 1.0847494e-05 0.00073084654 -0.0042951396 -0.012212127 -0.01776497 -0.008167248 -0.0029313762
-0.005042206 -0.0119734965 0.02750094 0.003913614 -0.00011057016 0.013829107 -0.00819963 0.02967716

convs.5.fcn.bias f4 [16]
00000000: 6f09 443b 2add 82bb 1587 2d3b 4b2a d6bb
00000010: 933d 9a3b 5d88 113b e4f0 4d3b 7387 913b
00000020: 4b16 48bc bb5d 17bc 2b49 e5ba 7b8c 153b
00000030: 831e c2ba 4338 5e3c 4dcd 24bc 5979 943c
0.002991285 -0.00399365 0.002647822 -0.0065358034 0.0047070473 0.0022206523 0.00314241 0.0044411956
-0.012212346 -0.009238656 -0.0017493119 0.0022819329 -0.0014810119 0.0135632185 -0.010058713 0.01812427

convs.6.deg_coeff f4 [2]
00000000: a9ca 1cbb be67 133b
-0.0023924506 0.0022492255

convs.6.coeff f4 [3]
00000000: 69f8 593a e090 93bb 6bdc 953b
0.0008314909 -0.0045033544 0.004573395

convs.6.fcn.weight f4 [16, 16]
00000000: ea22 a33c e76f 1f3b 3aa0 273a 00fc 31bb
00000010: 9582 953c 0a81 e93b 7995 8a3b 3f26 263b
00000020: f0c4 4ab9 0bf3 bb3b c2c5 56bc a9bf 403b
00000030: 202f f53b 5bfe cd3b 7325 bcba 0897 ffbb
00000040: b45e 8ebb 4c29 413c 1c9b 7c3b 4f45 d3bb
00000050: 23e9 c9bb 32e4 f0b9 8c48 1f3c 0b66 0e3c
00000060: d3aa 15bb 4be7 043c c624 afb9 b792 5ebc
00000070: 0555 00bc 049f a83b b300 05bc 364a 10bb
00000080: 3ad3 dfb9 a458 91b9 4b51 903c 5017 4abb
00000090: 6cdf 193b 51c7 2cbc 257d dbbb b141 06ba
000000a0: ddfb 243b 7e30 19bc 1228 903c 127b 3aba
000000b0: 2d12 36bc 6e4f 88bb 5e55 03bb 4e64 ceb9
000000c0: 06a6 a9bb d1c0 dabb 49b6 aebb e22d 373c
000000d0: 70ea 6dbb f797 25bb 6902 05bc 5875 83bb
000000e0: ab1c 193c ce04 d7bb 852a 433b 0cf2 4c3b
000000f0: a5d2 883b 1681 64bc d997 0e3c fa0d 9eba
00000100: 4d23 903c 85bf dd3b d826 abba 5de3 5dbb
00000110: 25ba 903c b429 123b 9296 a7bb 2f38 1bba
00000120: 489d 0e3a 8195 01b9 6b46 75bc a1ca 57bb
00000130: 7189 c53b bb66 b23b 54f4 00bb a357 06bc
00000140: 6f48 45ba 605a 773a 51dd 5cbc 4a8b cbb9
00000150: be5f c439 51f1 463c 3c1b 103b e451 60bb
00000160: db6b abbb 1334 9a3b e49f e2bc 78b3 dcba
00000170: ee83 b539 89ae dabb 395b 10bb 7356 07bc
00000180: db53 5abb 43d8 d73b b0ec 08bc bace 773b
00000190: 9679 b5bb 7d89 e93b a780 bd3c 147c 003b
000001a0: a5e3 d3ba 3ca4 8d3c ea8f 913c f264 94ba
000001b0: ed89 6ebb 1500 263a 044f 2239 cf5c 14bb
000001c0: 9b70 d5ba bd29 f93b 8473 1f3b c66a 09bb
000001d0: 4cac 80bb a989 263a fccf ac3b 4aff 5f3c
000001e0: 943c 173a 62ee 2c3b cf59 093c 7251 f8bb
000001f0: 9920 ee3a f96c 893a f3d7 5d39 c3fc 18bb
00000200: ee6c 5c3b 2fb4 bdba 08c6 7cbb ccf4 503c
00000210: e59f b33b b2bf a3bb 1db0 f437 29f8 46bb
00000220: dd89 853c be7e 78ba ca80 db3b d394 a03a
00000230: f9ee b53b ecd2 61bc 2d15 5e3c 39b7 e2bb
00000240: 6d10 b73a 45d5 0e3c a6fa 8dbb 63a1 743b
00000250: d819 a8ba 852c 203c 3836 613c c6bb 2f3c
00000260: 39c1 ed3a 80bf 873c d6c7 d23a b4e3 6ebb
00000270: dffc ba3a 6b72 16bb 144e 8d3a fbb4 29bb
00000280: 892d 103a ee92 23ba 9aac 9c39 f804 a13a
00000290: 2def 2238 6fd3 313b e362 afba cff5 76b7
000002a0: e73c 6bba ca56 413a 5529 0bbc c885 023a
000002b0: d497 053b 33e2 50bb a8ad 74bb 498a 11bb
000002c0: 968e 083b 5758 3fbc dda7 87bb fe67 8d3b
000002d0: a878 063b 871e 9d3a e1ce d8bb 44a6 0dbc
000002e0: e9b1 083b 0d41 91bb 1a34 313c 9568 3a3c
000002f0: b23d a73b dd1d 9bbb 867b 2d3b 55b8 d03b
00000300: c67a b13b 0e5b bfba 982f debb 3b59 3e3b
00000310: 7ef4 883b dbab 9abb 529f 7abb e70c 59bb
00000320: d23e 723b 3101 b6ba 3597 14bc 2cd9 d43a
00000330: bcb9 873c 608c 34bb d633 df3a 2f8a 5b3b
00000340: bbbe b83a 83c7 c83b 28ad cd3b 4c26 3cbc
00000350: 9d91 6d3b 09e8 4b3b ecce 283c 4731 de3a
00000360: 9232 05bc ef31 d0ba 65be 8a3b 7950 b63b
00000370: d5ef 16bc 27d4 923c 8e78 93bb 4164 a73b
00000380: 7bb9 faba ac3a 60bb b203 80bb 956f 193c
00000390: 505c 7bb9 afa6 8bbb ee54 84bb b723 b7bb
000003a0: 8a29 2a3c f93e 593b 30a1 3a3c f2cc 793b
000003b0: 7616 a73b 8e12 39bc f4cb d23b 0ea3 43ba
000003c0: f64a 12bc 6e7d dabb 9360 60bb 6046 81bb
000003d0: 0717 f8bb 89d6 44bc ea88 1bbc 0c3f 06bc
000003e0: b22b 95bb 01f3 97bc d5e1 11bc 669c 823b
000003f0: af52 0a3a efd3 9c3b 5420 39bb 1d94 6a3c
0.01991411 0.0024328174 0.000639442 -0.002715826 0.018250743 0.0071259784 0.0042292443 0.0025352386
-0.00019337586 0.00573576 -0.013108673 0.0029411113 0.0074824244 0.006286425 -0.0014354422 -0.0077999867
-0.0043447856 0.011789631 0.00385446 -0.006447471 -0.0061618253 -0.00045946386 0.009721886 0.008691321
-0.0022837415 0.008111785 -0.00033406 -0.013584784 -0.00783277 0.0051459093 -0.0081178425 -0.002201689
-0.0004269125 -0.00027722598 0.017616889 -0.003083665 0.0023479117 -0.010545568 -0.006698268 -0.0005121483
0.0025174536 -0.00934994 0.017597232 -0.0007113676 -0.011112732 -0.0041598594 -0.0020039896 -0.00039366115
-0.0051772622 -0.0066758175 -0.0053317887 0.011180373 -0.0036303066 -0.002526758 -0.00811825 -0.004011791
0.009345214 -0.006561852 0.0029779982 0.00312722 0.0041755014 -0.013946792 0.0087031955 -0.0012058609
0.017594958 0.0067672157 -0.0013057841 -0.0033857443 0.017666886 0.002230269 -0.005114385 -0.0005921153
0.0005440307 -0.00012358093 -0.014970402 -0.0032927173 0.006028347 0.0054443753 -0.001967688 -0.008199605
-0.0007525747 0.0009435769 -0.0134805 -0.00038822956 0.00037455367 0.012142495 0.002198889 -0.0034228498
-0.0052313632 0.0047059148 -0.027664132 -0.0016838154 0.00034621306 -0.0066736382 -0.002202703 -0.008260357
-0.0033314142 0.0065870597 -0.008357212 0.0037812428 -0.005538176 0.0071269856 0.023132635 0.0019605206
-0.0016165866 0.017290227 0.017768819 -0.0011321588 -0.0036398128 0.00063324097 0.0001547896 -0.0022638326
-0.0016284169 0.0076038525 0.0024330327 -0.0020968183 -0.0039267894 0.00063529104 0.005273817 0.0136717055
0.000576922 0.0026387204 0.008383228 -0.0075780684 0.0018167674 0.0010484747 0.0002115665 -0.0023344017
0.0033634263 -0.0014473255 -0.0038570184 0.012753677 0.0054817074 -0.004997217 2.9169076e-05 -0.0030360317
0.01630109 -0.0009479335 0.0066987025 0.0012251384 0.0055521694 -0.013783198 0.013554853 -0.0069188145
0.0013966687 0.00871784 -0.004332858 0.003732764 -0.0012825085 0.009776239 0.013745837 0.010725921
0.001813925 0.016570807 0.0016081284 -0.003645164 0.0014266035 -0.0022956382 0.0010780715 -0.0025895226
0.00054999493 -0.0006239851 0.00029883237 0.0012284806 3.884656e-05 0.002713408 -0.0013380911 -1.4719974e-05
-0.0008973614 0.00073752983 -0.008493741 0.00049790414 0.0020384686 -0.0031873106 -0.0037334953 -0.0022207669
0.002083694 -0.011678777 -0.004139884 0.0043153754 0.0020518694 0.0011987247 -0.0066164588 -0.008645598
0.0020857996 -0.0044328035 0.010815645 0.011377473 0.00510379 -0.0047337846 0.002647133 0.0063696303
0.005416247 -0.001459928 -0.006780576 0.0029044885 0.0041795364 -0.004720194 -0.0038241935 -0.0033119263
0.0036963713 -0.0013885853 -0.009069254 0.0016239039 0.016568057 -0.002754949 0.0017028998 0.0033499112
0.0014094928 0.0061272993 0.0062767453 -0.01148374 0.0036250122 0.0031113646 0.01030324 0.0016951942
-0.008129733 -0.0015884022 0.0042341226 0.0055637923 -0.009212454 0.017923428 -0.004500455 0.0051083867
-0.0019128764 -0.0034214659 -0.0039066905 0.009364982 -0.00023971614 -0.0042618136 -0.0040384447 -0.0055889743
0.01038588 0.0033149107 0.011390969 0.0038116542 0.005099113 -0.011295928 0.0064330045 -0.0007462957
-0.008929005 -0.0066677844 -0.003423725 -0.003945157 -0.0075711044 -0.01201404 -0.009493092 -0.0081937425
-0.004552328 -0.01854849 -0.00890394 0.0039859293 0.0005276603 0.0047860066 -0.0028248029 0.0143175395

convs.6.fcn.bias f4 [16]
00000000: 5a94 0d3c 04c8 a83b b37b d2bb 425e 2cbc
00000010: 7b2d 4ebb fb61 64bc 16ac 9c3a 5f93 a33c
00000020: 3841 8dba 8fdd 243c 0185 b5ba e91a 21bc
00000030: bf50 ab3b 4151 393c 6a45 3abc 4b3a 9bbc
0.008641327 0.005150797 -0.0064234375 -0.01052052 -0.0031460214 -0.013939376 0.0011953141 0.019967733
-0.0010776883 0.010062589 -0.0013848842 -0.009833076 0.0052281315 0.011310876 -0.011369089 -0.018948695

convs.7.deg_coeff f4 [2]
00000000: 2a9c 30bb 8f66 5aba
-0.002694855 -0.00083313225

convs.7.coeff f4 [3]
00000000: eea6 2e3a 343e cbb9 8030 af3a
0.00066624477 -0.00038765522 0.0013365895
