GGCN/pretrained/GGCN_wisconsin_25_14_59_13.pt (torch, 229972 bytes, 22 tensors)

convs.0.deg_coeff f4 [2]
0	0x3f2935e4	0.66097856
1	0x3d1f9d4d	0.038968373

convs.0.coeff f4 [3]
0	0xbeac1fe8	-0.33618093
1	0xbea2cb9b	-0.31795964
2	0x3eab0eb0	0.33409643

convs.0.fcn.weight f4 [16, 1703]
0	0xbdeb426c	-0.11487278
1	0xbca43f6a	-0.02004977
2	0xbd1c7253	-0.038194966
3	0xbc436cbf	-0.011927783
4	0x3d2d0516	0.04224118
5	0xbdc4a57e	-0.09601878
6	0xbe1a85c6	-0.15090093
7	0xbdc42458	-0.095772445
8	0xbcbae473	-0.022814011
9	0x3d802730	0.062574744
10	0x3ba12755	0.004918019
11	0x3ea28488	0.31741738
12	0x3e491a77	0.19639002
13	0xbe3fff8a	-0.18749824
14	0x3baf36fe	0.0053471318
15	0xbdd20c5b	-0.10256263
16	0xbddd5477	-0.10807126
17	0xbe251aa2	-0.16123441
18	0x3e4888ba	0.19583407
19	0xbda43f10	-0.08019841
20	0x3d1e3753	0.03862698
21	0xbc7a2b8a	-0.01526917
22	0x3e61a451	0.22035338
23	0xbe61fc7f	-0.22068976
24	0xbb23e25b	-0.0025006745
25	0x3d42071d	0.047370065
26	0xbad1b19e	-0.0015998369
27	0xbda8f867	-0.08250504
28	0xbd012a91	-0.031534735
29	0xbbaca90b	-0.005269175
30	0x3eb7f46f	0.35928676
31	0xbd3a8fa6	-0.04554715
32	0xbe53a381	-0.2066784
33	0xbd4b26ea	-0.04959766
34	0xbcc90151	-0.02453676
35	0xbe2169e9	-0.15763058
36	0xbde192bb	-0.11014315
37	0xbc83d1e9	-0.016091304
38	0xbc80516d	-0.015663827
39	0xbcf47f42	-0.029845838
40	0x3df21f9f	0.118224375
41	0xbe9d9b33	-0.3078247
42	0xbe19268d	-0.14956112
43	0x3e803c38	0.25045943
44	0x3d263d08	0.040585548
45	0xbe9c6404	-0.30545056
46	0xbe8367a5	-0.25665012
47	0xbe6770fe	-0.22601697
48	0xbd5b4867	-0.053535845
49	0x3b11dc8f	0.0022256707
50	0x3def4f72	0.11685075
51	0xbc5a3223	-0.013317618
52	0xb9e15d40	-0.0004298482
53	0xbc6d2b27	-0.01447562
54	0xbc385b5e	-0.011252252
55	0x3aa44d25	0.0012535198
56	0x3d744250	0.059633553
57	0xbe259df9	-0.16173543
58	0xbe90b4bb	-0.28262886
59	0xbeaebd38	-0.34128737
60	0x3dcd60d9	0.10028238
61	0xbd81b479	-0.063332506
62	0xbd00a5de	-0.031408183
63	0x3dd5d54c	0.10441074
64	0xbdcd7bb6	-0.100333616
65	0xbd6c2140	-0.057648897
66	0x3d430887	0.047615554
67	0x3b0adcd7	0.002118876
68	0x3df31e60	0.11871028
69	0xbe1733b7	-0.14765821
70	0xbc976bb4	-0.018483974
71	0x3d9206ef	0.07130229
72	0xbca35491	-0.019937785
73	0xbd3cd224	-0.046098843
74	0xbd6407bc	-0.05567144
75	0xbdeebc4d	-0.11657009
76	0xbd10f318	-0.035388082
77	0xbd89e849	-0.06733758
78	0xbe26408e	-0.16235563
79	0xbdb76dd4	-0.08956495
80	0xbd908c45	-0.07058004
81	0xbe44918f	-0.19196151
82	0xba6f9b5a	-0.00091402757
83	0x3e62cf1b	0.22149317
84	0x3ca7d345	0.020486483
85	0xb8a96461	-8.077245e-05
86	0xbddacd49	-0.10683686
87	0xba2f47bc	-0.00066864095
88	0x39249b82	0.0001569819
89	0xbdecdfc2	-0.11566116
90	0x3d9ce724	0.07661274
91	0x3e86f6f6	0.2636029
92	0xbe7ef59f	-0.24898385
93	0x3d0c9ee5	0.03433122
94	0x3d731f86	0.059356235
95	0x3d9691b6	0.07352011
96	0xbd2bb12b	-0.041917007
97	0x3d6183fa	0.055057503
98	0xbc944d72	-0.018103335
99	0xbb5b418e	-0.0033455822
100	0xbc8a4a13	-0.016881024
101	0x3daf6fc6	0.08566241
102	0xbe6fd615	-0.2342151
103	0x3a2bb49d	0.0006550046
104	0xbcfdea63	-0.030995553
105	0x3da6abdc	0.08138248
106	0x3a1f5672	0.000607825
107	0x3d8c3ff5	0.06848136
108	0x3d6accaa	0.05732409
109	0x3d91915f	0.071078055
110	0x3d664b74	0.0562243
111	0xbb1293cc	-0.0022365926
112	0xbd8383e9	-0.06421644
113	0x3c3e1fe7	0.011604286
114	0xbe4680e9	-0.19385113
115	0x3ea9bcac	0.33151758
116	0xbdfc868b	-0.123303495
117	0x3bab7e2f	0.005233548
118	0x3c11c37e	0.008896707
119	0xbd04809c	-0.032349214
120	0x3ea5ae3e	0.323595
121	0x3e191e58	0.14952981
122	0x3da254ee	0.07926355
123	0x3adea4a7	0.0016986326
124	0x3de895f1	0.11356724
125	0xbd608783	-0.054816734
126	0xbc81de5c	-0.0158531
127	0x3d9d0e91	0.07668794
128	0xbe13443b	-0.14381497
129	0x3e0e6b69	0.13908161
130	0x3dcace9b	0.09902688
131	0xbdfe7a4c	-0.1242567
132	0x3ddbc905	0.10731701
133	0x3d328f70	0.043593824
134	0x3d8330a6	0.06405763
135	0xbea18ec4	-0.31554234
136	0xbe1c1be3	-0.15245013
137	0xbe2cf507	-0.16890346
138	0xbd79e56d	-0.061009813
139	0xbc962f5b	-0.018333128
140	0x3d2918d4	0.041283444
141	0x3e9b9fe2	0.30395418
142	0x3e86c6fc	0.26323688
143	0x3d87cf13	0.06631293
144	0xbdf249b6	-0.118304655
145	0xbe06bf7b	-0.13158982
146	0xbddfecb0	-0.109338164
147	0x3eb8ebe6	0.36117476
148	0x3b4f35cc	0.0031617759
149	0x3e8a53c5	0.27017036
150	0x3dc0fddd	0.094234206
151	0x3e81d661	0.2535887
152	0xbe5fbf6e	-0.21850368
153	0x3c26348b	0.010144363
154	0x3eb2e085	0.3493692
155	0x39ed08a4	0.000452106
156	0xbc74f6e9	-0.014951446
157	0x3bc378ee	0.0059653437
158	0x3ad2767f	0.0016057043
159	0xbd10e31f	-0.03537285
160	0x3b4e1995	0.0031448354
161	0xbcce6865	-0.025196264
162	0xbd35e1f2	-0.04440493
163	0xbe61e78e	-0.22060987
164	0x3eb2b78b	0.34905657
165	0x3d307991	0.043084685
166	0x3d660c69	0.05616418
167	0xbe97e5ba	-0.29667455
168	0x3dacf161	0.08444477
169	0x3e18ca19	0.14920844
170	0x3d5cb4bb	0.053883296
171	0xbd8db2f9	-0.06918902
172	0x3dcb41da	0.099246696
173	0xbe454bb5	-0.19267161
174	0xbe29f9af	-0.16599153
175	0xbce21214	-0.027596511
176	0x3c260133	0.010132122
177	0x3e4501a0	0.19238901
178	0x3a1b5b57	0.00059263915
179	0xbd2a62f5	-0.04159828
180	0x3c7ecd92	0.0155519415
181	0xbe2ca3ad	-0.16859312
182	0x3c924a01	0.017857553
183	0xbd5651e9	-0.05232421
184	0x3da9e3dd	0.082954146
185	0xbe70fa63	-0.23533015
186	0xbcd08547	-0.025454177
187	0x3d05cd7e	0.032666676
188	0xbd99fd6a	-0.07519038
189	0x39908c09	0.00027570155
190	0x3d0ee3da	0.034885265
191	0xbdb59552	-0.08866371
192	0x3e4144f5	0.18873961
193	0xbdc2e4df	-0.0951631
194	0xbc95dc17	-0.018293424
195	0xbe58e8bc	-0.21182531
196	0xbda41890	-0.080124974
197	0x3da0a3c2	0.07843734
198	0x3d65f4d9	0.056141708
199	0xbc9631ab	-0.01833423
200	0xbcd22fc9	-0.025657551
201	0xbc9b232b	-0.018937668
202	0x3b0f6387	0.0021879391
203	0xbd0915f0	-0.033468187
204	0x3d1b10e9	0.037857924
205	0xbd94d61f	-0.07267403
206	0xbcacd3eb	-0.021097144
207	0x3cc428df	0.02394527
208	0x3d01376f	0.031547006
209	0xb9081611	-0.00012978191
210	0x3e0fd84d	0.14047356
211	0x3a87eb1b	0.001036975
212	0xbda21e25	-0.07915906
213	0x3e0a42da	0.13502064
214	0xbc1fe324	-0.009758744
215	0xbcbc3172	-0.022972796
216	0xbb6cc56c	-0.0036128415
217	0xbe746f07	-0.23870479
218	0xbac18f96	-0.0014767523
219	0xbe6f3574	-0.23360234
220	0xbd5cc138	-0.053895205
221	0x3e16a303	0.14710622
222	0x3e23a0b8	0.15979278
223	0xbe232a77	-0.15934168
224	0xbd7bc35d	-0.06146561
225	0xbd902866	-0.070389554
226	0xbe9443d2	-0.28957993
227	0x3e517bf0	0.20457435
228	0x3ea68ec4	0.32530797
229	0xbdd90c4e	-0.1059805
230	0xbc56742f	-0.013089224
231	0x3dcee056	0.101013824
232	0x3e6768f0	0.22598624
233	0xbd61f914	-0.05516918
234	0x3c51e9c1	0.012812079
235	0xbe190276	-0.14942345
236	0x3ea75cf8	0.32688117
237	0xbd895350	-0.06705344
238	0xbb213118	-0.0024595913
239	0x3dc0c63d	0.09412811
240	0x3dbac936	0.09120409
241	0xb9842854	-0.0002520705
242	0x3ceef054	0.029167332
243	0x3e1ca51d	0.1529736
244	0x3dc0e778	0.09419149
245	0xbb0b2463	-0.0021231405
246	0xbe068cb2	-0.13139609
247	0xbc1e6390	-0.009667292
248	0xbb103218	-0.0022002514
249	0x3b964fd5	0.0045871534
250	0xbd637241	-0.055528883
251	0x3d5fbf58	0.05462584
252	0xbea16885	-0.31525055
253	0x3dd7cd6e	0.105372295
254	0x3d18c7e9	0.037300024
255	0xbd3639b6	-0.04448863

convs.0.fcn.bias f4 [16]
0	0xbc0e3529	-0.008679667
1	0xbdad0b37	-0.08449405
2	0x3dce2e87	0.10067468
3	0x3d8c56e3	0.0685251
4	0x3d97dce3	0.07415178
5	0x3daf61bf	0.085635655
6	0xbdc46cf2	-0.09591092
7	0xbcfd9a34	-0.030957319
8	0xbc24cac5	-0.01005811
9	0xbbfa2f86	-0.0076350598
10	0x3dff4054	0.124634415
11	0x3d6d6210	0.057954848
12	0xbde26c7c	-0.11055848
13	0x3d366a25	0.04453482
14	0x3d85afc7	0.065276675
15	0x3c24644a	0.010033676

convs.1.deg_coeff f4 [2]
0	0x3ea7d3fe	0.32778925
1	0xbd3e4b75	-0.04645868

convs.1.coeff f4 [3]
0	0xbeaea683	-0.34111413
1	0xbe49706a	-0.19671789
2	0x3ea184f5	0.3154675

convs.1.fcn.weight f4 [16, 16]
0	0x3eb8445b	0.3598965
1	0xbd22f30e	-0.039782576
2	0xbe4a5630	-0.1975944
3	0xbdb8a814	-0.09016433
4	0x3e80288d	0.25030938
5	0xbe69f25d	-0.2284636
6	0xbdde21ba	-0.108462766
7	0xbe439045	-0.19098003
8	0xbc242cdb	-0.01002046
9	0xbc88a342	-0.01667941
10	0xbe6b0c8b	-0.22954004
11	0x3df4db8a	0.11955936
12	0x3e42eaaf	0.19034837
13	0xbe13e5eb	-0.14443175
14	0xbe966a5d	-0.29378024
15	0xbd7ec02d	-0.06219499
16	0x3dc956ce	0.0983101
17	0x3dba5b98	0.09099501
18	0xbd9e1c96	-0.07720296
19	0x3dd02547	0.1016336
20	0x3d1e07e8	0.03858176
21	0xbe18a2d1	-0.1490586
22	0x3cd64aa8	0.026158646
23	0xbd7e8d14	-0.06214626
24	0x3e0d1179	0.13776197
25	0x3df8a177	0.12140172
26	0x3e4354c6	0.19075307
27	0x3d2a6bd6	0.041606747
28	0xbb1111d8	-0.002213588
29	0x3e1bc494	0.15211707
30	0xbe31d751	-0.17367293
31	0xbdcc353d	-0.09971092
32	0xbeb3bd2b	-0.3510526
33	0xbe1a51e3	-0.150703
34	0x3e8c2a30	0.27375937
35	0xbdf9b095	-0.121918835
36	0xbe6b8446	-0.22999677
37	0x3eb9c29b	0.36281285
38	0x3cf4f330	0.029901117
39	0x3dfe148e	0.12406264
40	0xbe781bca	-0.2422935
41	0xbdeb083f	-0.11476182
42	0x3c8b869d	0.017031962
43	0x3baba900	0.005238652
44	0xbe971d24	-0.2951442
45	0xbd37531f	-0.044757005
46	0x3ecbd9b0	0.3981452
47	0x3ea460e3	0.3210517
48	0xbcf836b9	-0.030299531
49	0x3d5aba3b	0.05340026
50	0xbdbdfe30	-0.09276998
51	0x3e909a26	0.28242606
52	0x3e5b7a1f	0.21433304
53	0xbdb8760d	-0.090068914
54	0xbe3861cd	-0.18006058
55	0xbe6569ab	-0.2240359
56	0x3dafcdfc	0.0858421
57	0x3d435da4	0.047696725
58	0x3e45528d	0.19269772
59	0x3de08879	0.1096353
60	0x3d84ad7e	0.064784035
61	0x3e3a3ccd	0.18187256
62	0xbe56a0c0	-0.20959759
63	0xbdd57ebb	-0.104245625
64	0x3e4c0826	0.19924983
65	0x3c6531d5	0.013988932
66	0xbdfdcc97	-0.12392538
67	0x3e27d00a	0.16387954
68	0x3ea91749	0.33025578
69	0xbe1b5865	-0.15170439
70	0xbd4fefdc	-0.050765857
71	0xbe8f8b1c	-0.2803582
72	0xbd4d4c06	-0.05012133
73	0xbd998e65	-0.07497863
74	0xbe9857c4	-0.2975446
75	0x3d052ae1	0.032511596
76	0x3e778607	0.24172221
77	0xbdac46cc	-0.08411941
78	0xbde96c83	-0.1139765
79	0xbd07a80f	-0.033119258
80	0xbeb55e5e	-0.3542356
81	0xbe319311	-0.17341258
82	0x3e410c8b	0.18852441
83	0xbe576a0d	-0.21036549
84	0xbd922a2b	-0.07136949
85	0x3e82a733	0.25518188
86	0x3d7a8875	0.06116529
87	0x3e5b8079	0.21435727
88	0xbe35f43d	-0.17768951
89	0xbe3abd0e	-0.18236181
90	0xbcc30af1	-0.023808928
91	0xbd01fe2c	-0.031736538
92	0xbe4dbfba	-0.20092669
93	0xbe1161cb	-0.14197461
94	0x3ea86d32	0.3289581
95	0x3e4b9faa	0.19885126
96	0xbd131b3a	-0.035914637
97	0x3d9f7ede	0.0778787
98	0x3cbe372d	0.02321967
99	0xbca8e54e	-0.020617153
100	0xbd1d1af5	-0.038355786
101	0x3b28b8c5	0.0025744897
102	0x3d5cd25b	0.053911548
103	0x3d83911c	0.06424162
104	0x3bd9a17e	0.006641566
105	0x3e394bc1	0.18095304
106	0x3e8d1bc2	0.2756024
107	0xbd980262	-0.074223295
108	0x3c3d1e1a	0.011542821
109	0x3d17595a	0.036950447
110	0x3da5ba42	0.080921665
111	0xbdd0daff	-0.1019802
112	0xbe2feb8e	-0.171797
113	0xbd77dabe	-0.060511343
114	0x3e09805d	0.13427873
115	0xbdbc1c92	-0.09185137
116	0xbe8ddecc	-0.27709043
117	0x3e0320d3	0.1280549
118	0x3da8eaa9	0.08247883
119	0x3dc4ae82	0.09603597
120	0xbd39fe19	-0.045408342
121	0xbbf965d0	-0.007611014
122	0x3e0fd7ed	0.14047213
123	0xbdd9281d	-0.10603354
124	0xbe153ba1	-0.14573528
125	0xbd08ac07	-0.033367183
126	0x3e4efcab	0.20213573
127	0x3e0e7747	0.13912688
128	0x3e06bc06	0.13157663
129	0x3ca9294a	0.020649571
130	0xbd915432	-0.07096137
131	0x3dcf75ad	0.10129867
132	0x3e2855ad	0.16438933
133	0xbdc9dcd7	-0.09856575
134	0xbd74a6c1	-0.05972934
135	0xbdaad218	-0.083408535
136	0x3d758da8	0.059949547
137	0x3e0b278b	0.13589303
138	0x3e27d0b5	0.16388209
139	0xbc4f4cca	-0.012652585
140	0x3d32f5f5	0.043691594
141	0x3d87f5ff	0.06638717
142	0xbdb15173	-0.08658113
143	0xbdcc8650	-0.099865556
144	0x3da467dc	0.08027622
145	0x3d607c8f	0.05480629
146	0xbc845519	-0.016153859
147	0x3ca03f1b	0.019561341
148	0x3c4556b5	0.012044598
149	0xbbd8df5a	-0.0066184225
150	0x3c90cb9a	0.01767521
151	0xbd29d53f	-0.041463133
152	0x3d519659	0.051168773
153	0x3dea56bb	0.11442324
154	0x3e3c9719	0.18417014
155	0x3ca1d2d4	0.019753851
156	0xbcf7baa5	-0.030240366
157	0x3dce3cad	0.10070167
158	0xbd9a55b0	-0.07535875
159	0xbd35ea50	-0.04441291
160	0xbeac059f	-0.3359804
161	0xbda7f3e6	-0.08200817
162	0x3e21303d	0.15741058
163	0x3d801ae4	0.06255129
164	0xbbcd8d63	-0.006272958
165	0x3e10348e	0.14082548
166	0xbdf45220	-0.119297266
167	0xbdcc753d	-0.09983299
168	0xbc6f405c	-0.014602747
169	0xbd0068e2	-0.031350024
170	0x3e8a0382	0.269558
171	0x3dfb92c7	0.12283855
172	0xbe4f960c	-0.20272082
173	0x3d26a2c3	0.040682565
174	0x3e14a1f0	0.14514899
175	0xbcd69367	-0.026193334
176	0x3def0b04	0.11672023
177	0xbcba4b55	-0.022741
178	0xbda9a4ef	-0.08283412
179	0x3d82c270	0.06384742
180	0x3e1dbb4b	0.15403478
181	0xbd4e3f89	-0.05035356
182	0xbdc5c5ac	-0.096568435
183	0xbdebb65e	-0.11509393
184	0xbd26b57b	-0.040700417
185	0xbdb02640	-0.086010456
186	0xbe6f6919	-0.23379935
187	0x3dc3ea3e	0.095661625
188	0x3dbd7b67	0.09252053
189	0xbd32ed09	-0.043683086
190	0xbdc9240f	-0.09821331
191	0x3c39b727	0.011335171
192	0x3e1fbf45	0.15600307
193	0x3daef8bb	0.08543535
194	0xbe7ffd1d	-0.24998899
195	0x3e58674b	0.21133153
196	0x3de6f7dc	0.11277744
197	0xbd94f03a	-0.07272382
198	0xbba592cf	-0.0050529013
199	0xbdb26537	-0.087107114
200	0x3d8a7a1d	0.067615725
201	0xbafa8c87	-0.0019115367
202	0xbdbc000a	-0.09179695
203	0x3cf8206c	0.030288897
204	0x3e3b4541	0.18288137
205	0x3d44f908	0.048089057
206	0xbe7554a4	-0.23958069
207	0xbe09f32e	-0.13471672
208	0xbe030d6c	-0.12798089
209	0x3d01ea2c	0.031717464
210	0xbc2ee7d5	-0.01067539
211	0x3e51f971	0.2050531
212	0x3e00c060	0.12573385
213	0xbd228759	-0.03967986
214	0xbdb43e18	-0.08800906
215	0xbe1ce682	-0.15322307
216	0x3da87174	0.082247645
217	0x3c3178dc	0.010832038
218	0x3e6fc486	0.23414811
219	0x3d565560	0.052327514
220	0xbd771a07	-0.060327556
221	0x3da7ddc5	0.08196596
222	0xbdf15f25	-0.117857255
223	0xbe1cee29	-0.15325226
224	0xbeb54b27	-0.354089
225	0xbe35e523	-0.1776319
226	0x3e8bb405	0.27285782
227	0xbeab668d	-0.33476678
228	0xbe900b73	-0.28133735
229	0x3da237b4	0.07920781
230	0x3db7a8a1	0.0896771
231	0x3e2cd89d	0.16879506
232	0xbd9091b0	-0.07059038
233	0xbe1952e4	-0.14973027
234	0x3cc5486e	0.024082389
235	0xbd9d6c11	-0.07686628
236	0xbe8d9afe	-0.27657312
237	0xbdf8b78b	-0.12144383
238	0x3ed0edc8	0.40806413
239	0x3e07d0ef	0.13263296
240	0xbe146307	-0.14490901
241	0xbdb08d79	-0.08620734
242	0x3cb25186	0.021767389
243	0xbe5fd4d3	-0.2185853
244	0xbe3209aa	-0.17386499
245	0x3dc86507	0.097848944
246	0xbc580815	-0.013185521
247	0x3e0826f2	0.13296106
248	0x3b9d0335	0.004791642
249	0xbdd243d4	-0.102668434
250	0xbe7acf9e	-0.24493262
251	0xbcd03c73	-0.02541945
252	0xbdca5447	-0.09879356
253	0xbe0111ab	-0.12604396
254	0x3e91f1c8	0.28504777
255	0x3e864664	0.2622558

convs.1.fcn.bias f4 [16]
0	0x3d1f99db	0.038965087
1	0xbe30d010	-0.1726687
2	0x3caf4d54	0.021399178
3	0xbdea728d	-0.1144763
4	0x3c9be423	0.019029683
5	0xbd47374b	-0.048636716
6	0xbe4d32d7	-0.20038925
7	0xbe272d7a	-0.16325942
8	0xbda76786	-0.081740424
9	0xbe0d155b	-0.13777678
10	0x3dce60a9	0.1007703
11	0x3b5d8380	0.0033800304
12	0xbe7b1130	-0.24518275
13	0xbe251477	-0.16121088
14	0x3df5155e	0.11966966
15	0x3e2b454e	0.16725656

convs.2.deg_coeff f4 [2]
0	0x3e60b6dd	0.21944757
1	0xbc830b9f	-0.015996752

convs.2.coeff f4 [3]
0	0xbe8bcdd6	-0.27305478
1	0xbe0bf974	-0.13669378
2	0x3e745a41	0.23862554

convs.2.fcn.weight f4 [16, 16]
0	0x3e5afe31	0.21386029
1	0x3d5ab8d6	0.05339893
2	0xbe0fd0fc	-0.14044565
3	0xbdab0745	-0.08350996
4	0x3e7c5614	0.24642211
5	0xbd8f3b4f	-0.06993734
6	0xbd419c1d	-0.04726802
7	0xbe1ec69c	-0.15505451
8	0x3d19d01d	0.037551988
9	0x3ca975f1	0.020686122
10	0xbe7b9d8f	-0.24571823
11	0x3dc9248b	0.09821423
12	0x3dd3f84a	0.10350092
13	0xbd83839c	-0.06421587
14	0xbe4d755a	-0.20064297
15	0xbda7eb25	-0.08199147
16	0x3c9b847c	0.018984072
17	0x3d18fba6	0.037349366
18	0xbd902ba8	-0.07039577
19	0x3dc69e55	0.09698168
20	0x3d8f7cee	0.0700625
21	0xbd2b64d4	-0.041844204
22	0xbbc5640c	-0.0060238894
23	0xbd04ceee	-0.032423906
24	0x3d210186	0.039308093
25	0x3d838ea5	0.06423692
26	0x3dd15b7b	0.10222527
27	0x3c4f27f8	0.012643807
28	0xbb23b80d	-0.002498153
29	0x3cda94c3	0.026682263
30	0xbd32b4cf	-0.043629464
31	0xbdd1b037	-0.102386884
32	0xbe4cb5e6	-0.19991264
33	0xbde6c568	-0.11268121
34	0x3e2fd4dc	0.17171043
35	0xbe1d2703	-0.15346913
36	0xbe1fb5c5	-0.15596683
37	0x3e391c4e	0.18077204
38	0x3ba28c5e	0.0049605807
39	0x3df1c13c	0.11804435
40	0xbda6a62b	-0.08137163
41	0xbdb210f0	-0.08694637
42	0x3d7f471c	0.062323675
43	0xbc358769	-0.011079648
44	0xbe26f9e9	-0.1630627
45	0xbdb4dd14	-0.0883123
46	0x3e8c51ca	0.2740615
47	0x3ddfe735	0.10932771
48	0xbb062b2b	-0.0020472507
49	0x3d7bce89	0.061476264
50	0xbdc6f855	-0.09715334
51	0x3dd867b3	0.10566654
52	0x3e5bcd9d	0.21465154
53	0xbcd85297	-0.02640657
54	0xbda38077	-0.07983487
55	0xbe3805a5	-0.17970903
56	0x3cf56853	0.029956972
57	0x3d49a8d2	0.049233265
58	0x3dfd6cd1	0.12374271
59	0x3d8b0857	0.067887
60	0x3d86d24f	0.06583082
61	0x3e1afcfa	0.15135565
62	0xbd93ef1e	-0.07223342
63	0xbe04d6a7	-0.12972508
64	0x3dd039f5	0.101673044
65	0x3cd23b57	0.025663061
66	0xbd9ce5ff	-0.07661056
67	0x3e0cfcc9	0.13768305
68	0x3e4f6107	0.20251857
69	0xbdb32d66	-0.087488934
70	0xbd90d4fe	-0.07071875
71	0xbe227d64	-0.15868145
72	0x3cf6bc6a	0.03011914
73	0xbcd77654	-0.02630154
74	0xbe8a177d	-0.26971045
75	0x3dadcfae	0.084868774
76	0x3e18ac6a	0.14909521
77	0xba0315e1	-0.00050005136
78	0xbe0a7414	-0.13520843
79	0xbd66078c	-0.05615954
80	0xbe60c5f8	-0.21950519
81	0xbd5622da	-0.05227933
82	0x3e2445f6	0.16042313
83	0xbd82edea	-0.06393035
84	0xbe1d6d0b	-0.15373628
85	0x3e29bfbe	0.1657705
86	0x3cefb3cf	0.029260544
87	0x3e060ca3	0.13090758
88	0xbda1a995	-0.07893673
89	0xbdbaf614	-0.09128967
90	0x3bcb901e	0.0062122485
91	0xbd0c62fa	-0.03427408
92	0xbdb0b92b	-0.08629068
93	0xbd5f0566	-0.054448508
94	0x3dc361e3	0.09540155
95	0x3e10ef1b	0.14153711
96	0xbd4b21be	-0.049592726
97	0x3cec95d1	0.028880032
98	0x3d1ae78c	0.037818477
99	0xbd873def	-0.0660361
100	0xbdd53b96	-0.10411756
101	0xbbdf7037	-0.006818797
102	0x3cc84ed9	0.02445166
103	0x3dab8c85	0.08376411
104	0x3c3f7677	0.011685959
105	0x3d94881e	0.07252525
106	0x3e157c31	0.14598157
107	0xbd9a9527	-0.0754798
108	0xbd6de8d8	-0.058083385
109	0x3d4e82f8	0.05041787
110	0x3d30c1e2	0.04315365
111	0xbc92955c	-0.017893486
112	0xbe1a708c	-0.15081996
113	0xbcc3754e	-0.023859646
114	0x3e02aad3	0.12760477
115	0xbe215cc2	-0.1575804
116	0xbe84720f	-0.2586827
117	0x3db9494f	0.09047186
118	0x3d76d2db	0.06025968
119	0x3e0ac5e6	0.13552055
120	0xbd631cd2	-0.055447407
121	0x3cf3c084	0.029754885
122	0x3ddda0ed	0.1082171
123	0xbd7dfd1b	-0.06200896
124	0xbe09302d	-0.13397284
125	0xbbbb405c	-0.0057144593
126	0x3dbf4bdd	0.09340642
127	0x3dda06cd	0.106458284
128	0x3cea36ea	0.028590638
129	0x3d2b2693	0.041784834
130	0xbcb393bf	-0.021921037
131	0x3d860399	0.06543655
132	0x3de762a5	0.11298112
133	0xbd6d4735	-0.057929236
134	0xbcffb222	-0.03121287
135	0xbddf72c3	-0.10910561
136	0x3d78a48c	0.0607038
137	0x3d9d8a5a	0.07692404
138	0x3dc26173	0.09491243
139	0x3d339d34	0.043851092
140	0xbcd2b338	-0.025720224
141	0x3da2252f	0.079172485
142	0xbdc85cae	-0.09783302
143	0xbdb6ba45	-0.08922247
144	0x3bee8897	0.0072794664
145	0xbc04ebce	-0.008112861
146	0x3c6749f9	0.014116758
147	0x3c8ffc3a	0.017576326
148	0x3d0acdc2	0.033887632
149	0xbd2d3386	-0.042285465
150	0x3cbea1a3	0.023270434
151	0xbd4dabd5	-0.0502127
152	0x3d386c57	0.045025196
153	0x3d779035	0.06044026
154	0x3e04312c	0.12909383
155	0xbc047510	-0.0080845505
156	0xbd115244	-0.035478845
157	0x3c3912c7	0.011295981
158	0xbd606e59	-0.054792736
159	0xbdabd2bf	-0.08389806
160	0xbdbb86a5	-0.09156541
161	0xbd99f7d6	-0.07517974
162	0x3e1ddb4a	0.15415683
163	0x3d008442	0.03137613
164	0xbb8a7edc	-0.0042265486
165	0x3e0aeb9a	0.13566437
166	0xbd8184fd	-0.063241936
167	0xbd4a5628	-0.04939857
168	0xbba40509	-0.005005483
169	0xbc27df05	-0.010246043
170	0x3e52d759	0.20589961
171	0x3d5ae77e	0.053443424
172	0xbe3ec6f6	-0.18630585
173	0x3d1e2f76	0.03861948
174	0x3de7246a	0.11286242
175	0xbc1b1c06	-0.0094671305
176	0x3e222c28	0.15837157
177	0x3bbd61e6	0.0057794927
178	0xbd2b6d8e	-0.041852526
179	0x3d896461	0.06708599
180	0x3df6ebc4	0.120566875
181	0xbd8de388	-0.06928164
182	0xbd26857d	-0.040654648
183	0xbd908103	-0.07055857
184	0xbb3ce130	-0.0028820746
185	0xbd64e1f5	-0.055879552
186	0xbd92025d	-0.07129357
187	0x3cc27dfe	0.023741718
188	0x3ddd0771	0.10792435
189	0xbc1eb930	-0.009687707
190	0xbdcc8ed0	-0.09988177
191	0xbc0cda0a	-0.008596906
192	0x3e442828	0.19155943
193	0x3ba0a609	0.0049026054
194	0xbe3064ed	-0.17226
195	0x3d888a0b	0.066669546
196	0x3e1dd699	0.15413894
197	0xbe11775a	-0.14205685
198	0xbd9fc9d9	-0.07802171
199	0xbdefd65e	-0.11710809
200	0x3d7cf89d	0.061760534
201	0x3d12a2b9	0.035799716
202	0xbdf6a69a	-0.120434955
203	0x3d1011c2	0.035173185
204	0x3e0c6b79	0.13712873
205	0xbcb64a09	-0.0222521
206	0xbe48bb8f	-0.19602798
207	0xbde41396	-0.11136548
208	0xbdc2f6a8	-0.09519702
209	0x3c1fd0c3	0.0097543625
210	0xbd17c7b4	-0.037055686
211	0x3d875480	0.06607914
212	0x3d861775	0.06547443
213	0xbcb0df8c	-0.02159097
214	0xbd1a5a50	-0.037683785
215	0xbddfb066	-0.10922317
216	0x3d374a23	0.044748437
217	0x3d564571	0.05231232
218	0x3e4d6ceb	0.2006108
219	0x3d2b6302	0.041842468
220	0xbce25eb3	-0.027633047
221	0x3d9dfe73	0.07714548
222	0xbd9582b5	-0.07300321
223	0xbde7fb70	-0.11327255
224	0xbe8828e6	-0.26593703
225	0xbde4c431	-0.11170233
226	0x3e5471a0	0.2074647
227	0xbdf42e2f	-0.11922871
228	0xbe49721c	-0.19672436
229	0x3e1ddfc0	0.15417385
230	0x3d8af01b	0.06784078
231	0x3e3331f5	0.17499526
232	0xbd8fcfc6	-0.070220515
233	0xbd8181bb	-0.06323572
234	0x3d88735c	0.06662628
235	0xbd9edac5	-0.07756571
236	0xbe33d9a1	-0.17563488
237	0xbdecf4cb	-0.11570128
238	0x3e8bc64c	0.27299726
239	0x3e566df5	0.20940383
240	0xbddb2c0e	-0.10701762
241	0xbd2cc14b	-0.042176526
242	0x3d8fc439	0.070198484
243	0xbe174047	-0.14770614
244	0xbe208548	-0.15675843
245	0x3db2a9bd	0.08723781
246	0x3c4da741	0.0125520835
247	0x3e344fb6	0.17608532
248	0xbd8930fb	-0.066987954
249	0xbd680203	-0.056642544
250	0xbe1e924d	-0.15485497
251	0xbd8c92a1	-0.06863905
252	0xbca7f19b	-0.020500949
253	0xbdd892f4	-0.10574904
254	0x3e237751	0.15963484
255	0x3e13b781	0.1442547

convs.2.fcn.bias f4 [16]
0	0x3cb2dfc0	0.021835208
1	0xbe3e0fab	-0.18560664
2	0x3d805aa5	0.06267289
3	0x3e1d33b6	0.15351757
4	0x3daf49b7	0.08558982
5	0x3e34e26d	0.176645
6	0xbddad8e3	-0.10685899
7	0x3d9409da	0.072284415
8	0xbdd0a01c	-0.101867884
9	0xbe289097	-0.16461407
10	0x3d617b3a	0.05504916
11	0x3a10250b	0.0005498684
12	0xbe097082	-0.13421825
13	0x3c75e6e9	0.015008667
14	0x3d7451a9	0.05964819
15	0x3d895eb9	0.0670752

convs.3.deg_coeff f4 [2]
0	0x3e55b345	0.20869167
1	0x3d533c2d	0.05157106

convs.3.coeff f4 [3]
0	0xbd58c13c	-0.052918658
1	0xbdf9ca00	-0.121967316
2	0x3e0d4ac0	0.13798046

convs.3.fcn.weight f4 [16, 16]
0	0x3da222b2	0.07916774
1	0x3b9f307a	0.004858074
2	0xbe11b87e	-0.14230534
3	0xbcd6ab03	-0.026204592
4	0x3dba1261	0.09085537
5	0xbdc4a36c	-0.09601483
6	0x3abbbd8b	0.0014323456
7	0xbd45a465	-0.048252482
8	0x3d501c20	0.050808072
9	0x3d2363ac	0.039889976
10	0xbda6549e	-0.08121608
11	0x3c9d47dd	0.019199306
12	0x3e02e882	0.12784007
13	0xbc362df3	-0.011119354
14	0xbe2b65f9	-0.16738118
15	0xbd89a182	-0.06720258
16	0x3d154931	0.036446754
17	0x3c57c975	0.01317059
18	0xbd3993cb	-0.045306962
19	0x3d3d3f90	0.046203196
20	0x3d8e4486	0.069466636
21	0xbd061561	-0.032735232
22	0x3c5ab686	0.013349181
23	0xbc860aaa	-0.016362507
24	0x3c8e33ef	0.017358748
25	0x3d03cab7	0.032175746
26	0x3d8d53a8	0.06900722
27	0x3cd9f1dc	0.026604585
28	0xbc90fc0e	-0.017698314
29	0x3d555821	0.052086
30	0xbd8ad227	-0.06778365
31	0xbd80cf53	-0.06289544
32	0xbe250c5a	-0.16117993
33	0xbd4d9177	-0.050187554
34	0x3e095859	0.13412608
35	0xbd848e97	-0.06472509
36	0xbd981743	-0.07426312
37	0x3d951d45	0.07280973
38	0x3c8da051	0.017288359
39	0x3e0b260d	0.13588734
40	0xbd8500af	-0.06494271
41	0xbcbcf433	-0.023065662
42	0x3d9836e5	0.07432345
43	0xbcf58f15	-0.029975453
44	0xbd2dc8b8	-0.04242775
45	0xbcb00c1a	-0.021490145
46	0x3e0d97e3	0.13827471
47	0x3dbc05a7	0.091807656
48	0xbc92864a	-0.0178863
49	0x3d634b3d	0.055491675
50	0xbde3b163	-0.11117818
51	0x3dfefd14	0.124506146
52	0x3e08c797	0.13357387
53	0xbd834b74	-0.06410876
54	0xbd4d974d	-0.05019312
55	0xbdbe67e6	-0.09297161
56	0x3cc44c22	0.023962084
57	0x3d20d27d	0.039263237
58	0x3d52f95d	0.051507343
59	0x3d8331e3	0.064059995
60	0x3caed449	0.02134146
61	0x3de2fa8c	0.11082944
62	0xbd72abe8	-0.059245974
63	0xbdb2e5ef	-0.087352626
64	0x3dfdacfa	0.12386508
65	0x3c99238f	0.018693713
66	0xbdee9252	-0.11649002
67	0x3dcfa534	0.10138932
68	0x3df9aeff	0.12191581
69	0xbddaff21	-0.10693193
70	0xbd3f4ba2	-0.04670299
71	0xbd868f34	-0.065702826
72	0x3ccc951b	0.024973443
73	0x3b590cbb	0.003311916
74	0xbe326dae	-0.17424652
75	0x3cd3829c	0.025819115
76	0x3da574cf	0.0807892
77	0x3bd6a7dc	0.006550772
78	0xbd7d7521	-0.06187928
79	0xbd8a8def	-0.06765353
80	0xbdc12de2	-0.094325796
81	0xbc6524c0	-0.013985813
82	0x3d59e645	0.053198118
83	0xbd81b5f1	-0.06333531
84	0xbd45f2af	-0.048327144
85	0x3dc3b65a	0.09556265
86	0x3cec8286	0.028870832
87	0x3ddcdeca	0.10784681
88	0xbd76d872	-0.060265012
89	0xbd31655c	-0.043309554
90	0x3cd43ca3	0.02590782
91	0xbd727872	-0.059196897
92	0xbd66601d	-0.056244005
93	0xbcd0d1a9	-0.025490599
94	0x3dc78341	0.097418316
95	0x3dc63942	0.0967889
96	0xbdd0990a	-0.1018544
97	0xbc7ecfad	-0.015552443
98	0x3d8ca8b0	0.06868112
99	0xbca926b4	-0.020648338
100	0xbdb1d10a	-0.08682449
101	0x3d64862b	0.055792015
102	0x3cb639c7	0.022244347
103	0x3cf46ef4	0.029838063
104	0x3c1c68d7	0.00954648
105	0x3aba9ac5	0.0014236799
106	0x3d597d45	0.053097982
107	0xbcf26ee9	-0.029593902
108	0xbd9c9ddc	-0.07647297
109	0xbc64b761	-0.013959737
110	0x3cf69afc	0.0301032
111	0xbc4af610	-0.012387767
112	0xbd5d86c7	-0.05408361
113	0xbd3a66e7	-0.04550829
114	0x3d893f73	0.06701555
115	0xbe097747	-0.13424407
116	0xbd725c6a	-0.059170164
117	0x3e01ef94	0.12689048
118	0x3c9b4e04	0.0189581
119	0x3e037fb8	0.1284169
120	0xbd0f30db	-0.0349587
121	0x3cf0f653	0.029414332
122	0x3d175aa3	0.036951672
123	0xbccb8f6b	-0.02484866
124	0xbe0102ea	-0.12598768
125	0xbac2cd79	-0.0014862261
126	0x3e284218	0.16431463
127	0x3dcbb18a	0.09945972
128	0x3d57ddda	0.05270181
129	0x3c25517f	0.010090231
130	0xbb72b75d	-0.0037035563
131	0x3cc97288	0.024590746
132	0x3db8ffc4	0.090331584
133	0xbc010ff9	-0.007877343
134	0xbd03f8cf	-0.032219704
135	0xbdafdbaf	-0.08586823
136	0x3c24c870	0.010057554
137	0x3ca4730b	0.020074388
138	0x3dd4df4f	0.10394155
139	0x3d30b52e	0.043141536
140	0x3c1119a7	0.008856214
141	0x3d31b025	0.043380875
142	0xbcb27428	-0.021783903
143	0xbd15866d	-0.03650515
144	0x3d4fd9a4	0.050744668
145	0xbbe3835d	-0.00694315
146	0x3c086a56	0.008326134
147	0x3d0c4506	0.034245513
148	0x3c094c69	0.008380034
149	0x3abcfc6b	0.0014418488
150	0x3ca79e48	0.020461217
151	0xbb3f07ec	-0.002914901
152	0x3c300b7e	0.010744927
153	0x3d1739fb	0.03692053
154	0x3d7f1431	0.062275115
155	0x3cb647c5	0.02225102
156	0x39473b33	0.00019000172
157	0x3d54c272	0.05194325
158	0xbd16f2e1	-0.03685272
159	0xbd422bf7	-0.04740521
160	0xbe2d741d	-0.16938825
161	0xbd331846	-0.04372432
162	0x3d545204	0.05183603
163	0x3cdefebd	0.027221078
164	0x3bd7d737	0.006586935
165	0x3dbb7f0e	0.09155093
166	0xbd6b5d1e	-0.05746185
167	0xbcb01abc	-0.021497123
168	0xbbe5bcee	-0.0070110476
169	0xbc8d1168	-0.017220214
170	0x3e468cb4	0.19389611
171	0x3d628218	0.05529985
172	0xbdebf893	-0.11522021
173	0x3cde8cef	0.027166812
174	0x3d01c218	0.031679243
175	0xbbeaac82	-0.007161678
176	0x3dccf273	0.10007181
177	0x3b9a896d	0.0047160895
178	0xbd1039a0	-0.035211205
179	0x3d26b1a2	0.040696748
180	0x3d919e1a	0.071102336
181	0xbd553fbf	-0.052062746
182	0xbcd68b88	-0.02618958
183	0xbcce41d3	-0.025177872
184	0xbc23712b	-0.009975712
185	0xbc104dc6	-0.008807605
186	0xbdc270af	-0.09494149
187	0x3d2ac338	0.04169008
188	0x3d5a45da	0.053289272
189	0xbc7712c3	-0.015080157
190	0xbc4803cc	-0.0122079365
191	0x3c28fc85	0.010314112
192	0x3e01831f	0.12647675
193	0x3cf25347	0.029580725
194	0xbd8fbf6f	-0.07018935
195	0x3d13f434	0.036121562
196	0x3d5fed38	0.05466959
197	0xbda50b2f	-0.08058774
198	0xbd3d2042	-0.04617334
199	0xbdf3e763	-0.11909368
200	0x3d103c63	0.03521384
201	0x3c6207c7	0.0137958
202	0xbdfe23af	-0.1240915
203	0x3d8d394e	0.068956956
204	0x3dd17110	0.10226643
205	0xbc3b54b2	-0.011433767
206	0xbe12ab7f	-0.14323233
207	0xbd7eb8ad	-0.06218784
208	0xbb67ecf6	-0.0035389042
209	0xbc9fd9d2	-0.019513045
210	0xbb3bde7a	-0.0028666542
211	0x3d9c53b3	0.07633152
212	0x3d2b04cc	0.04175262
213	0x3a8a8a44	0.0010569771
214	0xbd2d68b6	-0.04233619
215	0xbd8ee76a	-0.069777325
216	0x3d1dfaef	0.038569387
217	0x3ccfa28d	0.025346065
218	0x3db789a7	0.08961802
219	0x3d626dd1	0.05528051
220	0xbcc64d98	-0.024206921
221	0x3da173e9	0.07883436
222	0xbd6615d7	-0.05617317
223	0xbd83cca5	-0.06435517
224	0xbe321cbe	-0.17393777
225	0xbd6256e7	-0.055258658
226	0x3dccaced	0.099939205
227	0xbe0a67b1	-0.13516118
228	0xbe18f131	-0.14935757
229	0x3e1227e0	0.14273024
230	0x3d9231df	0.071384184
231	0x3df65473	0.12027826
232	0xbdb0691d	-0.08613799
233	0xbca677d5	-0.020320812
234	0x3d27b6d3	0.04094584
235	0xbd23fe2b	-0.040037315
236	0xbde71957	-0.1128413
237	0xbd9a716a	-0.07541163
238	0x3e562477	0.20912348
239	0x3e11d802	0.14242557
240	0xbd6a0f6c	-0.057143614
241	0xbc9f67f1	-0.019458743
242	0x3d6e5f79	0.05819652
243	0xbdbfe42f	-0.093696944
244	0xbdca0b1b	-0.098653995
245	0x3d191128	0.037369877
246	0x3c43e059	0.011955344
247	0x3dd04dd8	0.101710975
248	0xbd190507	-0.03735831
249	0xbc5c513b	-0.013447101
250	0xbdc182e2	-0.09448792
251	0xbcf2129d	-0.029549891
252	0x3b29e3b8	0.0025923084
253	0xbd0a9f5a	-0.033843376
254	0x3de35d03	0.11101725
255	0x3d850eb5	0.06496946

convs.3.fcn.bias f4 [16]
0	0x3b10c9ba	0.0022092895
1	0x3d474af2	0.048655458
2	0x3dd578f3	0.1042346
3	0x3d3ee0b4	0.046601012
4	0xbd5d77c0	-0.05406928
5	0xbb954f6f	-0.0045565884
6	0xbbe064c3	-0.0068479492
7	0x3c80c83c	0.01572048
8	0x3df33427	0.11875182
9	0xbd97f9bc	-0.0742068
10	0x3e329879	0.17440976
11	0xbc4349b6	-0.0119194295
12	0xbdda364f	-0.1065489
13	0x3dfaa42a	0.12238343
14	0x3cdfb11d	0.027306134
15	0xbe13f2a6	-0.14448032

convs.4.deg_coeff f4 [2]
0	0x3f4afd7f	0.79293054
1	0xbdfe7377	-0.12424367

convs.4.coeff f4 [3]
0	0xbeac8c8f	-0.33700988
1	0xbea1d1de	-0.31605428
2	0x3eab1797	0.33416435

convs.4.fcn.weight f4 [5, 16]
0	0x3e9d5df3	0.3073574
1	0x3e98b2ba	0.29823858
2	0xbece8c30	-0.4034133
3	0x3e013787	0.12618838
4	0xbe7e0cd4	-0.24809581
5	0xbeae9c22	-0.34103495
6	0x3ec66ae2	0.3875342
7	0x3e3dd48f	0.18538116
8	0x3e86cb21	0.2632685
9	0x3e9138ea	0.28363734
10	0x3e033909	0.12814726
11	0xbedf4399	-0.4360626
12	0x3ef14bfe	0.4712829
13	0x3dd82c28	0.10555297
14	0xbee879d8	-0.4540546
15	0xbe83fe85	-0.2578012
16	0xbee27db2	-0.44236523
17	0xbeca0f34	-0.39464724
18	0x3efcd662	0.4938231
19	0xbf081fde	-0.53173625
20	0xbead3ba4	-0.33834565
21	0x3f0302d9	0.5117622
22	0x3d6b0e69	0.05738679
23	0x3e803c1f	0.2504587
24	0xbec2558d	-0.37955895
25	0xbe4274ec	-0.18989915
26	0x3e979c29	0.29611328
27	0xbe90fa74	-0.2831608
28	0xbee663f2	-0.44998127
29	0xbeb1f0ef	-0.3475413
30	0x3f059e83	0.52194995
31	0x3efe77d1	0.49700788
32	0x3ed8547a	0.4225195
33	0xbebd3f16	-0.36962193
34	0xbc068d34	-0.008212376
35	0xbed83769	-0.42229775
36	0x3f096137	0.53663963
37	0x3db98e54	0.0906035
38	0xbedb98f2	-0.42890126
39	0xbecf1858	-0.4044826
40	0xbeb541c4	-0.35401738
41	0xbe8b757b	-0.27238068
42	0xbed24661	-0.4106932
43	0x3dce232f	0.100653045
44	0x3de3bd39	0.11120076
45	0xbeff92fe	-0.49916834
46	0xbe090a53	-0.13382845
47	0x3eb06951	0.3445535
48	0xbebde451	-0.37088254
49	0xbca3daca	-0.020001788
50	0xbe23339a	-0.15937653
51	0x3eeff869	0.4686921
52	0x3ec6d987	0.38837835
53	0x3d0eaf90	0.0348354
54	0xbec8f7f7	-0.39251682
55	0xbee6d71a	-0.45085984
56	0x3cfc1d0b	0.030775568
57	0xbd5137fc	-0.05107878
58	0x3f006a29	0.5016199
59	0xbc2977e0	-0.010343522
60	0x3dcecd6b	0.10097774
61	0x3e4b0d4e	0.19829294
62	0xbed1d7da	-0.40984994
63	0xbe7e4a9b	-0.24833147
64	0x3ed4b842	0.41546828
65	0x3d1c2dac	0.038129494
66	0x3b7ebdba	0.003887041
67	0xbe5e6809	-0.21719374
68	0xbca8e3fc	-0.020616524
69	0xbe7ed1b3	-0.24884681
70	0x3e60ae8c	0.21941584
71	0xbcb9111e	-0.02259117
72	0x3e8f2321	0.2795649
73	0x3ec3bace	0.38228458
74	0x3ee5777d	0.44817725
75	0xbe70a222	-0.23499349
76	0xbdc44846	-0.095840976
77	0x3d826429	0.0636676
78	0xbe967271	-0.29384187
79	0xbeaab78a	-0.33343154

convs.4.fcn.bias f4 [5]
0	0x3c90c5a7	0.017672373
1	0x3e881b2d	0.26583233
2	0x3ebefae1	0.3730078
3	0x3e033600	0.12813568
4	0x3e43baab	0.19114177

fcn.weight f4 [16, 1703]
0	0xbdd763df	-0.10517096
1	0xbc1bf85f	-0.0095196655
2	0xbcefc0d2	-0.029266749
3	0x3cdafe53	0.0267326
4	0x3d36370d	0.044486094
5	0xbda22b03	-0.0791836
6	0xbe03527c	-0.12824434
7	0xbdcad302	-0.09903528
8	0xbc09f8b5	-0.008421113
9	0x3d6d788c	0.05797629
10	0x3b8238a7	0.0039740386
11	0x3e9a970f	0.30193374
12	0x3e3cdf53	0.18444566
13	0xbe47d609	-0.19515242
14	0x3abe4594	0.0014516586
15	0xbd4b8e95	-0.049696524
16	0xbdc7a228	-0.09747726
17	0xbe1f1923	-0.15536933
18	0x3e9571b6	0.29188317
19	0xbd96ad43	-0.07357266
20	0x3d483820	0.04888165
21	0xbb84d374	-0.0040535275
22	0x3e5c2c54	0.21501285
23	0xbe4a58b6	-0.19760403
24	0xbd59af36	-0.05314561
25	0x3d5faa89	0.054605994
26	0x3a21e6fb	0.00061760814
27	0xbdac9daf	-0.08428513
28	0xbc2f29e4	-0.01069114
29	0xb96dcc3d	-0.00022678166
30	0x3ea334b0	0.31876135
31	0xbc940df8	-0.018073067
32	0xbe4db40b	-0.20088212
33	0xbd88da13	-0.06682219
34	0xbc833b0b	-0.016019365
35	0xbe1edc6b	-0.1551377
36	0xbdd8a70c	-0.10578737
37	0xbd9118d0	-0.07084811
38	0xbc80ddac	-0.015730701
39	0xbcd8f130	-0.026482195
40	0x3dc6ba8e	0.09703551
41	0xbe961545	-0.29313102
42	0xbe10d635	-0.14144213
43	0x3eac59bd	0.33662215
44	0x3d193e57	0.037412968
45	0xbe8f8f13	-0.28038844
46	0xbe9b9063	-0.30383596
47	0xbe670bf8	-0.2256316
48	0xbd09b62e	-0.033621006
49	0xbaf24df3	-0.0018486365
50	0x3db6ead2	0.08931507
51	0xbb263e9e	-0.0025366913
52	0x3a494d2b	0.00076790404
53	0xbc73da64	-0.014883611
54	0xbc4daca0	-0.012553364
55	0x3bc5c074	0.006034905
56	0x3d41710f	0.04722696
57	0xbe2aaaaa	-0.16666666
58	0xbea56aa7	-0.32307932
59	0xbe995a13	-0.29951534
60	0x3da65574	0.08121768
61	0xbd5fdc4e	-0.05465346
62	0xbcdc6b3e	-0.026906606
63	0x3dc2e509	0.09516341
64	0xbddd51a3	-0.108065866
65	0xbd2d5614	-0.04231842
66	0x3d918d63	0.071070455
67	0x3b587576	0.0033028997
68	0x3e116fcb	0.14202802
69	0xbe06e79b	-0.13174288
70	0xbd21562b	-0.039388817
71	0x3d6566bc	0.05600618
72	0xbc7c2d88	-0.015391715
73	0xbd036063	-0.032074343
74	0xbd391238	-0.04518339
75	0xbde2e37b	-0.11078545
76	0xbd33dc94	-0.04391153
77	0xbdab15ce	-0.08353768
78	0xbdaeac9f	-0.085290186
79	0xbd9e9b7a	-0.077444986
80	0xbd3a8b61	-0.04554308
81	0xbe3ec330	-0.18629146
82	0x3a907662	0.0011021609
83	0x3e4618f0	0.1934545
84	0xbca68822	-0.020328585
85	0x3a6bb2fb	0.0008991209
86	0xbd37c9f1	-0.04487032
87	0xbadd1adc	-0.0016868967
88	0x3a6551b7	0.0008747833
89	0xbd9d97ab	-0.07694944
90	0x3dcf3ce1	0.101190336
91	0x3e87aec4	0.26500523
92	0xbe731838	-0.23739707
93	0x3d44f021	0.048080567
94	0x3d497d9d	0.04919206
95	0x3d3abc10	0.045589507
96	0x3a441647	0.0007480126
97	0x3d22a546	0.0397084
98	0xbc426891	-0.011865751
99	0x3b5a51a5	0.0033312824
100	0xbd03a85b	-0.03214298
101	0x3d9de605	0.07709888
102	0xbe617f2a	-0.22021165
103	0xba4e70f6	-0.0007875109
104	0xbce6af30	-0.028159708
105	0x3d0d93f8	0.034564942
106	0xbc476b3e	-0.012171565
107	0x3d6e2f23	0.05815042
108	0x3d723222	0.05912984
109	0x3d7f620c	0.062349364
110	0x3d42d9a4	0.04757084
111	0xba27ff43	-0.00064085814
112	0xbd55627c	-0.052095875
113	0xbc89c364	-0.016816802
114	0xbe6f5524	-0.23372322
115	0x3eab4504	0.33451092
116	0xbdfbf384	-0.12302306
117	0x3b321216	0.0027171425
118	0x3b7031b6	0.0036650724
119	0xbcac26d4	-0.021014608
120	0x3e9e4a71	0.3091617
121	0x3dc3af8a	0.09554966
122	0x3d96ad17	0.07357233
123	0x3a9e071b	0.0012056561
124	0x3dc76167	0.09735375
125	0xbd48777a	-0.048942067
126	0xbcc1bfa2	-0.023650948
127	0x3d32e13a	0.043671824
128	0xbe24d8a0	-0.16098261
129	0x3de04ab8	0.109517515
130	0x3dcbbca3	0.09948089
131	0xbe013083	-0.12616162
132	0x3da705a8	0.08155376
133	0x3d189f1c	0.037261114
134	0x3d656ef4	0.056014016
135	0xbe8f0592	-0.27933937
136	0xbe1d92a1	-0.15387966
137	0xbe25a839	-0.16177453
138	0xbd62e75a	-0.055396415
139	0x3b990c02	0.004670621
140	0x3d2561d1	0.040376488
141	0x3ea2dffc	0.31811512
142	0x3ea17666	0.31535643
143	0x3cf050e9	0.029335456
144	0xbe11f4df	-0.14253567
145	0xbdf47ea0	-0.11938214
146	0xbe108d9e	-0.14116523
147	0x3ea9036f	0.33010432
148	0xbaddba2c	-0.0016916445
149	0x3e97a546	0.2961828
150	0x3d9701cd	0.0737339
151	0x3e8397ff	0.257019
152	0xbe9428a8	-0.28937268
153	0x3ba9dfaf	0.005184136
154	0x3e9c198a	0.30488235
155	0x38e030a4	0.000106902124
156	0xbbc84fae	-0.006113014
157	0x3bda2a63	0.006657885
158	0x3c97797c	0.018490545
159	0xbcd7f1c8	-0.026360407
160	0xbb117113	-0.0022192642
161	0xbca5ae38	-0.020224676
162	0xbd1683d4	-0.036746815
163	0xbe753597	-0.23946224
164	0x3e9fd027	0.31213495
165	0x3d052684	0.032507434
166	0x3d3b958d	0.04579692
167	0xbe9e5bf1	-0.3092952
168	0x3d9076e9	0.0705393
169	0x3dff1ec8	0.12457043
170	0x3c6bc9f9	0.014391416
171	0xbd617ab7	-0.05504867
172	0x3dc1d0e2	0.09463669
173	0xbe62b91a	-0.22140923
174	0xbe1f068f	-0.15529846
175	0xbcb62a48	-0.022236958
176	0x3bb34239	0.005470541
177	0x3e577937	0.21042334
178	0xba9522a8	-0.0011378126
179	0xbd1914fe	-0.037373535
180	0xbc81a809	-0.015827196
181	0xbe67752b	-0.2260329
182	0x3c39324d	0.011303497
183	0xbd2a8a3a	-0.04163573
184	0x3d61feee	0.05517476
185	0xbe8b6834	-0.27227938
186	0xbcc396a1	-0.023875536
187	0x3d04326e	0.032274656
188	0xbd93f2ca	-0.07224043
189	0xba4e5765	-0.0007871299
190	0x3cb80110	0.022461444
191	0xbda5fd9e	-0.08105014
192	0x3e1a459c	0.15065616
193	0xbdbf996f	-0.09355437
194	0xbd363777	-0.04448649
195	0xbe6b1006	-0.22955331
196	0xbd9e6d94	-0.07735744
197	0x3d847a6a	0.06468661
198	0x3d78b94b	0.060723584
199	0x3bc70a10	0.0060741976
200	0xbcb58d60	-0.02216214
201	0x3c431135	0.011905958
202	0xb96e6b7a	-0.00022737487
203	0xbcb5d2a6	-0.022195172
204	0x3d09fbde	0.033687465
205	0xbc544c6b	-0.012957673
206	0xbcb07e0c	-0.021544479
207	0x3ceef003	0.02916718
208	0x3c831db2	0.01600537
209	0x3b00626e	0.0019589919
210	0x3e068326	0.13135967
211	0xbb1142ad	-0.0022164986
212	0xbd9e7acb	-0.07738265
213	0x3de12efe	0.10995291
214	0x3b37df91	0.002805684
215	0xbce8e59d	-0.0284298
216	0x3aa4fa98	0.001258689
217	0xbe81e611	-0.2537084
218	0x39857c60	0.00025460403
219	0xbe53083a	-0.20608607
220	0xbcbbc09d	-0.022918994
221	0x3e0b90ed	0.13629504
222	0x3e210a2b	0.15726535
223	0xbde8bfb6	-0.11364691
224	0xbd63a8f2	-0.05558104
225	0xbd9c36d8	-0.07627648
226	0xbea379b8	-0.31928802
227	0x3e3a29b0	0.18179965
228	0x3eb328c0	0.34992027
229	0xbdb47301	-0.08810998
230	0x3d248206	0.040163063
231	0x3de0bbad	0.10973296
232	0x3e4faba1	0.20280315
233	0xbcdf4d5d	-0.02725857
234	0x3cb5c435	0.022188285
235	0xbe07b710	-0.13253427
236	0x3ea7741b	0.3270577
237	0xbd856b55	-0.065146126
238	0x3ab2dea4	0.0013646674
239	0x3daf4e5d	0.085598685
240	0x3d998235	0.07495538
241	0xba7495cb	-0.0009330182
242	0x3b595d22	0.0033167084
243	0x3e767463	0.24067836
244	0x3dc262d0	0.09491503
245	0x3ca4ac84	0.020101793
246	0xbdf3a136	-0.11895983
247	0xbbf0689d	-0.0073366896
248	0x39f9532f	0.00047554958
249	0xbade05c4	-0.0016938974
250	0xbd486db6	-0.048932754
251	0x3d7fec32	0.062481113
252	0xbe97925c	-0.2960385
253	0x3d61bf35	0.05511399
254	0x3ce4c019	0.02792363
255	0xbdc5e38f	-0.09662544

fcn.bias f4 [16]
0	0x3dd20433	0.10254707
1	0xbdbea8eb	-0.09309562
2	0x3de0c602	0.10975267
3	0xbcf09e80	-0.029372454
4	0x3e3f1ca8	0.18663275
5	0x3dd22e52	0.10262741
6	0xbddac27e	-0.10681628
7	0xbdbe6c24	-0.0929797
8	0xbdb6a115	-0.08917443
9	0xbd535f17	-0.051604357
10	0x3d1e78e2	0.0386895
11	0x3e19a1c9	0.15003122
12	0xbdf9da85	-0.121998824
13	0xbd441134	-0.04786797
14	0x3d882689	0.06647975
15	0x3dbef1e1	0.093234785
