GGCN/pretrained/GGCN_film_04_14_34_41.pt (torch, 254691 bytes, 18 tensors)

convs.0.deg_coeff f4 [2]
000000 4e 36 0a 3d 51 f4 3a 3f
       0.033743195 0.7302905

convs.0.coeff f4 [3]
000000 7c 03 4e bf fe f1 35 bf 08 b5 64 3f
       -0.80474067 -0.71072376 0.8933873

convs.0.fcn.weight f4 [32, 932]
000000 c7 63 38 bc a1 30 82 3a 2e 59 54 3c d2 8a 6b bc
       -0.0112542575 0.0009932705 0.012960715 -0.014376359
000010 12 7f 32 3c e8 17 22 3c 77 ef c8 3c 8b 6b 28 3c
       0.010894554 0.009893395 0.024528248 0.0102795465
000020 1b d0 9e 3b 04 92 d4 3c 3f e2 1e 3d 28 c4 a9 3b
       0.0048465854 0.025948532 0.038789984 0.0051808544
000030 cd 0b 9f 3b b9 67 06 3b b2 50 b9 bc 0f a9 aa bc
       0.0048537017 0.00205086 -0.022621486 -0.020832567
000040 3e 07 ea 3c 39 ab a0 3b f3 51 9d bb 30 7d da bc
       0.028567906 0.004903224 -0.004801029 -0.026671022
000050 f9 c1 0c 3b c4 9f 6b bd cf fc 4d bd e9 b0 82 bb
       0.0021477921 -0.05752541 -0.050289925 -0.0039883745
000060 ff 7d 95 bc 24 54 c6 bc 52 62 df 3c 83 ff 8f 3c
       -0.018248556 -0.024210043 0.027268562 0.017577892
000070 37 cf db bc 19 a3 3e bc 48 c6 98 bc 12 40 13 bd
       -0.026832206 -0.011635565 -0.018649235 -0.035949774
000080 a7 bf 1a ba bf 89 62 bd b0 24 c2 3c fa 44 f6 3c
       -0.0005903192 -0.055307146 0.023699135 0.030062187
000090 b9 5d 87 3c 52 05 45 bc 35 09 a3 bb 61 bd 98 3c
       0.016524183 -0.012025194 -0.004975463 0.01864499
0000a0 5a 9e eb 3c cd bc 65 3c 9e df cb bc f0 35 2f 3c
       0.028762031 0.014022064 -0.024886902 0.010694012
0000b0 c4 02 fd 3c 49 c3 08 bd 56 6b d8 3d 64 10 69 3b
       0.030885108 -0.033389363 0.10567348 0.0035562748
0000c0 70 c6 20 3d 5f 2a 89 bc fa 60 06 3c 6e 76 2f bc
       0.039251745 -0.016743837 0.008201832 -0.010709388
0000d0 21 5a 91 3c 4f 7d c6 3b 79 0e e6 3c 10 c6 93 3d
       0.017743172 0.0060574184 0.028083073 0.07215512
0000e0 f9 fc 03 3d c3 e7 c3 b9 0d c4 e6 3c bf 4f d7 3c
       0.032223675 -0.00037365974 0.028169656 0.026283143
0000f0 28 1c fc 3d e2 27 dd bd 7b 0c 52 3b e2 c1 dc 3b
       0.12310058 -0.10798623 0.0032050896 0.00673698
000100 61 1f 66 bd 78 d0 a0 3c 77 54 e8 3c 26 72 81 3c
       -0.05618227 0.019630656 0.028360588 0.0158015
000110 a3 93 a1 bc 65 31 ef 3b 40 1a 22 3b 56 89 9f 3b
       -0.019723719 0.0072995895 0.0024734885 0.0048686666
000120 26 e7 d0 3a 90 e9 fe 3b 84 3b 73 3c 2c 9e a0 bc
       0.0015938028 0.0077793077 0.014845733 -0.019606672
000130 1e df 6a 3b 51 7b d8 bc af 55 70 bb 49 17 03 bd
       0.0035838555 -0.02642599 -0.0036672165 -0.03200463
000140 de de 18 bc 41 90 ff bc 35 2b fc bb ce 38 a9 3b
       -0.009330479 -0.031196715 -0.0076955804 0.0051642423
000150 68 d9 68 3c d1 65 dd bc 1b 05 83 3c bf da 67 bc
       0.01421199 -0.027026089 0.015993645 -0.014151274
000160 f7 25 28 3b ae 61 a5 bc 60 84 50 3b 63 15 c1 bb
       0.0025657394 -0.020188179 0.0031817183 -0.005892442
000170 93 66 e9 bd 88 ca b1 3c 68 5e 55 3c 7c a3 d1 3a
       -0.113965176 0.02170302 0.0130229965 0.0015994157
000180 00 cd 8e bb dd 8e 88 3c d6 65 84 3c a2 eb c9 3b
       -0.004357934 0.016669685 0.01616184 0.006162123
000190 2c 28 8b 3c fe a0 a2 3a 7f 90 6e 3c 7e cb 63 3c
       0.016986929 0.0012407599 0.014560818 0.013903497
0001a0 90 85 35 3d c0 ea f6 3c 47 e7 c3 3c 79 e7 71 3c
       0.04431683 0.030141234 0.023913993 0.01476466
0001b0 aa 03 6e 3c 5a f5 53 3c b3 b5 b3 3a 1d 00 09 bc
       0.014527241 0.012936914 0.0013710767 -0.008361843
0001c0 ad 2e 11 bd fe 06 a2 39 9c a3 96 3b 4e df 31 3b
       -0.035444904 0.00030904257 0.0045971405 0.0027141157
0001d0 ca 45 00 3d 2c 42 24 bd 69 86 59 3d 4e 7a 88 b8
       0.031316556 -0.04010217 0.0531067 -6.5077664e-05
0001e0 cd ae f0 3b bc 7d 39 3b f2 a5 03 bc d2 de f4 bb
       0.0073450566 0.0028303703 -0.00803517 -0.0074728513
0001f0 0f f0 db 3c 1d 5b 27 3d 5b e0 0c 3c fc ce 30 bd
       0.026847867 0.040858377 0.008598412 -0.043166146
000200 de 8e 70 ba 83 58 4e bd b7 4d ad 3c 06 ab b0 3b
       -0.00091765623 -0.05037738 0.021155221 0.0053914813
000210 f3 26 86 bc 6b bd 98 ba ca c2 5e bc 75 a9 f0 ba
       -0.016375994 -0.0011653131 -0.013596246 -0.0018361049
000220 4c 4c 33 3b 00 81 5d 39 c8 1c cb bd d0 dc 4b 3d
       0.002735871 0.00021124259 -0.09917599 0.04977113
000230 57 ef ca 3c 62 cd 65 3d 53 c1 96 3d 55 31 6d bc
       0.02477233 0.05610407 0.073610924 -0.014477094
000240 86 8e 40 bc 9a 73 47 3c 6b a1 e7 bc c5 10 d4 3b
       -0.01175273 0.012173558 -0.028275212 0.0064717256
000250 7a bd f2 3b df 76 1c 3c 95 a9 91 ba 79 12 61 bb
       0.0074078413 0.009549825 -0.0011113161 -0.0034343286
000260 34 24 9e 3c bd 59 37 39 a9 38 a1 39 f1 1a 9a bb
       0.019304372 0.0001748567 0.00030750528 -0.0047029187
000270 cc ce c2 bc fe 70 d1 3c 46 f4 d0 bb b8 56 e3 bb
       -0.023780249 0.025566574 -0.006376776 -0.006937828
000280 dc 12 fb 3b 12 b0 87 3a de 2f 43 3c 47 6c 1a bd
       0.0076621603 0.0010352156 0.011913268 -0.037700918
000290 d7 3e 9c 3c f0 cf d2 bb 2e 6d 7b bc 32 39 b3 3c
       0.019072933 -0.0064334795 -0.015345855 0.021877859
0002a0 f5 17 f8 bc bb 8a 04 bd be fc 4b bc 8d 63 3e bc
       -0.030284861 -0.032358866 -0.012450395 -0.011620414
0002b0 aa 91 a0 3c e8 87 92 bc e7 42 0f 3c 86 ea 57 3c
       0.019600708 -0.01788707 0.008743978 0.013178473
0002c0 0b 20 54 bd ef c1 41 bd 83 54 51 3c 0e 25 25 3c
       -0.05178837 -0.04730409 0.012776497 0.010079635
0002d0 7e ae 1c bc 67 67 10 3c c0 1c 0c bc 40 c0 ba bc
       -0.009563087 0.008813716 -0.008551776 -0.02279675
0002e0 b2 48 60 bd b2 07 9b bc 9e 99 a2 bb d2 d2 99 3b
       -0.054756828 -0.018924568 -0.0049621603 0.004694321
0002f0 d6 99 94 3d cf a7 5d 3d 73 b7 6d 3c 47 61 31 bc
       0.072559044 0.054115113 0.01450907 -0.010826415
000300 12 cd 02 bc af b4 b8 3d 39 66 9e 3d 82 ad 12 3d
       -0.007983463 0.09018838 0.07734341 0.03581
000310 66 57 64 3c d3 a3 58 3d 33 7e 92 3c 27 0c e0 3c
       0.013936853 0.05289061 0.017882442 0.027349545
000320 ad dc 04 3c 0c db 0b 3d 3c 74 2a ba c6 2e 5b 3c
       0.008109254 0.034144446 -0.00065023056 0.013377851
000330 2c 5e 14 3c 31 e7 93 3d b9 70 bf 3c 59 ae fe 3c
       0.009055655 0.07221831 0.02336918 0.031088995
000340 2f 3d ff 3d 1b 07 39 bc 9a d3 14 3c 63 be 6d 3c
       0.12462842 -0.011293198 0.009083653 0.014510724
000350 33 6f f2 3c a7 33 1b bc 42 4c 74 bc ce bc 2b 3c
       0.02959404 -0.009472764 -0.014910759 0.010482026
000360 f9 f9 59 bb ac dd 88 3c 8e a8 cf bb 4b dc 82 3b
       -0.0033260568 0.016707264 -0.006337232 0.003993546
000370 d8 23 d9 3a 87 ee 6e 3c a7 a8 33 bc e2 e3 78 bc
       0.0016566468 0.014583237 -0.010965503 -0.01519105
000380 04 6f 1a bc 00 43 40 bd 55 ec 45 3c 63 61 28 3c
       -0.009425882 -0.046938896 0.012080272 0.010277125
000390 6f da fe 3c eb 0a b1 bd c5 1e 19 bc 06 10 2d 3c
       0.031110017 -0.086446606 -0.009345715 0.010562902
0003a0 64 89 18 bd 13 bc 47 bc a5 9a d9 bc f5 be 23 bd
       -0.0372404 -0.0121908365 -0.026562998 -0.039977033
0003b0 92 6a 07 bd 3d 76 ea bc ec 59 5f bb 5e fd b1 3b
       -0.033060618 -0.028620834 -0.0034080697 0.005431815
0003c0 12 05 9f 3c 5e f4 55 3d bc 14 05 bc 56 70 82 bc
       0.019411597 0.052235 -0.008122619 -0.015922707
0003d0 24 19 a1 3c 07 8f ad bc 42 f1 62 3c a2 ba 91 3c
       0.019665308 -0.021186365 0.013851466 0.017789189
0003e0 bf 32 e5 3b ae 9c 8d 3c 98 9a 79 3d 53 9f 0d bb
       0.006994575 0.017286625 0.060938448 -0.0021609857
0003f0 f2 86 f3 bc de 8d e9 bc 0f 92 89 3d 8c 4e bf bc
       -0.029727433 -0.02851003 0.067173116 -0.023352884

convs.0.fcn.bias f4 [32]
000000 a0 de 0a 3d 3d 0d c2 3c 2f b7 ac bc 16 fc e7 3c
       0.033903718 0.023687953 -0.021083442 0.028318446
000010 5b d4 fc bc 5a 57 e6 39 80 fa ba 3c eb fe e7 bc
       -0.030862978 0.000439341 0.022824526 -0.028319797
000020 9c 79 09 3d d7 d9 df bc 2c 75 e7 3c 98 73 d6 3c
       0.03356324 -0.027325554 0.028254114 0.026178166
000030 03 ca 8a bc 80 ec 5a 3a 47 15 cb 3c 02 29 a9 3b
       -0.01694203 0.0008351281 0.02479042 0.005162359
000040 3a d9 fa 3c 2e 3d ae 3c d2 2d b8 3c 97 1c f5 3c
       0.03062116 0.021269407 0.022482786 0.02992086
000050 5a 16 99 3c 15 30 b3 3c 53 be 5c 3c e1 34 ed bc
       0.018687416 0.021873513 0.013473111 -0.028955879
000060 60 4c e7 3b 83 0a d5 bc 97 9e e7 3c 29 fc 91 bc
       0.007058665 -0.026005989 0.028273864 -0.017820435
000070 a3 52 ab 3c 83 51 5f bc 9f be 0d 3d e3 76 dc 3c
       0.020913428 -0.013630274 0.03460562 0.026912158

convs.1.deg_coeff f4 [2]
000000 ae af 49 3b 72 19 fd 3c
       0.003077488 0.030895922

convs.1.coeff f4 [3]
000000 78 4f dd bc 2f 88 d3 bc 87 ae 5c 3d
       -0.027015433 -0.025821773 0.05387738

convs.1.fcn.weight f4 [32, 32]
000000 c3 36 dd 3c f8 21 76 3c 13 ea 71 bc c9 38 93 3c
       0.027003651 0.015022747 -0.01476528 0.017971413
000010 2e 84 cb bc 1a d4 04 bc c6 a4 92 3c ad dd b7 bc
       -0.024843302 -0.00810721 0.017900836 -0.02244457
000020 9a 18 9f 3c de e1 90 bc 6c c2 5b 3c a7 18 bd 3c
       0.01942091 -0.017685827 0.013413053 0.023083044
000030 44 ac 4c bc d1 11 46 3b 7f 91 84 3c 47 19 36 3c
       -0.012492243 0.0030223022 0.01618266 0.011114425
000040 38 59 9b 3c 1c b0 82 3c 05 37 7f 3c db ad ac 3c
       0.018963441 0.015953116 0.0155770825 0.021078994
000050 4d d8 0d 3c 59 e9 8b 3c 3a 6b 66 3c 21 e1 a5 bc
       0.008657527 0.017079042 0.014063651 -0.020248951
000060 81 fb ce 3b 2b fd d3 bc 86 c0 95 3c e4 52 9d bc
       0.0063166027 -0.025877556 0.018280279 -0.019204564
000070 75 d5 55 3c 6e c9 00 bc 21 4b d1 3c 53 01 a7 3c
       0.01305138 -0.007860525 0.02554852 0.020386374
000080 83 3e 7b 3c 0f 86 35 3c c3 70 4d bc 69 a7 6a 3c
       0.015334728 0.011079325 -0.0125390915 0.01432214
000090 d8 9d 84 bc 8c a4 8b ba b1 b3 4a 3c 42 f5 62 bc
       -0.016188547 -0.0010653897 0.012371943 -0.013852419
0000a0 ec 30 84 3c 88 b2 6b bc 38 63 45 3c b3 9a 48 3c
       0.016136609 -0.014385827 0.012047581 0.012243914
0000b0 24 27 20 bc 8f 67 dc 38 a2 d4 46 3c 9a a0 46 3b
       -0.009774957 0.00010509707 0.012135657 0.0030308128
0000c0 09 ae 66 3c bf 01 2b 3c 81 d3 4c 3c 49 84 6d 3c
       0.014079579 0.010437428 0.012501598 0.014496871
0000d0 c8 75 11 3c 0b 2c 3e 3c 2c 15 06 3c 97 7e 83 bc
       0.008878179 0.01160718 0.008183759 -0.016051574
0000e0 4b 7b 84 3b 24 3b 6a bc 86 b0 64 3c 08 0e 3a bc
       0.004043018 -0.014296327 0.013958102 -0.011355884
0000f0 dc cf 19 3c 77 3c 0c bc 92 52 87 3c 04 8e 34 3c
       0.009387936 -0.008559338 0.016518865 0.011020187
000100 3b 86 4f bc 2c 45 22 bc 61 f7 5a 3c 87 1b 2f bc
       -0.01266628 -0.009904187 0.013364644 -0.010687715
000110 a0 3b 57 3c 06 8d 6e bb 0f 4b 20 bc 9b 2f 60 3c
       0.013136774 -0.0036399974 -0.00978352 0.013683225
000120 fb 0a 34 bc 96 eb 66 3c 55 27 4c bc 53 d4 1e bc
       -0.010988946 0.014094254 -0.012460549 -0.009694177
000130 94 52 10 3c 4f 9c e2 b9 70 7a 2f bc 62 1e 61 b9
       0.008808751 -0.00043222538 -0.010710344 -0.0002146899
000140 b9 04 35 bc 90 c0 1a bc b4 f0 1f bc 61 b9 58 bc
       -0.011048489 -0.009445325 -0.009761978 -0.0132277915
000150 2b 9d 05 bc d6 1c 07 bc 78 da c7 bb b3 05 62 3c
       -0.008155148 -0.008246621 -0.0060990416 0.013795304
000160 37 af c4 ba 8d 29 09 3c 4d 33 36 bc 75 f2 01 3c
       -0.0015005831 0.008371723 -0.0111206295 0.007931341
000170 ca a5 2e bc 78 72 12 3c d4 3f 54 bc e4 19 30 bc
       -0.010659644 0.008938424 -0.012954671 -0.01074836
000180 b8 af 9e 3c 19 11 5f 3c 63 5f 4d bc 63 5b 81 3c
       0.019370899 0.013614916 -0.012534949 0.015790647
000190 99 1f a6 bc 06 e0 19 ba 0a 38 6d 3c 3f d6 8f bc
       -0.020278739 -0.0005869869 0.014478693 -0.017558215
0001a0 56 af 9f 3c 90 e2 82 bc 60 c9 6f 3c de 57 81 3c
       0.019492786 -0.015977174 0.014635414 0.015788969
0001b0 a1 0d 29 bc d3 1e bc 3a e3 3a 6f 3c a5 e4 a6 3b
       -0.010318191 0.0014352448 0.014601442 0.0050931745
0001c0 ea 69 8a 3c c0 11 3e 3c e9 71 6a 3c 1a 6b 91 3c
       0.016896207 0.011600912 0.014309385 0.017751265
0001d0 0d c7 1c 3c 9c 5f 42 3c f7 b9 0b 3c 3f b7 8c bc
       0.009568942 0.011863615 0.008528224 -0.017177222
0001e0 ab 7c cb 3b f7 9c a1 bc 33 da 6b 3c 6e 90 66 bc
       0.00620993 -0.019728167 0.0143952845 -0.014072521
0001f0 91 cb 14 3c f7 53 bf bb 55 f3 99 3c 36 f5 8b 3c
       0.009081737 -0.005838867 0.018792788 0.0170847
000200 67 2b ae bc e0 a9 7c bc 68 8f 53 3c 68 4a 9a bc
       -0.02126093 -0.015421361 0.012912609 -0.018834308
000210 a6 eb c3 3c 36 d9 38 3b b4 08 84 bc f9 31 a1 3c
       0.023916077 0.002820564 -0.016117431 0.01967715
000220 a9 4f a4 bc e6 b9 95 3c 6f 88 71 bc 46 cb 9f bc
       -0.020057516 0.01827712 -0.014742001 -0.019506108
000230 50 92 48 3c 08 22 31 bb 36 a6 8c bc 3f b2 f2 bb
       0.012241915 -0.002702834 -0.0171691 -0.0074065025
000240 95 f4 9c bc 52 11 85 bc 9d 13 7c bc 8d 53 96 bc
       -0.019159595 -0.01624361 -0.015385536 -0.018350387
000250 65 21 15 bc 45 8d 81 bc 10 e7 45 bc 8f cc 95 3c
       -0.0091022 -0.015814433 -0.012079015 0.018286018
000260 a3 b8 d3 bb a7 55 ad 3c 44 22 70 bc 64 fc 9a 3c
       -0.0064612194 0.021159006 -0.014656607 0.018919177
000270 ad c3 45 bc c6 a7 f4 3b ab a5 bb bc 5c 89 90 bc
       -0.0120705785 0.007466289 -0.022906145 -0.017643623
000280 17 db e5 bb 26 ce f3 b9 fb 5e 2a bb d0 6c c6 ba
       -0.007014643 -0.00046502164 -0.0025996554 -0.001513863
000290 7b a7 88 3b 38 94 ff 3b e8 50 1f bb fd 3b 39 3b
       0.004170356 0.0077996515 -0.0024309698 0.0028264516
0002a0 e2 c4 50 3a fd 3b 47 ba 72 0e 97 3b db 31 c9 bb
       0.0007963908 -0.00076001865 0.0046098763 -0.0061399764
0002b0 e4 09 2c ba 67 a1 83 bb b5 c7 a7 ba b9 c4 d3 bb
       -0.0006562753 -0.0040170434 -0.0012800606 -0.00646266
0002c0 03 d4 bd ba b3 f4 73 bb a0 31 70 bb e8 ac 46 bb
       -0.001448274 -0.003722471 -0.0036650673 -0.0030315462
0002d0 50 44 3c 3b a7 f8 21 bb 9a 5a c4 bb 0a 77 4c 3a
       0.002872724 -0.0024714859 -0.005992246 0.00077997206
0002e0 9f 0b e8 bb 23 14 e8 3b bb 62 fd ba 94 50 0e 3c
       -0.0070814635 0.0070824786 -0.0019331792 0.0086862035
0002f0 06 6f 9d b9 36 a9 50 bb c9 e5 9e bb be 83 56 bb
       -0.00030028092 -0.0031839139 -0.00484917 -0.0032732333
000300 d0 e8 89 3c dd 27 16 3c 40 ea 22 bc 0f 68 5b 3c
       0.016834646 0.009164778 -0.009943545 0.013391509
000310 dd 95 84 bc ab 37 93 b9 72 d7 47 3c 3f fc 76 bc
       -0.016184742 -0.000280795 0.012197362 -0.015074789
000320 eb 0b 6e 3c 23 d6 5c bc 79 b0 3b 3c 83 b0 7a 3c
       0.014529209 -0.013478789 0.011455649 0.015300873
000330 ef 55 10 bc 49 f3 40 3b 55 01 48 3c 46 aa a0 3b
       -0.008809551 0.0029441884 0.012207349 0.0049031107
000340 ee 69 73 3c 73 f0 53 3c e6 63 34 3c d7 c1 6d 3c
       0.014856799 0.0129357455 0.011010146 0.014511547
000350 e6 32 03 3c 1a d0 4e 3c 60 68 30 3c 83 61 45 bc
       0.008007741 0.0126228575 0.010767072 -0.012047174
000360 09 6d a4 3b 7a 31 61 bc da ac 48 3c 70 bb 53 bc
       0.005017881 -0.013744706 0.012248242 -0.012923107
000370 d4 30 14 3c 39 ec b1 bb e4 51 8f 3c 49 84 6e 3c
       0.009044845 -0.0054297713 0.017495103 0.014557906
000380 31 c7 9f bc 28 4f 59 bc 66 43 6f 3c 2f f4 88 bc
       -0.019504162 -0.013263501 0.014603471 -0.016717998
000390 c8 d4 ad 3c 18 20 83 3b e4 e1 55 bc 3e cb 8d 3c
       0.021219626 0.0040016286 -0.013054345 0.017308827
0003a0 01 c4 a3 bc 5d 0b 8d 3c 9a 06 5b bc 00 e5 94 bc
       -0.019990923 0.017217332 -0.013368273 -0.018175602
0003b0 88 e0 26 3c 1b cc ef ba f9 0e 6b bc c5 5c bd bb
       0.010185368 -0.0018295081 -0.0143468315 -0.0057788813
0003c0 e2 18 91 bc d6 78 56 bc ac 66 78 bc 49 cd 90 bc
       -0.01771206 -0.013090333 -0.015161198 -0.017676013
0003d0 69 24 1a bc 2b d9 4f bc c8 77 1e bc 89 28 92 3c
       -0.009408095 -0.012686054 -0.009672113 0.017841594
0003e0 8d 15 c9 bb 3e c5 83 3c 8a f4 90 bc cc af 7c 3c
       -0.0061366023 0.016085263 -0.01769473 0.015422773
0003f0 47 70 34 bc da 19 06 3c e5 b8 a1 bc 56 e6 7e bc
       -0.011013097 0.008184874 -0.019741485 -0.015557846

convs.1.fcn.bias f4 [32]
000000 a6 46 40 bc 06 aa 07 bc 4d d3 f9 3b b2 11 1c bc
       -0.011735594 -0.008280283 0.007624066 -0.009525703
000010 ac 2b 37 3c a3 ed 0d 3a 52 b6 09 bc 7f ca 23 3c
       0.011179846 0.0005414134 -0.008405285 0.009997009
000020 70 b0 37 bc 42 be 1d 3c 62 7a 14 bc 86 88 1d bc
       -0.0112115 0.0096278805 -0.009062381 -0.009615069
000030 20 24 d7 3b 32 52 48 bb ef 1c 0e bc 17 0a 3c bb
       0.0065655857 -0.003056657 -0.0086738905 -0.0028692537
000040 92 fc 2f bc 1f 6e 0d bc ed 86 09 bc 3b c6 2b bc
       -0.01074137 -0.008632212 -0.008393985 -0.010484274
000050 82 5d f4 bb 07 d7 01 bc 7b 57 d2 bb 55 27 2a 3c
       -0.007457436 -0.007924802 -0.00641912 0.010385354
000060 6d 2e 40 bb ee 09 21 3c cf 1c 23 bc 6a 49 fe 3b
       -0.0029324547 0.009829028 -0.009955599 0.0077602165
000070 5e 5d f9 bb 79 66 ba 3b 6d 8b 43 bc c8 70 1d bc
       -0.007610007 0.005688485 -0.011935097 -0.009609409

convs.2.deg_coeff f4 [2]
000000 95 2f be 3a b1 07 bc 3b
       0.001451003 0.0057382216

convs.2.coeff f4 [3]
000000 c9 24 a4 bb 19 be 88 bb 76 86 13 3c
       -0.005009268 -0.004173052 0.009004226

convs.2.fcn.weight f4 [32, 32]
000000 79 b5 33 3c 01 ec f9 3b ef 49 99 bb 6d d9 00 3c
       0.010968559 0.007627011 -0.004678003 0.007864338
000010 cc 00 1e bc fb b0 17 bb 9c 55 f8 3b 9e 06 10 bc
       -0.009643745 -0.002314626 0.007578565 -0.00879064
000020 32 f4 17 3c e9 92 00 bc 90 1f cf 3b 47 15 16 3c
       0.009274529 -0.007847526 0.006320901 0.009160346
000030 54 dd 67 bb 2b e1 58 3a 38 d6 df 3b ee 46 4a 3b
       -0.0035379725 0.0008273299 0.006830957 0.0030865031
000040 cb 01 f3 3b 7d f7 01 3c 2b 77 f8 3b c4 1f 02 3c
       0.007415985 0.007932541 0.0075825653 0.007942144
000050 1b 0d 87 3b 83 4b e1 3b 56 6a b3 3b d2 6d 12 bc
       0.0041214353 0.006875457 0.0054753227 -0.008937316
000060 19 86 7c 3b e3 c4 28 bc ec 2e 06 3c b0 99 d5 bb
       0.0038532077 -0.010300848 0.008189898 -0.006518565
000070 4d 2b ce 3b fb b6 21 bb b1 9f 17 3c 6b b0 06 3c
       0.006291783 -0.0024675715 0.009254382 0.008220772
000080 53 88 dc 3b 50 cd a4 3b ff 40 95 bb d8 35 8d 3b
       0.0067301183 0.005029358 -0.0045548673 0.004309397
000090 a9 01 d4 bb b5 38 97 3a e8 2f be 3b ee b9 d3 bb
       -0.0064699245 0.0011537286 0.0058040507 -0.0064613735
0000a0 d2 47 a9 3b f9 7f d5 bb e6 57 6a 3b b2 48 d0 3b
       0.0051660324 -0.0065154997 0.0035757958 0.006356322
0000b0 dc b4 9e bb bf 0b b8 3a 31 e1 87 3b ce bb 54 3a
       -0.0048433375 0.0014041587 0.004146718 0.0008115143
0000c0 96 c5 c5 3b 93 3d a9 3b 17 b5 a8 3b 14 c4 e6 3b
       0.006035517 0.005164811 0.0051485407 0.0070424173
0000d0 a2 89 74 3b 16 d2 a0 3b 5a c2 78 3b c5 77 bb bb
       0.003731348 0.0049078567 0.003795764 -0.0057210648
0000e0 89 8e 3b 3a 9a f1 e2 bb 84 b8 c1 3b bf 8a 64 bb
       0.0007154723 -0.006925774 0.0059118886 -0.0034872738
0000f0 b2 12 84 3b 1b 21 17 bb d3 63 c4 3b 61 61 b7 3b
       0.004030549 -0.0023060504 0.0059933453 0.0055963253
000100 c3 54 47 bb c7 4c c0 bb a9 92 a7 3b de 92 8b bb
       -0.0030415512 -0.0058685276 0.005113919 -0.0042594513
000110 6d 9f a8 3b 1d fe db ba c2 52 65 bb 3f 9e a5 3b
       0.005145958 -0.0016784106 -0.0034991954 0.005054265
000120 ba da a3 bb 79 c8 a1 3b 2e 68 d9 bb f5 b8 86 bb
       -0.0050004395 0.0049372283 -0.0066347336 -0.004111404
000130 9b 63 53 3b 07 27 01 bb 7e dd 8b bb fd 76 40 ba
       0.0032255414 -0.00197071 -0.0042683473 -0.00073419494
000140 ed 75 9b bb 94 e7 a1 bb 8f a3 7d bb 4f 25 92 bb
       -0.0047442825 -0.0049409363 -0.0038702225 -0.004460014
000150 19 cf 53 bb f4 f3 ca bb 6a f7 27 bb 36 32 bd 3b
       -0.0032319485 -0.0061936323 -0.0025629648 0.005773808
000160 ae 8a ba ba b2 0d a2 3b 52 4f 9d bb 88 80 90 3b
       -0.0014232004 0.0049454803 -0.0048007155 0.0044098534
000170 64 88 c0 bb 88 94 5d 3b af bd ca bb da 59 94 bb
       -0.005875634 0.0033810455 -0.006187163 -0.0045273127
000180 f4 e4 03 3c a9 c6 cd 3b e6 03 c5 bb ce 6d cb 3b
       0.008050192 0.0062797857 -0.0060124276 0.006208158
000190 75 cc 11 bc 5c 64 e1 3a 22 f4 ae 3b 90 c1 e8 bb
       -0.008898844 0.0017196047 0.0053391615 -0.0071031526
0001a0 46 89 08 3c d6 3a d8 bb e8 42 b1 3b 87 70 c9 3b
       0.00833351 -0.0065988107 0.005409587 0.0061474475
0001b0 16 f3 47 bb ed 64 00 39 9b a7 cc 3b 9b f6 1b 3b
       -0.003050988 0.00012244629 0.006245566 0.0023798111
0001c0 e9 77 e2 3b 1a 4b 9b 3b 8e 54 c2 3b cd fd dd 3b
       0.006911267 0.0047391774 0.00593049 0.00677464
0001d0 f0 ab 70 3b 28 e1 9b 3b b5 ad 81 3b 56 82 f8 bb
       0.0036723576 0.0047570653 0.003957475 -0.0075838966
0001e0 38 e6 49 3b 9a 83 f7 bb 35 eb c3 3b a9 4d 81 bb
       0.0030807387 -0.00755353 0.0059789666 -0.0039460254
0001f0 2d 34 a4 3b 35 53 69 bb 14 9d 14 3c 12 47 cd 3b
       0.0050111027 -0.0035602574 0.0090706535 0.0062645758
000200 a4 5f 31 bc fb ea 00 bc a6 a5 b2 3b 98 d5 0b bc
       -0.010826025 -0.007868524 0.0054518757 -0.008534811
000210 3f a3 2a 3c 7d e6 04 3b 5b bc cc bb 3e 01 f1 3b
       0.010414897 0.0020278983 -0.0062480397 0.0073548844
000220 c8 b9 00 bc 05 76 09 3c b6 0e d9 bb 37 8d 1f bc
       -0.007856794 0.008389954 -0.006624068 -0.009738258
000230 4f 54 ae 3b 28 4d 32 ba 97 c2 a6 bb fe 86 23 bb
       0.005320109 -0.00068016583 -0.005089115 -0.0024952288
000240 4d f5 b3 bb f9 6f f0 bb de 0a cb bb 44 49 12 bc
       -0.0054918886 -0.007337567 -0.006196364 -0.008928601
000250 46 f7 b6 bb 92 64 06 bc 1a 20 bd bb 7a 31 18 3c
       -0.0055836765 -0.008202689 -0.005771649 0.00928914
000260 c9 01 e3 ba 7f e1 15 3c 99 a0 eb bb 81 0b 00 3c
       -0.0017319258 0.009148001 -0.0071907756 0.007815243
000270 5b 18 8c bb bb d7 a3 3a cc 9e 1c bc d6 8d da bb
       -0.0042753643 0.0012500206 -0.0095593445 -0.00666974
000280 ec 3d 42 bb 7a d7 24 ba 3d ff 95 ba 13 2c 2a 3a
       -0.002963896 -0.0006288212 -0.0011443865 0.0006491553
000290 d4 76 ce 3a 3e dd 89 3b ca 44 7e ba 87 03 c6 39
       0.0015751966 0.0042072823 -0.00096995814 0.0003776813
0002a0 6a 80 fe b9 82 62 ef b9 05 08 ad 3a 07 1c 56 bb
       -0.0004854233 -0.00045659026 0.0013201243 -0.0032670514
0002b0 98 75 0e ba 5a d5 d4 ba 08 31 21 ba 80 8b 93 bb
       -0.0005434393 -0.00162379 -0.0006148969 -0.0045027137
0002c0 05 7d e2 b9 d6 a4 30 bb 8f 22 df ba 64 e8 ac b9
       -0.00043199226 -0.0026953719 -0.0017023849 -0.0003297954
0002d0 b3 1f 3e 3b 07 9c a5 ba da 1d 85 ba 15 71 96 ba
       0.0029010593 -0.0012635001 -0.0010155991 -0.0011477793
0002e0 d5 c4 24 bb d1 c8 55 3b 29 68 aa 3a 97 c7 30 3b
       -0.0025141735 0.0032620917 0.0013001013 0.0026974434
0002f0 dd 14 16 3a a7 05 33 bb 6c 0d 20 bb ac 5c e4 ba
       0.0005725155 -0.0027316601 -0.0024422063 -0.0017422638
000300 ba 7b f7 3b e9 60 c0 3b 46 75 ad bb eb d6 87 3b
       0.007552591 0.0058709276 -0.005293521 0.0041454933
000310 24 1e 02 bc 3c 70 4c ba 86 7d a8 3b 0a 70 9b bb
       -0.007941756 -0.00077987066 0.0051419167 -0.0047435807
000320 7f c7 d9 3b 7f fb 9f bb 9f aa b7 3b ee 24 b5 3b
       0.0066460962 -0.0048822756 0.0056050564 0.005528084
000330 40 98 26 bb 67 ff 47 3a 2c c6 b1 3b 49 01 16 3b
       -0.0025420338 0.00076293055 0.0054252353 0.002288895
000340 ca 4a af 3b 7a 76 98 3b 5b 06 bb 3b d0 d9 d9 3b
       0.0053494917 0.0046527954 0.0057075447 0.0066482797
000350 b5 2e 26 3b bf 1c ac 3b a8 df fb 3a d7 e3 c3 bb
       0.002535743 0.0052524502 0.0019216435 -0.0059780884
000360 f2 16 09 3b 90 e9 bc bb 6c 0a a1 3b f5 b8 8a bb
       0.0020918217 -0.0057651475 0.0049145725 -0.0042334744
000370 31 e4 86 3b 95 6e f1 ba f8 6c 05 3c 64 cc 98 3b
       0.004116558 -0.0018419797 0.008143656 0.004663037
000380 c8 0f 29 bc 2d 38 a1 bb 05 aa a8 3b 47 81 bf bb
       -0.010318704 -0.0049200268 0.005147221 -0.0058442685
000390 0f 17 e3 3b 91 f3 c1 3a ca 95 e4 bb 49 bd ee 3b
       0.006930239 0.001479732 -0.006975864 0.007285748
0003a0 5d c3 fb bb 37 00 da 3b 45 17 e9 bb d7 d7 d8 bb
       -0.007683201 0.0066528576 -0.0071133696 -0.006617527
0003b0 ac 17 b2 3b 26 c6 57 ba 99 5b d1 bb c6 42 3e bb
       0.005434951 -0.00082311255 -0.006389093 -0.00290315
0003c0 37 55 f8 bb 51 47 9f bb 12 f8 c1 bb 6b 73 f8 bb
       -0.007578518 -0.0048607965 -0.005919465 -0.0075821183
0003d0 5a 39 7a bb 03 84 af bb fc 3b 9a bb b6 e8 eb 3b
       -0.0038181157 -0.005356313 -0.0047068577 0.007199372
0003e0 e9 16 bb ba cb 87 dd 3b d3 02 bb bb b1 07 e7 3b
       -0.0014273796 0.0067605725 -0.005707124 0.0070504774
0003f0 18 74 8b bb d8 9c 0a 3b 62 19 05 bc fa 1c d3 bb
       -0.004255783 0.0021150615 -0.0081237275 -0.0064426633

convs.2.fcn.bias f4 [32]
000000 60 f7 9a bb 0b 1b 67 bb a0 1c 38 3b ed 63 81 bb
       -0.0047291964 -0.0035263922 0.0028093234 -0.0039486797
000010 0f 68 a1 3b c1 b6 00 b9 c5 9e 0b bb 7a a6 86 3b
       0.004925735 -0.00012275112 -0.002130435 0.004109201
000020 54 18 94 bb a7 e3 8c 3b 7a 1c 85 bb ff ca 9b bb
       -0.0045195017 0.004299599 -0.0040622326 -0.0047544236
000030 ae a2 06 3b 13 b3 87 3a cc e1 2c bb e3 55 70 ba
       0.0020543742 0.0010353051 -0.0026379703 -0.00091680716
000040 50 d7 78 bb e7 2b 3b bb 0d 45 0a bb 50 c0 85 bb
       -0.0037970133 -0.0028560103 -0.0021098286 -0.0040817633
000050 4a 8c 13 bb 72 83 2a bb c6 6e 01 bb 0e a9 8e 3b
       -0.0022514039 -0.002601829 -0.0019749864 0.004353649
000060 20 8f e5 b9 bc 27 81 3b 55 30 3f bb 99 1e 1c 3b
       -0.0004378492 0.0039415043 -0.0029173095 0.0023821949
000070 3c 5e 20 bb ca 25 1f 3b 3a 1d 92 bb ba dc 64 bb
       -0.002447023 0.0024283999 -0.0044590505 -0.0034921602

convs.3.deg_coeff f4 [2]
000000 8b 01 87 3c 3f 71 05 3f
       0.016480228 0.52125925

convs.3.coeff f4 [3]
000000 d8 db 66 bf 8e 25 55 bf 42 25 68 3f
       -0.90179205 -0.8326043 0.9068185

convs.3.fcn.weight f4 [5, 32]
000000 87 83 6f be a8 24 c7 be 6d 32 f3 3e 3a 7f ce be
       -0.23390017 -0.38895154 0.4749941 -0.4033144
000010 49 6e b2 3e 38 88 ae be 18 98 88 be dc 47 ba 3e
       0.34849766 -0.34088302 -0.26678538 0.3638295
000020 00 1c e4 be 28 1e d8 3e 91 b6 0e bf 9c 96 39 be
       -0.44552612 0.42210507 -0.55747324 -0.18123859
000030 f7 09 aa 3e 6d ea ec 3d 05 56 97 be 74 69 32 3e
       0.33210728 0.11568151 -0.29557815 0.1742304
000040 66 08 b7 be 37 91 01 be 06 92 95 be d9 26 b3 be
       -0.35748595 -0.12653051 -0.2921297 -0.34990576
000050 71 0c da be 4e 73 82 be f9 a2 c4 bb c7 f5 e7 3e
       -0.42587617 -0.25478595 -0.006000873 0.453047
000060 ff bf 18 3e e8 7e 25 3e e4 27 b3 be ba 0f 43 3d
       0.1491699 0.16161692 -0.34991372 0.04762242
000070 58 9c c7 be f8 f5 f3 3e 17 27 ad be 5b f1 a2 be
       -0.38986468 0.47648597 -0.33818886 -0.31824765
000080 4c 97 a5 be 54 9e 4e be ce 10 36 3e 8c 0e 6e be
       -0.32341993 -0.20177585 0.17779848 -0.23247737
000090 d8 02 89 3e 84 6d 3a 3d d7 3f 44 be fc 13 78 3e
       0.26759982 0.0455146 -0.19164978 0.24226373
0000a0 a8 76 8a be 33 f2 6a 3e f8 50 6f be 2c 02 69 be
       -0.27043653 0.22943954 -0.23370731 -0.22754735
0000b0 58 38 06 3e ef 52 e8 bc fa 73 6b be 86 b5 ca bd
       0.13107431 -0.028359858 -0.2299346 -0.09897904
0000c0 c7 34 89 be c3 1d 3d be 0c 78 4f be 37 56 85 be
       -0.26798078 -0.18468384 -0.20260638 -0.2604234
0000d0 99 6d 06 be 6b 76 35 be da 59 07 be 43 f0 6e 3e
       -0.13127746 -0.17720954 -0.1321787 0.2333384
0000e0 77 b1 c4 bd 2c c8 80 3e 55 88 82 be 9b a2 32 3e
       -0.09604161 0.2515272 -0.25494638 0.17444842
0000f0 e9 cf 3f be 34 79 9f 3d 66 65 97 be 4b 30 61 be
       -0.18731655 0.077867895 -0.29569548 -0.21991079
000100 e0 38 b3 be 20 71 62 3d 18 b6 82 be af ce 97 bd
       -0.3500433 0.055283666 -0.25529552 -0.07412469
000110 3a 53 59 3e dd e7 af 3e 9d bb e4 bd ff 10 cb 3d
       0.21223155 0.34356585 -0.11168597 0.09915351
000120 ea 93 01 be d2 72 fa 3c 3b ca e2 3d e2 1e 8f be
       -0.12654081 0.030572329 0.11073729 -0.2795325
000130 18 64 94 bd 68 32 b8 bd 3e ad 29 bd 82 11 74 be
       -0.07245654 -0.08993989 -0.041424982 -0.23834804
000140 31 ed 16 be da af 76 be 75 05 a4 3c 8d ba 15 be
       -0.14738919 -0.2409052 0.020022133 -0.14621945
000150 98 0d ea 3d d7 b2 c5 bd 64 b6 2d bd 8b d8 b2 3c
       0.11428374 -0.096532516 -0.04241027 0.021831771
000160 7f 4f 52 be 11 8d ac 3e de 82 b7 bd 4d d4 38 3e
       -0.20538138 0.33701375 -0.08960508 0.18049736
000170 7a 8c 2a 3e 60 54 90 be 98 3e 75 be b5 16 0b be
       0.1665515 -0.28189373 -0.23949659 -0.13582881
000180 54 fb a4 3d 84 3d ec 3d de 1c fd bd c6 67 5b 3e
       0.080557495 0.11535171 -0.123590216 0.21426305
000190 5a c9 10 be 94 da 8a 3e f2 32 86 3d f5 ea fb bd
       -0.1413931 0.27119887 0.06552686 -0.12300674
0001a0 d4 3e 7b 3e ed ea 63 be 72 ab b5 3e 4c 84 49 bc
       0.24535686 -0.22257586 0.35482365 -0.012299608
0001b0 c1 3d c2 bd b2 f7 4c be 90 e2 50 3d e5 2b 74 be
       -0.09484435 -0.20016363 0.050997317 -0.2384487
0001c0 9a fa 41 3e 6d 61 ac bd c3 33 51 bb 54 9c 21 3e
       0.18943253 -0.0841702 -0.0031921722 0.1578229
0001d0 d2 e1 6b 3e 9c 19 27 3d 38 2b 88 be df 21 59 be
       0.23035362 0.040795907 -0.26595473 -0.21204327
0001e0 68 3f 56 be 9a 2f 3a bc fb 3d 18 3e b8 55 3b 3e
       -0.20922625 -0.011363888 0.14867394 0.18294418
0001f0 ff 03 d1 3d 0e ee 69 be 2d 6f 22 3e 67 1f a8 3d
       0.1020584 -0.22844717 0.15862723 0.082091145
000200 ad 6c 36 3f 7d e2 e7 3e da 4d c0 be 0a 53 06 3f
       0.71259576 0.45289984 -0.37559396 0.5247046
000210 a5 5f 23 bf f6 fa 4f be fa 24 f8 3e 6e 47 16 bf
       -0.63817817 -0.20310578 0.4846571 -0.58702743
000220 5c d5 1d 3f 38 31 01 bf cd b8 db 3e 59 3e 1d 3f
       0.61653686 -0.50465727 0.4291443 0.6142326
000230 8f bc a9 be f8 ac 11 3e 65 0b 04 3f bd c4 a5 3e
       -0.3315167 0.14226139 0.51579887 0.32376662
000240 de 43 14 3f 61 33 09 3f 8b c3 f8 3e 78 ec 15 3f
       0.5791606 0.53594023 0.48586687 0.5856395
000250 6e cb 95 3e 0e 67 f3 3e ff b5 f3 3e 39 68 0b bf
       0.29256767 0.47539562 0.4759979 -0.54455906
000260 5d 5c 9b 3e 49 43 23 bf 56 51 0c 3f 2d ac 0a bf
       0.30343905 -0.63774544 0.5481161 -0.5416897
000270 6c b2 c1 3e bc d1 2e be b9 17 2c 3f 49 29 10 3f
       0.37831438 -0.17072195 0.672237 0.56312996

convs.3.fcn.bias f4 [5]
000000 74 dc 76 be 95 d2 99 3c 07 70 db 3d 35 83 ff 3d
       -0.24107534 0.018777171 0.10714727 0.12476198
000010 95 93 4a bc
       -0.012364288

fcn.weight f4 [32, 932]
000000 0d 2d e0 bb 97 13 73 ba a3 35 ee 3b d6 0c 09 bc
       -0.006841308 -0.00092726335 0.0072695776 -0.008364877
000010 08 e4 a9 3b 23 f6 a7 3b 94 30 6d 3c 40 4f d4 3b
       0.005184654 0.0051257773 0.014476914 0.006479174
000020 1a 82 3c 3b c7 58 8d 3c 60 30 b9 3c 7d 9a 3a 3b
       0.002876407 0.017254246 0.022606075 0.002847343
000030 57 52 1e 3c f1 94 43 3b af f8 59 bc ee 18 81 bc
       0.009663186 0.0029843415 -0.01330392 -0.015758958
000040 77 63 63 3c a7 e4 84 3b 73 73 cc b9 43 ad 5c bc
       0.013878695 0.004055578 -0.00038995928 -0.013469043
000050 ce 30 ed b7 02 29 ae bc 46 2f e2 bc 92 dd 3a bb
       -2.8275328e-05 -0.021259788 -0.027610432 -0.0028513414
000060 e0 f3 03 bc 3f 1c 50 bc f0 6d 9d 3c 5c 70 27 3c
       -0.00805375 -0.012702047 0.019217461 0.01021966
000070 40 20 44 bc bc ce 9f ba 53 ab 59 bc 91 f5 89 bc
       -0.01197058 -0.0012192349 -0.013285476 -0.016840728
000080 9d 6d 18 bb b1 8b 13 bd 03 ad 71 3c 28 58 96 3c
       -0.0023258694 -0.036021892 0.014750722 0.018352583
000090 1b 4b dc 3b 75 81 1d bc 1b a3 66 ba 00 1f 1f 3c
       0.0067228205 -0.0096133845 -0.00087981083 0.009711981
0000a0 19 a3 bc 3b b6 5b 59 3c b4 03 53 bc 73 7a 01 3c
       0.0057567474 0.0132664945 -0.012879301 0.007902729
0000b0 f8 e5 5f 3c 17 27 82 bc 37 e7 75 3d e4 3a c9 3a
       0.013665669 -0.01588778 0.060034957 0.0015352634
0000c0 01 6c cf 3c 10 d6 89 bc b8 a6 77 ba 3d 06 a9 bb
       0.025320055 -0.016825706 -0.0009447145 -0.0051582144
0000d0 4d 1f 35 3c b0 42 0c 3b 88 29 8b 3c fc 81 00 3d
       0.011054826 0.0021402054 0.016987577 0.031373963
0000e0 60 3d 6b 3c 55 87 86 bb 7e 28 8a 3c c7 a4 f7 3b
       0.014357895 -0.0041054883 0.016865011 0.007557485
0000f0 65 0e 8d 3d 30 2c 21 bd 6a ad f4 3a 06 c4 72 3b
       0.06887511 -0.03934878 0.0018667404 0.0037043109
000100 8e 54 26 bd 96 8f 3e 3c 37 68 8c 3c fb cf 15 3c
       -0.04060798 0.011630913 0.017139537 0.009143825
000110 8e 07 d0 bb c6 a7 7e 3b ff f8 ad 3a a7 08 9d 3b
       -0.006348557 0.0038857325 0.0013273059 0.004792291
000120 b0 f6 58 3a b5 66 b3 3b 81 54 12 3c 20 04 51 bc
       0.00082765054 0.00547489 0.00893128 -0.012757331
000130 7c ab 95 3b 56 50 d1 3a eb b3 25 bb 31 ee 2d bc
       0.0045675617 0.0015969377 -0.0025284241 -0.010615871
000140 24 f3 06 3c 1f 94 f7 bb 55 b0 18 3b e2 bc 34 3b
       0.00823668 -0.007555499 0.0023298461 0.0027578403
000150 d7 3a 04 3c 04 34 13 bc ed 45 26 3c 91 73 1a bc
       0.008070669 -0.008984569 0.010148508 -0.009426967
000160 04 98 f2 3a dd 8e 8f bb c4 ed 13 bd 4c 9f 19 3c
       0.0018508439 -0.0043810443 -0.036115423 0.009376358
000170 b8 4a 03 bd b5 51 19 3c 84 c4 a6 3b ab 75 22 bb
       -0.03205368 0.009357859 0.0050893445 -0.0024789374
000180 7a f4 17 bb 30 1f 24 3c 60 36 61 3c d0 09 f3 3a
       -0.002318649 0.010017201 0.013745874 0.0018542353
000190 1d e1 21 3c ce e1 df 3b f5 32 c5 3b f2 09 c5 3b
       0.009880331 0.006832338 0.0060180374 0.0060131485
0001a0 fb 0a c2 3c 3b 0c 94 3c 14 dd 5f 3c d3 90 03 3c
       0.023686877 0.018072238 0.013663549 0.008030134
0001b0 c5 67 b9 3b be e6 c0 3b 95 f4 8a 39 76 af 8f ba
       0.0056581222 0.0058868816 0.0002650364 -0.0010962326
0001c0 7e c8 83 bc 54 0d d5 38 d7 15 42 3b 24 6c d9 3a
       -0.016086813 0.00010159114 0.0029615068 0.0016588015
0001d0 82 8a 90 3c e6 66 91 bc 44 76 e0 3c c4 78 50 39
       0.01764417 -0.017749261 0.027400143 0.00019881414
0001e0 a1 b1 84 3b 06 a5 24 bb 19 65 a7 bb 21 0a 83 ba
       0.0040494953 -0.0025122776 -0.0051084873 -0.0009997525
0001f0 a1 6e 83 3c 5c c2 d1 3c 91 ef a0 3b 28 33 f4 bc
       0.016043963 0.025605373 0.004911371 -0.02980955
000200 99 0f 26 bb 31 5d e2 bc c9 fd 25 3c 39 1b 24 3b
       -0.0025338887 -0.027632328 0.010131308 0.002504064
000210 61 68 38 bd 02 ec 9c 3c c3 30 08 bc 37 9e a2 b9
       -0.04502142 0.019155506 -0.008312407 -0.00031016927
000220 4a 0a cc 3a ab 8b 18 3a aa 2f 75 bd a7 86 71 3b
       0.0015567031 0.0005819152 -0.05985991 0.003685394
000230 f8 67 86 3c f1 c8 01 3d 46 bc 31 3d ef 8b 0d bc
       0.016406998 0.031685773 0.043392442 -0.00863932
000240 71 25 9d bc d0 c5 e3 3b 31 26 3b bc de 26 23 3c
       -0.019182893 0.0069510713 -0.01142268 0.009957997
000250 de 45 ac 3b 35 2d 85 3b f5 b6 f7 ba bf 2d 7c 3a
       0.0052573523 0.004064227 -0.001889913 0.0009619854
000260 41 f3 33 3c 75 dd 3c 3a 72 ae a1 3a bd 55 52 bb
       0.010983289 0.00072046305 0.0012335314 -0.003209456
000270 69 dd 5e bc 4e df 89 3c e8 f1 29 bb 54 42 0d bb
       -0.013602593 0.016830113 -0.002593154 -0.0021554427
000280 17 71 b1 3b a0 92 06 3b 3e 29 d8 3b a7 e9 c8 bc
       0.0054150927 0.0020534173 0.0065967133 -0.024525477
000290 f8 48 28 3c e3 d3 61 bb 7d 41 1d bc ae 81 4f 3c
       0.010271303 -0.003445857 -0.009598133 0.012665195
0002a0 24 8c a3 bc 91 a8 50 bc 0a 4a e7 bb 13 59 d6 bb
       -0.019964285 -0.012735502 -0.0070583867 -0.00654138
0002b0 db 15 24 3c fc 5f 8f bc 61 07 a9 3b fd 8a c7 3b
       0.010014976 -0.017501824 0.0051583503 0.0060895667
0002c0 02 73 ca bc a0 47 21 bd 68 3d c8 3b d8 5d bf 3b
       -0.024713043 -0.039374948 0.006110836 0.0058400445
0002d0 07 f1 67 bb 65 9e a0 3b c7 c7 d4 bb bb b0 80 bc
       -0.0035391466 0.0049016946 -0.006493542 -0.015709272
0002e0 9f f0 09 bd 75 1e 12 bc 3b 9a 31 bb 3e 30 89 3a
       -0.03367674 -0.008918394 -0.0027099985 0.0010466648
0002f0 c5 4c 19 3d 58 f4 e7 3c c5 c0 06 3c 59 91 de bb
       0.03742673 0.028314754 0.008224671 -0.006792229
000300 3b cf 63 bb 27 44 5a 3d 13 5c 3b 3d d5 18 a6 3c
       -0.003476097 0.05328765 0.045742106 0.020275513
000310 a7 02 f7 3b a8 7c 01 3d 00 d6 2a 3c de 89 71 3c
       0.007538158 0.031613022 0.010426998 0.014742343
000320 bd 59 8b 3b 05 fe c0 3c 9b 62 fa 37 9d 8a 94 3c
       0.004252641 0.023558626 2.984824e-05 0.018132502
000330 55 0e ac 3b 55 00 24 3d 0c b2 57 3c f9 73 98 3c
       0.005250732 0.04003938 0.013165008 0.018609988
000340 79 f4 7a 3d 58 23 4d bc 6f cc c4 3b 3e 06 13 3c
       0.061268304 -0.012520634 0.0060058157 0.008973656
000350 18 3f 7a 3c 2c 13 a0 bb 81 01 01 bc 97 31 cb 3b
       0.015273832 -0.004885098 -0.007873894 0.00620098
000360 30 79 25 bb 68 b1 2d 3c 88 06 38 bb d1 81 f3 39
       -0.0025249235 0.010601379 -0.0028080065 0.00046445293
000370 74 83 26 3a e1 cd fd 3b 11 c7 3a bc 16 de 96 bb
       0.00063519855 0.00774549 -0.0114 -0.0046041114
000380 c7 e2 81 ba 08 fa 36 bc 83 5e de 3b 90 21 0d 3c
       -0.0009909504 -0.0111680105 0.006786169 0.008613959
000390 11 01 85 3c 90 48 3c bd ca 10 b7 bb e2 0b e9 3b
       0.01623586 -0.04596764 -0.005586718 0.0071120122
0003a0 35 80 95 bc aa aa fe bb f7 0d 68 bc e2 9a b9 bc
       -0.01824961 -0.0077718096 -0.014163486 -0.022656862
0003b0 9e df 15 bb 36 0f 58 bc c1 55 99 bb 53 4c 3e 3b
       -0.0022868882 -0.01318722 -0.004679412 0.0029037192
0003c0 5a a5 c6 3b 71 5e ad 3c 08 3f e8 ba 06 e1 10 bc
       0.006062192 0.021163197 -0.001771898 -0.008842712
0003d0 f1 76 36 3c 4c 5e d2 bb 3b ef f8 3b 18 b3 18 3c
       0.011136756 -0.0064199325 0.007596878 0.009320043
0003e0 6f 10 90 3b 5a 56 33 3c 06 93 0c 3d d6 7b cc ba
       0.0043964903 0.010945881 0.0343199 -0.0015600871
0003f0 cf 05 4b 3c 42 9b 80 bc 04 40 1b 3d 7f fe 9f bb
       0.012391522 -0.015699033 0.037902847 -0.004882633

fcn.bias f4 [32]
000000 34 d2 40 3d 19 4a 32 3d da 87 9a 3b a2 18 6d 3d
       0.047075465 0.043527696 0.004715902 0.05788482
000010 a6 d2 4e 3c d8 e3 14 3d c4 9c ae 3c 73 13 4f 38
       0.012623465 0.0363501 0.021314986 4.937076e-05
000020 f9 a4 96 3d e1 7f 20 bc f7 10 ab 3d f9 73 ad 3c
       0.07355685 -0.009796114 0.08352845 0.021173464
000030 59 f0 40 bc 73 bc a3 bb 12 1b e4 3c d6 ec cf b9
       -0.011776053 -0.00499683 0.02784494 -0.00039658573
000040 60 0e 32 3d cf d2 78 3c ed 42 ba 3c 41 b0 3a 3d
       0.04347074 0.015186979 0.02273699 0.045578245
000050 ab f0 58 3d eb 12 b6 3c 8b be 0e 3c 87 a6 46 bc
       0.052963894 0.022225818 0.008712421 -0.012124664
000060 ab 76 d8 3a da b8 c7 3c b8 e9 42 3d f6 15 d1 3c
       0.0016514858 0.024380136 0.047586173 0.025523167
000070 1d 46 0f 3d 04 72 c6 ba a5 3e 62 3d bd 58 e9 3c
       0.034978975 -0.001514018 0.055235524 0.028484697
