GGCN/pretrained/GGCN_chameleon_04_14_22_56.pt (torch, 617044 bytes, 22 tensors)

convs.0.deg_coeff f4 [2]
0.23512873 3.1666946
00000000: 96c5 703e 20ab 4a40

convs.0.coeff f4 [3]
1.6856334 -0.8245076 -0.8251541
00000000: d6c2 d73f ee12 53bf 4d3d 53bf

convs.0.fcn.weight f4 [32, 2325]
-0.00039171288 0.011772517 0.00088855525 0.030594526 0.0058945986 0.001503936 -0.010176135 -0.0076154866
-0.000328809 -0.0059565166 0.0074867266 0.0044996417 0.033087105 0.014902681 0.0014205456 0.009117512
-0.00072779943 0.012541676 0.008794676 0.010214403 -0.00049018825 -0.004832441 0.013241687 -0.0030531047
0.008788617 0.01624822 0.0009059721 0.0043182876 -0.008683047 0.0077617355 -0.002676896 3.0797888e-05
-0.010125762 0.02590565 -0.011413943 -0.008500302 -0.0014240481 0.0053272005 -8.09989e-05 0.0038084257
-0.0073322183 -0.005247205 0.0069072098 0.031701896 0.006971492 -0.0059597027 0.0017268448 0.0013379826
-0.008403233 0.011267671 0.0063879164 0.00020042347 0.0018375342 -6.7659596e-05 -0.0017867273 -0.003130714
0.0064773294 -0.0036305473 -0.021975156 -0.00862328 -0.007808123 0.007356796 -0.000551817 0.007891735
0.005130159 -0.0034167834 -0.002735909 0.013732155 0.000115421884 0.000532482 0.011626761 -0.00036813767
-4.138805e-11 -0.0029976994 0.028727597 -0.000280999 -0.009006184 -0.0021151067 -0.006227482 -0.0005910223
-0.0012006578 -0.0057167974 -0.007593394 -0.0012608124 0.004092685 0.014384441 -0.002342108 -0.0029609168
-0.0010424124 -0.002185553 0.0076316246 -0.012041392 -0.013861915 -0.0014935591 0.011375915 0.014223187
0.0059036827 -0.0012849193 -0.00091415254 0.0020215295 -0.0022337714 -0.011801752 0.0054865894 -0.006741909
0.005040721 -0.020365085 -0.010833273 0.0017124218 0.0005220751 -0.018168027 -0.0005170427 -0.0039542667
4.5468598e-11 0.026216663 0.023826636 0.010818547 -0.0006586512 0.000891542 -0.005766908 -0.026672728
-0.028203834 -0.011080933 -0.03902569 0.0077474685 0.016218524 0.0018374588 0.0016655393 -0.0011200458
-0.013204617 -0.011961529 -0.00019800877 -0.00046157086 -0.00042133732 0.0029389698 -0.0014818453 -0.0016943922
0.0010051044 -0.005159325 0.0021955331 0.0018744458 -0.01936167 -0.005858549 -0.0028922735 -0.0060888296
-0.0004522643 0.008632134 0.0122212125 -0.00047637802 -0.010723856 0.0039252015 0.0071534845 -0.00293893
0.0065386193 -0.0033894957 -0.028969882 0.006431074 -0.0007963535 0.0031060367 -8.49449e-11 -0.0012483946
0.0027995454 -0.0048253825 -0.00082595466 0.019213192 -0.017547278 0.022420663 0.0015555288 -0.0030889818
-0.004399524 0.009116957 -0.009335423 -0.0013806189 -0.0006130717 0.005393436 0.0016403907 0.0035291244
0.0018476213 -0.0054677315 -0.032202214 0.0018267499 -0.009989179 -0.009725518 0.0011011722 0.0032557903
0.0025160147 -0.0046706544 0.016495196 -0.00029142704 -0.00029876843 0.009369064 -0.012166082 -0.0004862697
-0.0012757985 0.0038193057 -0.00056100555 -0.00029835355 -0.004238228 -3.0640192e-11 -0.01192479 -0.015657442
-0.0380415 0.0125251515 0.007471492 -0.004047317 0.039886195 -0.0005016093 0.007171943 -0.00033969095
0.003855177 -0.00974072 0.009560838 -0.0020072425 0.0015110906 -0.0048102615 0.007086943 0.0021278225
0.0006628872 -0.005020049 -0.00024354817 -0.0005012375 -0.00029936823 -0.022475423 -0.0015730473 0.00034162085
0.014608873 0.021193942 -0.006566282 -0.020857653 0.0015392349 -0.004392521 -0.0010377646 0.000903728
-3.2216556e-11 0.00060732 0.005099737 -0.0026091845 -0.00058560853 -0.013514355 0.007410779 0.010806586
-0.0016366371 -0.0007600841 0.011666432 -0.0022160695 -0.020838557 -0.002450681 0.0076159495 -0.0052773077
0.0029565936 -0.00027089092 -0.016775459 0.03341407 -0.0018753703 -0.00043288647 8.118894e-05 0.007692414
00000000: d05e cdb9 84e1 403c efed 683a 5fa1 fa3c
00000010: 7a27 c13b b81f c53a ceb9 26bc 558b f9bb
00000020: ff63 acb9 e22e c3bb 3753 f53b bb71 933b
00000030: 5886 073d 602a 743c 9a31 ba3a 9e61 153c
00000040: cbc9 3eba 9a7b 4d3c 8b17 103c 505a 273c
00000050: fa7f 00ba 7459 9ebb a9f3 583c 9916 48bb
00000060: 22fe 0f3c fd1a 853c c27e 6d3a 6c80 8d3b
00000070: 5743 0ebc 2856 fe3b dd6e 2fbb fb2c 0138
00000080: 86e6 25bc 1638 d43c 8c01 3bbc da44 0bbc
00000090: 20a7 baba cc8f ae3b f4dd a9b8 c896 793b
000000a0: 1b43 f0bb bff0 abbb e055 e23b d9d9 013d
000000b0: 1d71 e43b 9c49 c3bb 4c57 e23a 3f5f af3a
000000c0: b7ad 09bc 0a9c 383c ba51 d13b c428 5239
000000d0: 6bd9 f03a 78e4 8db8 9f30 eaba aa2c 4dbb
000000e0: c73f d43b 7aee 6dbb 3e05 b4bc a848 0dbc
000000f0: 48db ffbb 4711 f13b d0a7 10ba 564c 013c
00000100: e51a a83b 1dec 5fbb f04c 33bb d5fc 603c
00000110: a70e f238 4396 0b3a 2c7e 3e3c 9a02 c1b9
00000120: cd06 36ae 0d75 44bb 2356 eb3c 0c53 93b9
00000130: ac8e 13bc 9a9d 0abb e80f ccbb d6ee 1aba
00000140: 645f 9dba f953 bbbb 01d2 f8bb d841 a5ba
00000150: ee1b 863b b8ac 6b3c 0d7e 19bb f10b 42bb
00000160: 8ea1 88ba 7f3b 0fbb b512 fa3b 4249 45bc
00000170: 161d 63bc 87c3 c3ba 0c62 3a3c 5f08 693c
00000180: ae73 c13b bd6a a8ba bda3 6fba a37b 043b
00000190: 7764 12bb 235c 41bc d9c8 b33b 3beb dcbb
000001a0: a22c a53b aed4 a6bc 0a7e 31bc 5773 e03a
000001b0: dedb 083a 1dd5 94bc 268a 07ba cb92 81bb
000001c0: 17f9 472e 54c4 d63c 1430 c33c 4640 313c
000001d0: 55a9 2cba 5fb6 693a 55f8 bcbb c480 dabc
000001e0: ba0b e7bc cd8c 35bc 67d9 1fbd 7ade fd3b
000001f0: b6dc 843c e3d6 f03a 3a4e da3a 80ce 92ba
00000200: 2e58 58bc 4afa 43bc 93a0 4fb9 fefe f1b9
00000210: f0e6 dcb9 bb9b 403b 7a3a c2ba 5e16 deba
00000220: b5bd 833a 8e0f a9bb efe2 0f3b f7af f53a
00000230: 5d9c 9ebc 12f9 bfbb 4c8c 3dbb ce84 c7bb
00000240: e31d edb9 cb6d 0d3c 7b3b 483c 60c2 f9b9
00000250: 1db3 2fbc fa9e 803b c767 ea3b 109b 40bb
00000260: ea41 d63b 4d22 5ebb 3f52 edbc c2bb d23b
00000270: 61c2 50ba a68e 4b3b bacb baae 2ca1 a3ba
00000280: 9478 373b 3e1e 9ebb e184 58ba fc64 9d3c
00000290: 4fbf 8fbc 8aab b73c e3e2 cb3a 8470 4abb
000002a0: e229 90bb 4a5f 153c 9af3 18bc e2f5 b4ba
000002b0: 8cb6 20ba 6cbb b03b 6102 d73a e248 673b
000002c0: e22b f23a a82a b3bb 78e6 03bd 8e6f ef3a
000002d0: a7a9 23bc c757 1fbc 3555 903a 195f 553b
000002e0: b9e3 243b 4a0c 99bb ef20 873c adca 98b9
000002f0: 05a4 9cb9 b480 193c 3f54 47bc 04f2 feb9
00000300: b238 a7ba 514d 7a3b 7210 13ba 566c 9cb9
00000310: d5e0 8abb cac1 06ae 3260 43bc 0944 80bc
00000320: 67d1 1bbd 4b36 4d3c 6bd3 f43b 5b9f 84bb
00000330: b55f 233d 6e7e 03ba 9e02 eb3b 8c18 b2b9
00000340: 23a7 7c3b 8a97 1fbc 10a5 1c3c f18b 03bb
00000350: c90f c63a 669f 9dbb 9639 e83b f072 0b3b
00000360: 9bc5 2d3a 397f a4bb f760 7fb9 7b65 03ba
00000370: 86f4 9cb9 611e b8bc b52e ceba 931b b339
00000380: 0e5a 6f3c eb9e ad3c f729 d7bb abdd aabc
00000390: 27c0 c93a 23ef 8fbb 9a05 88ba 29e8 6c3a
000003a0: 9eb0 0dae 8e34 1f3a b21b a73b dafe 2abb
000003b0: 8683 19ba 506b 5dbc 1fd6 f23b 1b0e 313c
000003c0: 6e84 d6ba 6140 47ba 9024 3f3c 7a3b 11bb
000003d0: 9fb5 aabc 9b9b 20bb 378f f93b 44ed acbb
000003e0: 69c3 413b 5d06 8eb9 b06c 89bc 31dd 083d
000003f0: fcce f5ba 0af5 e2b9 fb43 aa38 a510 fc3b

convs.0.fcn.bias f4 [32]
-0.009913806 0.003580339 -0.00390041 0.21880116 -0.0004847993 0.00014858595 0.20841812 -0.0045861523
-0.007519931 -0.008681061 -0.0023074434 -0.00068365864 -0.011158098 -0.0011523525 -0.0027773464 -0.012069074
-0.008902906 -0.007969919 -0.0042186636 -0.00091959385 -0.00741587 -0.0014094564 0.40784228 -0.0015719475
-0.0057847076 0.034442876 -0.0021502462 -0.0025956163 0.0017671402 -0.00097506156 -0.0103850365 0.00093072234
00000000: 846d 22bc 1fa4 6a3b 059e 7fbb 690d 603e
00000010: a92c feb9 bdcd 1b39 8f6b 553e 6f47 96bb
00000020: c169 f6bb 023b 0ebc 7a38 17bb 8e37 33ba
00000030: 74d0 36bc 890a 97ba 2404 36bb 5ebd 45bc
00000040: 7fdd 11bc 4394 02bc b73c 8abb e610 71ba
00000050: d400 f3bb 82bd b8ba b4d0 d03e ce09 ceba
00000060: a58d bdbb f913 0d3d 25eb 0cbb 371b 2abb
00000070: 639f e73a 469b 7fba 0026 2abc b8fb 733a

convs.1.deg_coeff f4 [2]
0.00036496477 0.0007240079
00000000: be58 bf39 59cb 3d3a

convs.1.coeff f4 [3]
-0.0016377128 0.0038081831 -0.0009657771
00000000: 86a8 d6ba b692 793b 342c 7dba

convs.1.fcn.weight f4 [32, 32]
-0.00026477032 -0.0009793482 0.00094256847 0.0002432246 -0.0010300596 0.00078301394 -0.0011411767 0.00203878
-0.00029360128 0.00058528053 0.0006262569 0.002287441 0.0014625719 -0.0008229301 0.00055343617 0.0015736729
0.0014628355 0.0013705386 0.00036882912 0.00090920425 0.0010509993 0.0018763989 0.008070972 -0.0027859274
0.0012002604 -0.0021389693 0.0016400784 -0.00020236766 -0.0021478487 -0.0025318966 0.0015051755 -0.0024987557
0.00059230067 0.000410302 -0.0005317027 -0.00023932636 0.003521457 -0.0018128875 -0.0020678344 -0.0025527193
1.11202135e-05 0.00077426556 -0.003442751 -0.0047987914 -0.00083093403 -0.0027354772 0.0033852227 -0.00052596355
-0.0019252938 0.00089209055 -0.00031365224 0.0012389198 0.0007532682 -0.0034197466 0.0036531494 0.0011597449
-0.0011427153 0.00021358562 -0.0012968654 -0.0034660588 0.002685922 0.003604867 -0.0009941801 0.0020410083
0.0004347018 -0.0017630534 0.00054185133 0.00043102115 -0.0033640123 -0.00034010303 -0.00097530073 0.0036000558
0.0002912297 0.0030650618 0.0026192034 0.0018838807 0.0017559873 0.0007723961 0.001993637 0.00039920924
0.0025777994 0.00096605334 0.00093371136 0.0022715146 0.001526411 0.0038441306 0.008113739 -0.0037646976
0.0027875134 -0.0010532924 0.0006326455 0.004385217 -0.003165999 -0.0039979075 0.0016054878 -0.0021650884
8.1218633e-07 -0.00017216647 -0.0005691972 0.00011483952 -2.3586636e-06 3.8499224e-05 -0.0004895335 0.000189078
0.0003614308 -0.0019261037 -6.8329696e-06 0.00030748657 -0.00023056728 7.708513e-05 -0.00032826545 -0.00027603772
4.0600255e-05 0.000738845 -0.00021518221 -0.001081984 0.0002583006 0.0005109711 -0.0012362469 0.0043808166
7.57962e-05 -0.002438876 -0.0002033978 0.00027852613 -0.0001661705 0.00021461153 0.00035836865 -0.00019620982
3.8338363e-05 -0.00012496374 -0.0010109313 -0.0053900923 0.016334185 -0.0063343267 0.0037341036 -0.008492284
0.00036565604 -0.0003790232 -0.0019039866 0.00056351634 0.0019601532 -0.004067741 0.010241089 0.0017544938
0.0010714093 0.0034949593 0.0055979104 0.012359466 -0.0014598451 0.009639087 0.019105818 -0.0019716518
0.008804095 -0.0022886712 -0.005179655 -0.005445639 0.0040222737 0.008810217 0.0051085628 0.0055384496
9.7578755e-05 -0.0023435417 -0.0008323432 0.00063173793 8.366477e-05 0.010026313 -0.0030309495 -0.004010497
0.0017083957 0.0029928584 0.0024113313 -0.00040154337 -0.00047194524 -0.0066028023 -0.0043194923 0.0034176677
0.0010455137 0.00047684094 0.0035502764 -0.0039389567 0.0030048147 0.0014476035 0.016860401 -0.007879584
0.0009021124 -0.0032140033 0.007217942 -0.00013963388 -0.00813538 -0.0017800044 0.0015899712 -0.010185092
-0.00040634532 -0.0006301141 0.00029775494 -0.00023679162 -2.1821013e-05 0.00019211682 -0.0002609283 -6.819461e-06
0.00030795185 0.00034796103 5.2321244e-05 0.0013781632 -0.00019180379 0.00015760105 -0.00034086144 -0.00071327324
0.00020643744 0.00044737817 3.6549147e-05 -0.00087715633 9.779586e-05 -0.00070998556 0.0011023314 0.0006932396
0.00014100407 0.0005568763 0.0011749122 0.0001862849 0.0036195165 0.00059427944 0.00043177395 -0.00015003495
-0.0021507007 0.0015040344 0.0045503783 0.0023411438 -0.008636668 -0.0063229394 0.0011765584 0.014497885
-0.0021927904 -0.0021082468 0.0068414262 0.005906801 -0.00027054708 0.012807615 -0.004954386 -0.0031181206
0.0015006893 -0.0034635768 -0.007484881 -0.0051022973 -0.00071112375 -0.0017987126 -0.008732644 0.0036417595
-0.0061763166 0.0062844097 -0.0015163898 0.011509559 0.0016355731 -0.0061254487 -0.0039296476 0.00038443424
00000000: dfd0 8ab9 795d 80ba b316 773a 1b0a 7f39
00000010: 1103 87ba 2d43 4d3a 8993 95ba 0d9d 053b
00000020: 7fee 99b9 836d 193a 642b 243a e4e8 153b
00000030: c5b3 bf3a e7b9 57ba 7914 113a b343 ce3a
00000040: 9dbc bf3a a5a3 b33a 685f c139 aa57 6e3a
00000050: afc1 893a 80f1 f53a 1c3c 043c 1b94 36bb
00000060: 0e52 9d3a f32d 0cbb e6f7 d63a a832 54b9
00000070: ecc2 0cbb 2dee 25bb 4f49 c53a 2ac2 23bb
00000080: a044 1b3a cd1d d739 f761 0bba aef3 7ab9
00000090: 3fc8 663b 699e edba 8184 07bb 864b 27bb
000000a0: f490 3a37 15f8 4a3a c79f 61bb 2e3f 9dbb
000000b0: 0ad3 59ba b145 33bb 9dda 5d3b d1e0 09ba
000000c0: 245a fcba 2fdb 693a b171 a4b9 4063 a23a
000000d0: f976 453a d41d 60bb ad69 6f3b 9502 983a
000000e0: 2ac7 95ba f4f5 5f39 95fb a9ba d126 63bb
000000f0: 4b06 303b a23f 6c3b 264f 82ba 70c2 053b
00000100: b0e8 e339 4116 e7ba 070b 0e3a aefa e139
00000110: c376 5cbb db4f b2b9 53ab 7fba eaee 6b3b
00000120: 30b0 9839 34df 483b f1a6 2b3b 8cec f63a
00000130: 2829 e63a a07a 4a3a aea7 023b f54c d139
00000140: 4cf0 283b be3e 7d3a 4fc4 743a b1dd 143b
00000150: db11 c83a cfed 7b3b 7def 043c 25b9 76bb
00000160: b7ae 363b a10e 8aba 1fd8 253a deb1 8f3b
00000170: a67c 4fbb e100 83bb 3b6f d23a 28e4 0dbb
00000180: 0505 5a35 9687 34b9 2d36 15ba ffd5 f038
00000190: 8849 1eb6 3a7a 2138 0954 00ba 3d43 4639
000001a0: 6c7e bd39 5175 fcba c346 e5b6 2636 a139
000001b0: 6fc4 71b9 c4a8 a138 0b1b acb9 28b9 90b9
000001c0: 314a 2a38 0caf 413a 89a2 61b9 5cd1 8dba
000001d0: 856c 8739 b1f2 053a 9009 a2ba f48c 8f3b
000001e0: c6f4 9e38 8dd5 1fbb 2e47 55b9 2507 9239
000001f0: 0e3e 2eb9 5809 6139 6de3 bb39 acbd 4db9
00000200: 81cd 2038 b308 03b9 3a81 84ba 5f9f b0bb
00000210: 45cf 853c 2f90 cfbb ddb7 743b 3923 0bbc
00000220: 86b5 bf39 a2b7 c6b9 308f f9ba f1b8 133a
00000230: ea75 003b af4a 85bb 3eca 273c 0bf7 e53a
00000240: 886e 8c3a b00b 653b ad6e b73b 5c7f 4a3c
00000250: 4658 bfba 43ed 1d3c ce83 9c3c d436 01bb
00000260: 0d3f 103c 88fd 15bb 18ba a9bb 5571 b2bb
00000270: 47cd 833b ba58 103c bb65 a73b e27b b53b
00000280: 32a3 cc38 1b96 19bb 9b31 5aba 379b 253a
00000290: 2e75 af38 6845 243c e5a2 46bb 7d6a 83bb
000002a0: 3fec df3a d523 443b 6d07 1e3b 3d86 d2b9
000002b0: 6b6f f7b9 525c d8bb 878a 8dbb f3fa 5f3b
000002c0: 9e09 893a 8200 fa39 c1ab 683b 5d12 81bb
000002d0: 6dec 443b 83bd bd3a d31e 8a3c 5f19 01bc
000002e0: bd7b 6c3a 07a2 52bb 7c84 ec3b af6a 12b9
000002f0: 424a 05bc 094f e9ba 9566 d03a 5fdf 26bc
00000300: bf0a d5b9 3e2e 25ba fe1b 9c39 444b 78b9
00000310: 450c b7b7 f772 4939 34cd 88b9 b9d2 e4b6
00000320: 9974 a139 8a6e b639 8273 5b38 7ca3 b43a
00000330: f01e 49b9 b641 2539 a6b5 b2b9 f5fa 3aba
00000340: 2177 5839 158e ea39 594c 1938 f7f0 65ba
00000350: c117 cd38 531e 3aba 1b7c 903a 86ba 353a
00000360: 7eda 1339 56fb 113a 83ff 993a 7955 4339
00000370: 6935 6d3b 6bc9 1b3a b85f e239 b352 1db9
00000380: c5f2 0cbb 0523 c53a 571b 953b e06d 193b
00000390: d080 0dbc a930 cfbb c036 9a3a 8988 6d3c
000003a0: ebb4 0fbb 832a 0abb 0b2e e03b d78d c13b
000003b0: 37d8 8db9 08d7 513c 6758 a2bb 6259 4cbb
000003c0: c7b2 c43a 2dfd 62bb bc43 f5bb 2c31 a7bb
000003d0: b56a 3aba c8c2 ebba 5d13 0fbc 96aa 6e3b
000003e0: b362 cabb 73ed cd3b 99c1 c6ba 9792 3c3c
000003f0: ba60 d63a fdb7 c8bb 46c4 80bb e48d c939

convs.1.fcn.bias f4 [32]
1.4146221e-05 0.00090680365 -0.0010975382 0.0006652868 -0.00026522094 0.0049426993 0.00042637216 -0.0034927453
-0.001309748 -0.0042351508 -0.0050042546 -0.0031428472 -0.00066066167 -0.005204917 -0.00013156001 -0.0021879207
-0.008178946 -0.00095591636 0.0020658518 -0.004925608 -0.0025562386 -0.001598611 -0.0004943482 0.003323459
-0.0047998284 -0.0009782863 0.0023120113 -0.0055860863 0.0011490076 -0.0030175496 -0.0032326216 -0.00014443147
00000000: 8e55 6d37 90b6 6d3a 45db 8fba a466 2e3a
00000010: 5a0d 8bb9 5ef6 a13b b48a df39 8be6 64bb
00000020: daab abba 05c7 8abb bbfa a3bb 3af8 4dbb
00000030: 4130 2dba 028e aabb 5ff3 09b9 3863 0fbb
00000040: fc00 06bc 7696 7aba 3e63 073b ff66 a1bb
00000050: 9186 27bb 7c88 d1ba 2597 01ba 64ce 593b
00000060: e147 9dbb d739 80ba 1d85 173b 7d0b b7bb
00000070: 4c9a 963a 15c2 45bb 64da 53bb 8772 17b9

convs.2.deg_coeff f4 [2]
-0.00024816187 -0.0005927668
00000000: b91b 82b9 e863 1bba

convs.2.coeff f4 [3]
0.0006174524 0.0018102786 -0.0018738364
00000000: 87dc 213a df46 ed3a 849b f5ba

convs.2.fcn.weight f4 [32, 32]
-0.00019477675 -0.0008332841 0.0008066602 0.0049296874 -0.0011002183 0.00013872421 0.0027382895 0.0012263905
0.00011205295 -0.0001612098 -3.589278e-05 0.000503227 0.00067842216 0.0006505374 0.0001419586 0.000588322
0.0015289293 8.548874e-05 0.00038725376 0.00023739242 2.5298712e-05 0.0013095143 -0.006470355 -0.00094842166
-7.82856e-05 0.00221519 0.00037465015 -0.00046332617 -0.0016429436 -0.00066487934 0.0012157526 -0.0006169545
-0.0002865602 0.0007415261 -0.00067031203 -0.0053636367 0.00019316624 -0.00011427379 -0.0019607074 -0.0012199084
-0.00015888108 -0.00025326837 -0.0018526118 -0.00044401482 -0.001078237 -0.00082493626 0.0013916409 -0.00021698647
-0.00024237629 -0.00064029824 -0.00074308045 0.00037694204 0.0005326887 -0.0008843829 0.0023491886 0.0017836915
-0.0010028286 0.00071275275 0.0014258896 -0.00055975205 0.000815005 0.0017653466 -1.6004648e-06 0.0011720476
-0.000455358 -0.00057255325 0.0005107087 0.001047104 -0.00014142986 0.00058700604 -0.0010618434 -0.0011480552
-6.9063586e-05 -0.0006070014 0.0014006085 0.0019839895 0.00085820636 0.001329353 -0.00084868266 0.00032100163
-0.0002610491 0.00027160897 2.202292e-05 -0.00019617347 -0.00026502434 0.0014528739 0.00011625749 -0.00067085994
-0.00038673825 0.0018568037 -0.0011734765 0.0009049152 -0.00064788584 -0.00014577984 -0.00043293202 -0.00014504799
2.4635117e-05 0.0001661471 -2.9361585e-05 -0.0012268467 -3.9553008e-05 0.0001195859 -0.0011979574 -0.000116418305
1.7130948e-05 0.00015462672 -0.00020685226 -5.9766182e-05 2.2396078e-05 -0.00017800884 -2.197565e-05 -0.00013067447
-0.00010042938 -0.00012558662 5.224177e-05 -9.530453e-05 3.501899e-05 4.5460994e-05 0.0033526302 4.8659604e-05
7.983072e-05 -0.000347414 9.993774e-05 -5.5169956e-05 6.005366e-05 0.00048575053 -0.00019250982 -0.0002462984
-0.0001524517 0.0010859732 -0.0011393997 0.00020874476 0.005253673 -0.0017463118 0.0070622913 -0.0066200583
0.0005074076 -0.0011417354 -0.0016670689 0.00030010444 0.0010134222 -0.0037105177 0.0055489833 -0.0013678939
0.0013129412 0.00040530314 0.0017894647 0.0041199094 -0.0004466076 0.0037426576 -0.00012471026 -0.00056496175
0.0032947217 -0.005392154 -0.0023995757 -0.002171385 0.00065644225 0.005011691 0.003715362 0.0018660906
0.00013237508 0.00020614607 -0.0024021077 5.0028546e-05 -0.0010567593 0.0049457294 -0.004501638 -0.00046082045
-0.00039584457 -0.0002851554 -0.00022108987 0.00044800132 -0.00226518 -0.0019372515 -0.0029499843 0.001156247
-0.0009688301 -0.0012591893 -6.3889325e-05 -0.0018240729 0.0004971861 -0.00208436 -0.0007461898 -0.0039474345
-0.000911467 0.00036462463 0.0030764635 -0.002565708 -0.004778411 -0.0012375211 -0.0017439688 -0.0023854948
0.00014121846 0.00031214202 0.00019290565 -0.0037653751 -0.00010415558 -7.003166e-05 0.0021742575 0.0002877909
0.00014426872 0.00020260876 -0.00024663509 -3.5964953e-05 8.93139e-05 0.00032139034 4.4585948e-05 -0.0004678074
0.0001586734 -0.00019990568 0.00012307387 -4.2438885e-05 4.689466e-05 -0.00025736372 0.0041580456 0.00036536634
-4.7854646e-05 0.00010654617 0.00012903479 -0.00023876665 0.0002714796 0.00018362362 -0.00026944026 -0.0004542287
-0.0041188207 -0.0012957733 0.0009235254 0.0040088138 -0.0037039549 -0.00020955261 -0.0009062201 0.0083091585
-0.0020666353 -3.2163047e-05 0.0022260672 0.0028074782 0.0015384804 0.005429728 -0.0021872006 -0.0018398762
-0.0005534021 -0.002524494 -0.0018497681 -0.0014861915 -0.00056980224 0.0017920419 -0.010332603 0.0011331609
-0.0014585821 0.004401243 -0.0015849649 0.004637782 0.0015957536 -0.0025006772 -0.0009119572 0.00014446105
00000000: fc3c 4cb9 c070 5aba 0d76 533a 3789 a13b
00000010: 3335 90ba 7f76 1139 e074 333b d6be a03a
00000020: f8fd ea38 6d0a 29b9 948b 16b8 feea 033a
00000030: 24d8 313a d388 2a3a b9da 1439 9f39 1a3a
00000040: 5b66 c83a 6b48 b338 5208 cb39 8bec 7839
00000050: 9238 d437 02a4 ab3a 4605 d4bb 809f 78ba
00000060: 432d a4b8 b92c 113b b16c c439 96ea f2b9
00000070: 0a58 d7ba 4c4b 2eba e359 9f3a 1ebb 21ba
00000080: 753d 96b9 f962 423a e1b7 2fba 72c1 afbb
00000090: ab8c 4a39 46a6 efb8 367f 00bb 55e5 9fba
000000a0: 5199 26b9 1bc9 84b9 56d3 f2ba a9ca e8b9
000000b0: a153 8dba 8940 58ba b867 b63a dd86 63b9
000000c0: 6426 7eb9 b0d9 27ba 49cb 42ba 4ea0 c539
000000d0: 22a4 0b3a efd5 67ba d8f4 193b c1ca e93a
000000e0: 5871 83ba 07d8 3a3a eae4 ba3a 53bc 12ba
000000f0: 0fa6 553a 3463 e73a 8dcf d6b5 649f 993a
00000100: 1ebd eeb9 6617 16ba 15e1 053a fb3e 893a
00000110: ca4c 14b9 4fe1 193a 8d2d 8bba 577a 96ba
00000120: 3bd6 90b8 2d1f 1fba 9f94 b73a d205 023b
00000130: 41f9 603a af3d ae3a 217a 5eba 1c4c a839
00000140: 6bdd 88b9 bd66 8e39 dcbd b837 eab3 4db9
00000150: f7f2 8ab9 5c6e be3a 44cf f338 a6dc 2fba
00000160: 21c3 cab9 fe5f f33a 56cf 99ba d537 6d3a
00000170: e2d6 29ba 7adc 18b9 27fb e2b9 0618 18b9
00000180: 83a7 ce37 c637 2e39 864d f6b7 25ce a0ba
00000190: b8e5 25b8 31ca fa38 c804 9dba 9a25 f4b8
000001a0: 6eb4 8f37 4b23 2239 7be6 58b9 73ad 7ab8
000001b0: 36df bb37 e2a7 3ab9 5958 b8b7 a905 09b9
000001c0: 9d9d d2b8 e7af 03b9 2c1e 5b38 3bde c7b8
000001d0: 5be1 1238 5fad 3e38 cdb7 5b3b da17 4c38
000001e0: cb6a a738 1e25 b6b9 aa95 d138 4a66 67b8
000001f0: 20e2 7b38 55ac fe39 76dc 49b9 9d21 81b9
00000200: 71db 1fb9 3757 8e3a e957 95ba 7fe2 5a39
00000210: 0127 ac3b 80e4 e4ba cb6a e73b 13ed d8bb
00000220: 8c03 053a 48a6 95ba 8d81 daba 5657 9d39
00000230: ced4 843a 282c 73bb 3fd4 b53b e74a b3ba
00000240: ff16 ac3a de7e d439 798c ea3a 4e00 873b
00000250: a826 eab9 6047 753b a8c4 02b9 f119 14ba
00000260: 42ec 573b abb0 b0bb 3342 1dbb cc4d 0ebb
00000270: 1815 2c3a 1c39 a43b 6e7d 733b 9c97 f43a
00000280: 2ace 0a39 ea28 5839 ae6c 1dbb bed5 5138
00000290: f582 8aba c90f a23b 7a82 93bb 469a f1b9
000002a0: 5c89 cfb9 e980 95b9 5cd4 67b9 b8e1 ea39
000002b0: 6a73 14bb 60eb fdba 8654 41bb 368d 973a
000002c0: 16f9 7dba 620b a5ba 52fc 85b8 bb15 efba
000002d0: 9855 023a c299 08bb f39b 43ba 7b59 81bb
000002e0: 84ef 6eba 172b bf39 7e9e 493b 7025 28bb
000002f0: 3794 9cbb 5134 a2ba e295 e4ba f655 1cbb
00000300: 0b14 1439 fea6 a339 b746 4a39 83c4 76bb
00000310: 1a6e dab8 f6dd 92b8 fd7d 0e3b a4e2 9639
00000320: d746 1739 6073 5439 cd4e 81b9 13d9 16b8
00000330: 094e bb38 4880 a839 cc01 3b38 0c44 f5b9
00000340: 9161 2639 c69d 51b9 640d 0139 6800 32b8
00000350: c2b0 4438 c6ee 86b9 3740 883b a48e bf39
00000360: 89b7 48b8 8a71 df38 834d 0739 6f5d 7ab9
00000370: 6055 8e39 178b 4039 a943 8db9 8b25 eeb9
00000380: 2cf7 86bb f0d6 a9ba be18 723a 5e5c 833b
00000390: 0dbe 72bb 5abb 5bb9 678f 6dba 2323 083c
000003a0: 6370 07bb cfe6 06b8 36e3 113b abfd 373b
000003b0: d6a6 c93a dceb b13b 2357 0fbb 0028 f1ba
000003c0: 3012 11ba fb71 25bb eb73 f2ba 50cc c2ba
000003d0: c85e 15ba f3e2 ea3a 144a 29bc 9286 943a
000003e0: e52d bfba 4d38 903b 99be cfba 89f8 973b
000003f0: 9b28 d13a 67e2 23bb 6910 6fba 787a 1739

convs.2.fcn.bias f4 [32]
0.0011365447 0.0021679036 -0.00095405796 -0.0011264757 -0.0021033934 -0.0022261508 -0.0024551495 -0.0018402251
-0.0002683516 -0.00041015557 7.70622e-05 0.0030837534 -0.0052269176 -0.0011850898 -0.0015228626 -0.0010285347
-0.001727374 -0.005161763 0.0010782207 0.0023317002 0.00061839976 -0.0005633336 -0.00017134174 -0.0011346331
-0.0016917922 -0.001246418 0.0026955162 0.00624128 0.0008017307 0.0025810606 -0.002306167 0.004642804
00000000: 1df8 943a 6313 0e3b bf19 7aba 41a6 93ba
00000010: 16d9 09bb 9de4 11bb 93e6 20bb b533 f1ba
00000020: 8bb1 8cb9 260a d7b9 749c a138 cc18 4a3b
00000030: 9046 abbb 0455 9bba ca9a c7ba e6cf 86ba
00000040: 0e69 e2ba 0224 a9bb 1553 8d3a 70cf 183b
00000050: 1b1c 223a aeac 13ba 33aa 33b9 f8b7 94ba
00000060: 20bf ddba d95e a3ba 42a7 303b a783 cc3b
00000070: 3d2b 523a 0327 293b 1023 17bb aa22 983b

convs.3.deg_coeff f4 [2]
-5.0986884e-05 0.00016503525
00000000: c0da 55b8 500d 2d39

convs.3.coeff f4 [3]
0.0008974872 0.0009930526 -0.00096559216
00000000: 5945 6b3a 5129 823a cb1f 7dba

convs.3.fcn.weight f4 [32, 32]
0.00012579064 -9.4009636e-05 0.00034324103 -0.0013778261 -0.0003051154 7.665681e-06 -0.00057855214 -0.0006868633
0.00011145654 6.0861938e-05 0.00015073614 0.00041391217 0.00094806246 0.00022425492 -0.00019729279 0.0001869041
0.00030679218 0.00011288245 0.00086642365 -8.714017e-05 0.00015815189 -0.00028572715 0.0018628137 -0.000696812
0.00018608799 0.0017346842 0.00010514235 -6.0496764e-05 -0.00042920274 -0.00012057845 0.0002418419 -0.00044050787
-0.00024426627 -0.00027605714 -0.0003995301 0.00017869775 -0.0004527414 -0.00054520444 0.0011783137 0.00043772638
-0.00026800894 -0.0001114465 -0.0008746204 -0.0010727254 -0.0003542146 -0.00015664032 -0.00042742174 -5.8505124e-05
-0.0005881512 -0.00015959468 -0.00010386235 -8.978921e-05 0.0005908804 -0.0009951151 -0.0027754859 0.0008297382
-0.0005504111 -5.4993456e-05 -9.023298e-05 -0.0004753781 0.00062680326 0.00020274387 -0.00030999634 1.2010468e-05
-0.00045791653 -0.00020754836 0.00050363777 0.0012936323 -0.00057690847 0.00013602414 0.0011104206 0.0007790072
5.3686246e-05 -0.00039418464 0.0007599116 0.0007715497 0.0016308369 0.00019200223 0.0006876662 1.0830066e-05
0.0002113573 9.393884e-05 -0.0002711478 0.00033860342 0.00015020507 0.00081534137 0.0005571947 0.00019659042
3.1974803e-05 0.00053489575 -0.00068796205 0.0007575713 -0.0003811924 -0.00034914413 8.612572e-05 -0.00040210265
2.5168278e-05 -1.1951553e-06 -1.8966306e-05 0.000113317525 2.8644434e-05 -5.446289e-06 0.00028801733 -1.7340526e-05
-1.3277528e-07 1.9172687e-06 7.684083e-05 6.834104e-07 -3.394265e-05 -3.3760265e-05 2.1287258e-05 -1.2349738e-05
-3.0087815e-05 3.0566905e-05 -9.634696e-06 -2.0722648e-05 -9.645105e-06 -7.747127e-06 -4.325345e-05 2.0749863e-05
2.872894e-05 0.00014269927 0.00019000313 1.0865885e-05 -5.6957953e-05 -2.0773738e-05 -8.0701626e-05 2.4442823e-05
0.0008373465 0.0010902996 -0.00021387669 -0.0033239317 0.003950437 -0.0006737388 -0.0002855589 -0.0014276808
0.001023104 -0.00049026 0.001435459 -4.055415e-07 -9.294517e-05 -0.0016234395 0.0027185583 -0.00048604747
-2.0881727e-05 -0.00028705315 0.00013463758 0.0030700164 -3.7611375e-05 0.0018915362 0.004189027 0.0006555812
0.0016717721 0.0031745133 -0.00073445233 -0.00015258742 0.002057017 0.0024985778 0.0016651311 0.0012405982
0.0005633973 -0.00030532322 0.00016745958 -0.00037070265 0.00044321246 -0.00094456103 0.0008762619 -0.0009781985
8.392661e-06 0.00053181325 0.00090730144 0.00082116236 -0.00049225957 -0.0015068337 -0.0011818996 0.00041730484
-0.0010707059 -0.0015824548 -0.0015423277 -0.0009989098 0.00081824965 0.0007633181 -0.0031486724 -0.0012356477
-0.0011525195 -0.00017426537 0.0014490051 -0.0008618576 -0.003265346 -4.561391e-05 -0.00083411584 -0.001046218
-6.760443e-05 0.00013920675 1.4005217e-05 0.0050379876 -0.00028470164 5.1185005e-05 0.0011172444 -6.316068e-05
8.21495e-05 3.3167585e-06 -1.0955867e-05 4.213435e-05 0.00011298627 0.000121448014 -0.00043383628 9.405061e-05
-0.00010520909 3.478748e-05 -2.044697e-05 -9.594382e-05 4.00533e-05 -0.0003311267 -0.0022696953 0.00019410673
-0.00019348743 0.001934167 1.3441677e-05 7.749367e-05 -2.324955e-05 0.0003644524 -0.00019942544 0.00015878868
-0.0010456995 -0.00047971707 0.0012171301 0.004101673 -0.0022598598 0.00011906608 -0.004345628 0.004059168
0.00032735235 -5.991251e-05 -1.7840961e-05 0.0008989936 -0.0011349648 0.0015634069 0.001096339 8.888267e-05
-0.00060493604 0.0010108962 -0.000105695435 -0.0007623271 3.9305756e-05 0.00012652512 0.0013088917 0.0007756815
-0.00042278363 0.0009892782 -0.0016113711 0.0018282479 4.680097e-05 -0.00058157986 0.00065932365 0.0011777962
00000000: abe6 0339 0a27 c5b8 08f5 b339 2c98 b4ba
00000010: e5f7 9fb9 d99b 0037 faa9 17ba 9e0e 34ba
00000020: c6bd e938 0246 7f38 ed0e 1e39 5a02 d939
00000030: 6587 783a f925 6b39 61e0 4eb9 b0fb 4339
00000040: f3d8 a039 4ebb ec38 b520 633a 06bf b6b8
00000050: 93d5 2539 a6cd 95b9 a829 f43a 43aa 36ba
00000060: 9d20 4339 585e e33a df7f dc38 e8bd 7db8
00000070: 9e06 e1b9 10df fcb8 f196 7d39 f7f3 e6b9
00000080: dd10 80b9 c3bb 90b9 0678 d1b9 d060 3b39
00000090: ec5d edb9 0dec 0eba a671 9a3a a47e e539
000000a0: 8d83 8cb9 62b8 e9b8 c846 65ba b19a 8cba
000000b0: e1b5 b9b9 d13f 24b9 9317 e0b9 6663 75b8
000000c0: 292e 1aba df58 27b9 add0 d9b8 374d bcb8
000000d0: 50e5 1a3a 866e 82ba ede4 35bb ca82 593a
000000e0: 7749 10ba c6a8 66b8 763b bdb8 2b3c f9b9
000000f0: 0e50 243a a597 5439 0187 a2b9 9180 4937
00000100: 8414 f0b9 57a1 59b9 8f06 043a 198f a93a
00000110: ac3b 17ba b4a1 0e39 888b 913a 4a36 4c3a
00000120: 2b2d 6138 91aa ceb9 ce34 473a d341 4a3a
00000130: cec1 d53a 3554 4939 7f44 343a c7b2 3537
00000140: cb9f 5d39 0801 c538 d728 8eb9 9586 b139
00000150: 5e80 1d39 a2bc 553a b410 123a d723 4e39
00000160: af1c 0638 3f38 0c3a 5a58 34ba c097 463a
00000170: c7da c7b9 550d b7b9 659e b438 4ed1 d2b9
00000180: 7720 d337 3969 a0b5 d519 9fb7 e2a4 ed38
00000190: 7449 f037 44bf b6b6 0801 9739 7f76 91b7
000001a0: fe90 0eb4 6daa 0036 9b25 a138 9b73 3735
000001b0: a55d 0eb8 cf99 0db8 0a92 b237 b931 4fb7
000001c0: 1765 fcb7 f734 0038 b4a4 21b7 8cd5 adb7
000001d0: 69d1 21b7 a8f9 01b7 0a6b 35b8 fe0f ae37
000001e0: eefe f037 8ba1 1539 943b 4739 9f4c 3637
000001f0: 23e6 6eb8 4343 aeb7 5b3e a9b8 900a cd37
00000200: 5f81 5b3a 62e8 8e3a 1644 60b9 52d6 59bb
00000210: ab72 813b d89d 30ba 11b7 95b9 0521 bbba
00000220: ac19 863a cb84 00ba 0326 bc3a 33b9 d9b4
00000230: 8feb c2b8 97c9 d4ba d729 323b 30d4 feb9
00000240: 2b2b afb7 9f7f 96b9 802d 0d39 5432 493b
00000250: e8c0 1db8 6ced f73a 1b44 893b 4fdb 2b3a
00000260: 5d1f db3a 7f0b 503b 4388 40ba e0ff 1fb9
00000270: 05cf 063b 2ebf 233b 8740 da3a 919b a23a
00000280: f4b0 133a ca13 a0b9 1798 2f39 de5a c2b9
00000290: f85e e839 6b9c 77ba f1b4 653a e536 80ba
000002a0: 34ce 0c37 6269 0b3a f8d7 6d3a 4643 573a
000002b0: fb0a 01ba f380 c5ba f8e9 9aba b5c9 da39
000002c0: ee56 8cba 5f6a cfba ee27 caba daed 82ba
000002d0: ce7f 563a 6919 483a f559 4ebb 75f5 a1ba
000002e0: 2310 97ba 01bb 36b9 8bec bd3a 49ee 61ba
000002f0: 6aff 55bb 9051 3fb8 91a8 5aba 4021 89ba
00000300: dac6 8db8 07f8 1139 f3f7 6a37 b415 a53b
00000310: 0244 95b9 7baf 5638 8070 923a 2275 84b8
00000320: ad47 ac38 7a95 5e36 17cf 37b7 6ab9 3038
00000330: 0bf3 ec38 e8b1 fe38 8574 e3b9 093d c538
00000340: b3a3 dcb8 c6e8 1138 8985 abb7 7235 c9b8
00000350: e7fe 2738 139b adb9 2bbf 14bb 2189 4b39
00000360: e3e2 4ab9 e083 fd3a 9083 6137 1984 a238
00000370: 0708 c3b7 f913 bf39 dc1c 51b9 8380 2639
00000380: da0f 89ba 8982 fbb9 1c88 9f3a 5467 863b
00000390: 281a 14bb 1db3 f938 c565 8ebb c502 853b
000003a0: 7da0 ab39 914a 7bb8 2ca9 95b7 70aa 6b3a
000003b0: 19c3 94ba 3beb cc3a 08b3 8f3a 8566 ba38
000003c0: 9294 1eba 0c80 843a cea8 ddb8 e8d6 47ba
000003d0: 3cdc 2438 d4ab 0439 1e8f ab3a 1b57 4b3a
000003e0: 0fa9 ddb9 abaa 813a a434 d3ba d2a1 ef3a
000003f0: 294c 4438 2a75 18ba 76d6 2c3a 4860 9a3a

convs.3.fcn.bias f4 [32]
-0.00078329333 0.0015853244 0.000712566 -0.00029253867 0.0018143234 0.0030829068 -0.0007169591 -0.0038396877
-0.00063549844 -0.001372184 0.0014968235 0.002385885 -7.924035e-05 -0.0030001623 0.0003374348 -0.000116837
-0.0032442464 -0.0012571472 0.006329592 0.0027640478 0.0013331559 0.003224775 0.00042838452 0.0021448806
-0.0006346107 -0.0006624269 -0.0023815327 -0.0025033038 0.0011982771 0.0024087296 0.0018319295 -0.0007667149
00000000: ed55 4dba a9ca cf3a 7fcb 3a3a e05f 99b9
00000010: 97ce ed3a 980a 4a3b 50f2 3bba 45a3 7bbb
00000020: 9497 26ba dbda b3ba 1031 c43a 825c 1c3b
00000030: d72d a6b8 5f9e 44bb bbe9 b039 6306 f5b8
00000040: 6c9d 54bb dcc6 a4ba 7768 cf3b 0725 353b
00000050: 4abd ae3a bf56 533b cc98 e039 2091 0c3b
00000060: 015c 26ba b7a6 2dba 7d13 1cbb 780e 24bb
00000070: 820f 9d3a c7db 1d3b 5b1d f03a 5efd 48ba

convs.4.deg_coeff f4 [2]
0.03651806 0.052616797
00000000: f693 153d b684 573d

convs.4.coeff f4 [3]
-1.0282407 -1.0081046 2.0173478
00000000: 649d 83bf 9209 81bf 3a1c 0140

convs.4.fcn.weight f4 [5, 32]
0.19949898 -0.22190809 0.3070992 -0.003981525 -0.30073515 -0.21993671 -0.008212543 0.4485381
0.15834218 0.24562657 -0.39765102 0.16183643 0.6614227 0.5056648 0.20305556 0.11370913
0.77880424 0.6039788 0.28650498 0.3232032 0.09051283 -0.05007313 -0.0020939521 -0.37174422
0.42336386 -0.038346462 0.0137116695 -0.24397503 -0.66091144 0.27408776 0.73901165 -0.5544461
0.024229642 0.09898466 -0.14674231 0.007344865 -0.4958624 0.7570795 -0.0024744 -0.52734405
0.0047703977 -0.019644747 -0.6462063 -0.13963485 -0.20068453 -0.52874935 -0.49784577 0.031145837
-0.16116698 -0.14735718 -0.1546709 -0.47390056 0.027340645 -0.4111887 0.009945948 -0.4578911
-0.342237 0.017880257 0.7197851 -0.52545804 -0.6722717 -0.34224665 -0.122371815 -0.6362891
0.017775003 -0.19611022 0.12227874 0.0027258361 0.67907965 0.36562166 -0.009376447 -0.34398803
0.0383976 0.04128579 1.0004466 0.66777414 -0.09716926 -0.7201448 0.17282349 0.014333599
-0.09542722 -0.18641742 0.3217862 0.39344394 0.0781942 1.0365709 0.0027771431 -0.5683552
0.3805605 -0.03933512 -0.12230012 0.32433245 0.35945654 -0.43578422 -0.10459218 0.096183196
-0.068302326 -0.06804195 0.06641329 0.010781614 -0.585924 -0.3329968 -0.002897976 0.95852816
-0.06826791 -0.08767497 0.55178 0.022040414 -0.056303162 0.8612993 -0.3819051 -0.048548587
-0.2474486 -0.0024830247 -0.41535187 -0.48916596 -0.03362229 -0.075881846 0.011294536 0.7010908
-0.36168167 -0.00075491687 -0.29563367 0.85997957 0.52992886 -0.3422819 -0.21667491 0.5803761
-0.19819677 0.38762388 -0.35090387 0.010734023 0.71718866 -0.5708724 0.0035630881 -0.54354626
-0.1462656 -0.18639432 -0.5012173 -0.7059253 -0.30081397 -0.14589988 0.5468437 -0.13305242
-0.26448563 -0.265894 -0.030118775 0.2813902 -0.16999845 -0.5103992 0.0149100525 0.6881433
-0.08956371 0.051587168 -0.33388093 -0.4176456 0.47483346 0.8536287 -0.27566478 0.5281272
00000000: 7649 4c3e e03b 63be 1b3c 9d3e 7477 82bb
00000010: f5f9 99be 1737 61be e78d 06bc c9a6 e53e
00000020: 7424 223e 8885 7b3e ea98 cbbe 73b8 253e
00000030: 0053 293f 4073 013f cced 4f3e 55e0 e83d
00000040: b75f 473f 5b9e 1a3f c8b0 923e e47a a53e
00000050: ca5e b93d 7b19 4dbd b03a 09bb 4255 bebe
00000060: 26c3 d83e 2e11 1dbd e9a6 603c 97d4 79be
00000070: 7e31 29bf 3b55 8c3e de2f 3d3f 2ef0 0dbf
00000080: 3e7d c63c 78b8 ca3d 9e43 16be 31ad f03b
00000090: ade1 fdbe f6cf 413f 8b29 22bb 0500 07bf
000000a0: ff50 9c3b 05ee a0bc c76d 25bf 70fc 0ebe
000000b0: 3f80 4dbe 1e5c 07bf a4e5 febe 8e25 ff3c
000000c0: f508 25be cde4 16be 0c62 1ebe 18a3 f2be
000000d0: 7df9 df3c 5387 d2be 54f4 223c b470 eabe
000000e0: b039 afbe 9e79 923c d643 383f 6b84 06bf
000000f0: 001a 2cbf f43a afbe 139e fabd d8e3 22bf
00000100: e29c 913c 1ed1 48be 476d fa3d f1a3 323b
00000110: 2ad8 2d3f c332 bb3e ab9f 19bc 331f b0be
00000120: cd46 1d3d 4a1b 293d a20e 803f 3ff3 2a3f
00000130: ad00 c7bd 695b 38bf a4f8 303e 79d7 6a3c
00000140: 596f c3bd 35e4 3ebe 29c1 a43e 7c71 c93e
00000150: 4824 a03d 5bae 843f bb00 363b ba7f 11bf
00000160: d3d8 c23e dd1d 21bd 7c78 fabd e70e a63e
00000170: b00a b83e 1c1f dfbe 6d34 d6bd b2fb c43d
00000180: 17e2 8bbd 9459 8bbd b103 883d 5ea5 303c
00000190: 1eff 15bf 8e7e aabe f8eb 3dbb 1a62 753f
000001a0: 0cd0 8bbd ef8e b3bd 7441 0d3f 198e b43c
000001b0: 259e 66bd 1c7e 5c3f 1189 c3be e2da 46bd
000001c0: 2a63 7dbe 3eba 22bb 00a9 d4be f673 fabe
000001d0: 87b7 09bd f167 9bbd b80c 393c b07a 333f
000001e0: 572e b9be 9de5 45ba 4c5d 97be 9f27 5c3f
000001f0: 6ba9 073f 933f afbe 07e0 5dbe 8793 143f
00000200: 18f4 4abe a376 c63e aca9 b3be c1dd 2f3c
00000210: ad99 373f b224 12bf b382 693b d925 0bbf
00000220: a6c6 15be 27de 3ebe c74f 00bf 85b7 34bf
00000230: 4a04 9abe c766 15be f3fd 0b3f e53e 08be
00000240: a96a 87be 4223 88be a6bb f6bc 6012 903e
00000250: 1314 2ebe 86a9 02bf 4b49 743c 292a 303f
00000260: 2e6d b7bd 114d 533d 71f2 aabe a5d5 d5be
00000270: 5f1d f33e 6987 5a3f ef23 8dbe 5833 073f

convs.4.fcn.bias f4 [5]
0.09400201 -0.007700178 0.013467234 -0.052624077 -0.14463139
00000000: 2084 c03d c651 fcbb aca5 5c3c 588c 57bd
00000010: 401a 14be

fcn.weight f4 [32, 2325]
0.00068144634 -0.00011308263 0.0049242754 0.006034707 -0.0012654051 -0.0023462765 -0.00370946 -0.0032973636
0.0038368613 8.044909e-06 -0.009169773 -0.0034485515 -0.0013524736 -0.0027294988 -0.002178077 -0.002326814
-0.0021695958 -0.009484667 0.007632424 -0.0040662326 -0.0013518244 -0.0028885917 -0.011509539 -0.0028176676
0.010009825 -0.001480208 -0.0008769772 -0.001865567 -0.0016081166 -0.0061557367 -0.0045212437 0.0001268352
0.009620284 -0.0029376396 0.0012059978 0.014157925 -0.008238952 0.0012385983 -0.0010203824 -0.0028884017
-0.00057910645 -0.010135294 0.0023864976 0.010152566 0.001204414 -0.0058825794 0.0030444388 -0.002567797
-0.003993826 -0.011711589 -0.00043857493 -0.0020703343 -0.001377873 -0.004562564 -0.0024250222 0.00053494785
-0.0060761105 -0.0025569869 -0.024321795 -0.0026678906 -0.008253113 0.005453096 -0.00090843707 9.295124e-05
-3.386395e-05 0.0049280412 -0.0012476142 1.43585e-06 -0.00076626916 -0.0094853295 -0.0011406195 -0.0003981122
3.532175e-11 -0.002640231 0.009275973 -0.00048948993 -0.0030259644 -0.00057094224 0.0048058047 -0.0036083795
-0.0050393636 -0.004238042 0.000499942 -0.0043030186 -0.0007951512 -0.0020741394 0.007733683 0.0007782169
0.0022079642 -0.0010190547 0.0012921034 -0.011464866 -0.00859453 -0.003191771 -0.00010360537 0.031673037
0.014241774 -0.0010228093 0.007582995 -0.001153174 -0.002332865 -0.0029697586 0.0022805487 0.0026899374
0.0002525626 -0.005063013 -0.007239452 -0.0029441114 -0.0042145997 0.0010756119 -0.0012290566 -0.0028715192
-4.2839943e-11 -0.003709704 0.0003405142 -0.016045073 -0.0015708127 1.2196867e-05 -0.0004700011 -0.0028751486
-0.012931908 -0.001504657 -0.0038652008 0.009496106 -0.003810022 -0.0009601239 0.00013401156 -0.0038514053
-0.0049096933 0.0073937643 -0.0017729693 -0.00010510187 -0.0020701876 -0.009166341 0.0023760179 -0.0011676179
-0.006679719 -2.4165365e-05 -0.00073454157 -0.0002856696 -0.0010390605 0.0010409115 -0.006227096 0.000650155
-0.0008468151 -0.0026718273 -0.0014726033 -0.0016969268 -0.0020654628 0.0020570771 -0.00074643217 -0.0020712127
-0.0008112281 0.0034254396 -0.01000542 -0.00950411 -0.0030446171 -4.1006784e-05 4.2565045e-11 -0.0047923448
-0.0018180124 -0.0035867086 -0.0012443427 -0.0034722083 -0.0072971485 0.0015062604 -5.393748e-07 -0.004096178
0.00086990546 0.0058058314 -0.0016511412 -0.00018506387 -0.00011070304 -0.0024554632 -0.0031854995 -0.003375855
-0.003987723 0.0032185111 -0.012688254 0.0080413595 0.0004604315 -0.0025661036 -0.010957179 -0.0008087314
-0.00083406863 -0.005797802 0.00057448517 -0.0036533095 0.0023732001 -0.0022908768 -0.0026187715 -0.0051171547
0.0011750363 -0.009664068 -0.001149226 -0.005993452 -0.0019657395 -8.721154e-11 -0.021867331 -0.013129389
0.0013870752 -0.003992606 -0.005335239 -0.00021509393 0.018844591 -0.0021347797 0.0034199494 -0.016246147
-0.004564561 -0.004000145 -0.000102938415 -0.0019888184 0.00010282846 -0.0038079852 0.0029985793 2.5941485e-05
0.00093548687 0.0010546366 -0.0027308948 0.00024742735 -0.0025482234 -0.000375106 0.0032751702 -0.0023267232
-0.0012529038 -0.003739755 -0.0032371415 0.0011296475 -0.0038822736 -0.0017500647 -0.00076373067 -0.0045053395
-5.6969773e-11 -6.94177e-05 -0.0031868394 0.00884083 -0.0011145663 -0.0047887233 -0.000523192 -0.013289506
-0.00036266726 -0.00022519831 -0.0014677752 -0.0036207044 -0.0016173135 -0.00039468642 0.0102258595 0.00087876426
0.00014756845 0.0054821144 -0.0048590573 -0.0013488585 -0.0029963197 -0.0004682959 -0.0022197734 -0.0033652706
00000000: 17a3 323a c626 edb8 d15b a13b cbbe c53b
00000010: f3db a5ba fdc3 19bb 691a 73bb 9518 58bb
00000020: da73 7b3b 9ff8 0637 d13c 16bc 1801 62bb
00000030: 7c45 b1ba 64e1 32bb 11be 0ebb 767d 18bb
00000040: c72f 0ebb 9465 1bbc 6a19 fa3b 083e 85bb
00000050: b32f b1ba 874e 3dbb 8192 3cbc 9ea8 38bb
00000060: 4000 243c 8a03 c2ba f2e4 65ba 0b86 f4ba
00000070: 70c7 d2ba 10b6 c9bb f126 94bb 11ff 0439
00000080: 659e 1d3c 6a85 40bb 9212 9e3a a4f6 673c
00000090: abfc 06bc 7658 a23a 5abe 85ba 574b 3dbb
000000a0: 2dcf 17ba 810e 26bc c966 1c3b f356 263c
000000b0: 6ddd 9d3a a7c2 c0bb 3585 473b 7c48 28bb
000000c0: a4de 82bb f7e1 3fbc 88f0 e5b9 72ae 07bb
000000d0: bf99 b4ba 9081 95bb 1fed 1ebb be3b 0c3a
000000e0: 1c1a c7bb 1f93 27bb 803e c7bc c7d7 2ebb
000000f0: 1138 07bc e2af b23b 2e24 6eba d1ee c238
00000100: 2409 0eb8 687b a13b fc86 a3ba 6eb7 c035
00000110: 74df 48ba 5b68 1bbc d780 95ba b7b9 d0b9
00000120: c158 1b2e ba07 2dbb 40fa 173c 1d51 00ba
00000130: 424f 46bb 49ab 15ba 037a 9d3b 907a 6cbb
00000140: 3f21 a5bb 46df 8abb 8a0e 033a 5600 8dbb
00000150: b271 50ba 49ee 07bb d66a fd3b 4101 4c3a
00000160: 7eb3 103b cd91 85ba cc5b a93a 22d7 3bbc
00000170: 12d0 0cbc 082d 51bb b646 d9b8 96bb 013d
00000180: 5456 693c c90f 86ba c67a f83b 1926 97ba
00000190: fbe2 18bb 48a0 42bb 4275 153b a949 303b
000001a0: 616a 8439 a2e7 a5bb ed38 edbb fef1 40bb
000001b0: a01a 8abb 8cfb 8c3a 4c18 a1ba 1930 3cbb
000001c0: 7d69 3cae 811e 73bb 0b87 b239 f570 83bc
000001d0: bae3 cdba 25a1 4c37 7b6a f6b9 fd6c 3cbb
000001e0: 5ae0 53bc e937 c5ba 4f4f 7dbb 8e95 1b3c
000001f0: 90b1 79bb d3b0 7bba 7485 0c39 dc67 7cbb
00000200: 7ee1 a0bb 6447 f23b fa62 e8ba 236a dcb8
00000210: fcab 07bb 6c2e 16bc f7b6 1b3b c10a 99ba
00000220: 8be1 dabb bab6 cab7 408e 40ba edc5 95b9
00000230: 1631 88ba 326f 883a ab0c ccbb 2a6f 2a3a
00000240: cdfc 5dba d319 2fbb 5e04 c1ba 6a6b deba
00000250: b75c 07bb 07d0 063b 37ac 43ba 2fbd 07bb
00000260: 99a8 54ba 577d 603b c6ed 23bc 20b7 1bbc
00000270: 3388 47bb b3fe 2bb8 fb33 3b2e 1a09 9dbb
00000280: 604a eeba fc0e 6bbb 3619 a3ba fd8d 63bb
00000290: eb1c efbb b66d c53a 8ec9 10b5 3b39 86bb
000002a0: 5e0a 643a d83e be3b 1b6b d8ba b40d 42b9
000002b0: 3e29 e8b8 d6eb 20bb d0c3 50bb 733d 5dbb
000002c0: 72ab 82bb a8ed 523b 65e2 4fbc e8bf 033c
000002d0: 1266 f139 132c 28bb bd85 33bc 0c01 54ba
000002e0: 66a5 5aba 7dfb bdbb 0c99 163a 5d6c 6fbb
000002f0: b187 1b3b 8922 16bb b29f 2bbb cead a7bb
00000300: ad03 9a3a 0a56 1ebc a0a1 96ba b864 c4bb
00000310: a3d3 00bb bbc7 bfae 1e23 b3bc a61c 57bc
00000320: 85ce b53a 68d4 82bb 3bd3 aebb d68a 61b9
00000330: f95f 9a3c a9e7 0bbb 3b21 603b a416 85bc
00000340: 5092 95bb a613 83bb a4e0 d7b8 d656 02bb
00000350: 9ca5 d738 648f 79bb d083 443b ea9c d937
00000360: 763b 753a bb3b 8a3a d0f8 32bb 23b9 8139
00000370: 1800 27bb e0a9 c4b9 3da4 563b f07b 18bb
00000380: 7a38 a4ba ad16 75bb 3926 54bb ae10 943a
00000390: be6d 7ebb 6d62 e5ba 1935 48ba 87a1 93bb
000003a0: 438e 7aae 5894 91b8 4bda 50bb 21d9 103c
000003b0: a416 92ba b9ea 9cbb d226 09ba 3abc 59bc
000003c0: 6024 beb9 3623 6cb9 5d62 c0ba 5749 6dbb
000003d0: 09fc d3ba eaed ceb9 5d8a 273c df5c 663a
000003e0: 9bbc 1a39 4fa3 b33b ba38 9fbb 2ecc b0ba
000003f0: e75d 44bb 9d85 f5b9 9e79 11bb df8b 5cbb

fcn.bias f4 [32]
0.03884637 -0.0010800593 0.028098129 -0.05624268 0.014758075 0.074167915 -0.054081228 0.032763056
0.043902952 0.03666116 0.026089985 0.040294573 0.058000896 0.03641788 0.012243132 0.035453185
0.056504067 0.03181718 0.019791767 0.022893902 0.037149142 0.022434235 -0.06515717 0.013824713
0.028414426 -0.037754465 0.07480116 0.021003133 0.018852869 0.011908039 0.051557336 0.014968696
00000000: 5f1d 1f3d c790 8dba 0c2e e63c b95e 66bd
00000010: dacb 713c 59e5 973d 4784 5dbd 8e32 063d
00000020: 95d3 333d 032a 163d aaba d53c ec0b 253d
00000030: 5992 6d3d ea2a 153d 6b97 483c 5c37 113d
00000040: cf70 673d bb52 023d 5822 a23c fe8b bb3c
00000050: b329 183d 00c8 b73c 1f71 85bd 0d81 623c
00000060: 5fc5 e83c 6da4 1abd 5a31 993d c30e ac3c
00000070: 5571 9a3c f019 433c c92d 533d 433f 753c
