GGCN/pretrained/GGCN_cornell_04_14_26_49.pt (torch, 232837 bytes, 26 tensors)

convs.0.deg_coeff f4 [2]
00000000: 815a 9b3e e9a0 1a3e
0.30342487 0.15100445

convs.0.coeff f4 [3]
00000000: 717f b0bf ad38 a4bf 9d39 b73f
-1.3788892 -1.2829796 1.4314457

convs.0.fcn.weight f4 [16, 1703]
00000000: 8e91 97b3 12a5 84ba 584d dabc 3696 d7bd
00000010: eb88 123d 117b ae3d 9cb3 df3c 1781 693c
00000020: 31fd cf3d affa 9333 d531 8abd 7fb2 d7bd
00000030: 9208 603c 889d 30bd d4ac 5db3 bbe9 febc
00000040: b10f 0d38 aef9 0f3e 6888 cb3d e9c1 f73c
00000050: 23a8 76bc d8ed 5fbd da4f bc3d e5fc 733d
00000060: b07c 82bc 3c65 3a3d 2608 3fba a4bf 0ebe
00000070: 865e e43d cd7e fd3b 3b19 743d 7a4d 1e3d
00000080: 4c58 1b3d e7b3 2abe 3e27 35bd 5869 bdba
00000090: 5986 0d3d 477f 3c3d 51f9 54bc 13e7 17b1
000000a0: 854b ebbb df26 39bb b8fb 18bd 5c1d 40b3
000000b0: 0cdd b333 64d9 3abd 5c95 6abd f1d9 0639
000000c0: cd75 00be 2e4b 66b3 cacf debd f404 edbc
000000d0: 63a6 14be c105 88bc 5f23 c5bd f906 9fba
000000e0: 8180 863d 56f8 cfbd 1902 c5b8 9af3 ea3d
000000f0: a283 f933 9944 3fb3 e395 d63b a846 ec3c
00000100: 9fd2 e83c a8fb 3b3c b27a 37bd 23f7 c4bb
00000110: 5255 a13d 6879 f333 46e4 93bd bdad 6939
00000120: 5a81 aa33 5af3 3dbe 9970 3133 d3ea d637
00000130: 98e4 463c 98e6 b73c 1ea8 963d d3da ebba
00000140: bd96 adbd 0738 943c 8a22 013c 9526 e03b
00000150: 4e8b 1e3c f65e c3b2 ee95 983c c6c0 2b3c
00000160: ea23 f5b2 5a6b 47bc 5d89 0d3e eb11 7c3b
00000170: fd5a 3f3d 689d edbd 3ffc 0e3d 875c 9a3d
00000180: 40c6 58bd 3f5f 383d 168f 833c f844 303e
00000190: da10 dfbd e897 ad32 28da c0bd 3930 91b2
000001a0: 230b ebbb 5f47 17bd 437f 033c 6b52 f633
000001b0: f034 c73b 4438 ee3d 3ffa 1c39 2670 a5b3
000001c0: f651 263d 8b68 22be ad02 9cbe aa46 08be
000001d0: 08cf 843d ca20 083d a7da 873d 89ba 393d
000001e0: b72a c4bc 98e6 eb3d c4aa 473d 3ecf 8430
000001f0: 1e2a cb3d 3dcb b6bd c24e 7e3d f857 afb9
00000200: de30 f93c a1f1 fa3c 3141 dabc 8a8b 553d
00000210: 0709 2d3c 0311 1dbe b557 d1bd e5b2 9c3c
00000220: 6ee4 5c3e 1efe f63b 12eb 8cbd 89d5 ccb8
00000230: 8013 38b3 f721 a7bc b335 eb3d 481d 773d
00000240: b88c 953d e975 243c e04f 823d d35d 153c
00000250: ffad 4ebd 3c57 9a3d f59b 203d 1f5a c63d
00000260: 181d 84be ab18 2d3d 8c28 91bd 5ec4 7b32
00000270: 59ab ce32 5ff7 453b 7679 63bc abad f832
00000280: 944b 983d 25ad 03bd b069 2bba b84d 003e
00000290: 5f54 a2bb 227e 1fb3 5f97 bf3c 23b6 003c
000002a0: edea a033 f2af ee33 dc11 4a3d f607 f23b
000002b0: 8244 cd38 e61a 25bd 17d4 9d3d 6d6b b133
000002c0: dd37 6d33 9a4e 8c3c 9156 cbbc c0ec f0b3
000002d0: ee01 d032 67ef 44be beba 3233 01d9 773b
000002e0: 2300 4b3d 715b b43d 059d fab9 63d5 b3bc
000002f0: 6cd8 433c f087 31b3 4534 513d 158d 2c39
00000300: e613 99b3 c773 003d a8e9 0e3e 6171 b6bd
00000310: 56d3 f2bd b087 bf32 8886 5a3d 7ca6 03b4
00000320: f7f4 9c3d ca53 b7bd 86de 1db3 9462 1cbc
00000330: e9ea 833d d05c b43b 8e5b 563d 2cb7 42bd
00000340: 299c aab1 7a14 01ba dcbb 56bd df50 a73c
00000350: c45e 4c33 f6dc 933c 9fba 55b2 a2c1 e23c
00000360: 03ac 41b9 4a06 943d ca92 e4bd 40b1 07be
00000370: ebd1 35be ef6e 463c 47d7 81ba 0852 123c
00000380: 351e 41b3 b87c b93d b6b9 95be df52 203d
00000390: 3537 80bd e8de c03c ef84 21bd 8a59 c331
000003a0: 9971 2d3c a501 e83b af87 5fb8 d46d d03c
000003b0: 2daf 8abd 3dba 46be 7928 c03d 743d 083d
000003c0: b60b 733c 6a7f 50b5 add4 913c 22ec 6e3d
000003d0: a9d4 d43d 05ce c2b7 8fd0 503d a2d9 adbd
000003e0: 3c17 a8bd 3c9a 4dbb d53e 04bd 1004 fb3c
000003f0: effe 1bbe 8cc1 2f3d daa2 5b33 42e1 b1bd
-7.057962e-08 -0.0010119996 -0.026648208 -0.10526697 0.035775106 0.08519567 0.027307324 0.014251969
0.10155714 6.89082e-08 -0.06747786 -0.10532092 0.013673918 -0.043118984 -5.161276e-08 -0.03111731
3.3631633e-05 0.14060089 0.09938127 0.03024383 -0.015054735 -0.054670185 0.09194918 0.05956735
-0.015928596 0.0455067 -0.0007287286 -0.13940293 0.111508414 0.007736063 0.059594374 0.038648106
0.037926003 -0.1667019 -0.044226877 -0.001445095 0.034551952 0.04601982 -0.012998895 -2.2104742e-09
-0.0071806335 -0.0028251929 -0.037349433 -4.4730186e-08 8.375545e-08 -0.045617476 -0.057271346 0.00012860425
-0.12544937 -5.3619424e-08 -0.10879476 -0.028933026 -0.14516596 -0.016604306 -0.09625887 -0.0012132815
0.06567479 -0.10154788 -9.394083e-05 0.114722446 1.161891e-07 -4.4533042e-08 0.0065486296 0.028842285
0.028420744 0.011473574 -0.044794746 -0.0060109063 0.07877602 1.1337653e-07 -0.07221274 0.00022285334
7.939771e-08 -0.18549863 4.131343e-08 2.5620137e-05 0.012139462 0.022448823 0.073562846 -0.0017994292
-0.08476017 0.018093122 0.00788177 0.006840537 0.0096767675 -2.2744171e-08 0.01862618 0.0104829725
-2.8538086e-08 -0.012171591 0.13821931 0.0038462828 0.046717633 -0.116022885 0.03490853 0.075371794
-0.05292344 0.04501271 0.01605944 0.1721381 -0.10891886 2.020893e-08 -0.0941661 -1.690215e-08
-0.0071729585 -0.0369333 0.008025947 1.14702594e-07 0.0060793087 0.116318256 0.00014970543 -7.703811e-08
0.040605508 -0.15860192 -0.3047079 -0.13308206 0.064848006 0.033234395 0.066335015 0.04534391
-0.02394615 0.11518592 0.04874684 9.663166e-10 0.099201426 -0.089254834 0.062086828 -0.00033444143
0.03041881 0.030632796 -0.026642414 0.052135028 0.010561234 -0.1533852 -0.10221807 0.019128272
0.21571514 0.0075376173 -0.068807736 -9.767252e-05 -4.2858574e-08 -0.020401938 0.11484852 0.06033066
0.073022306 0.010037878 0.06362891 0.009116608 -0.050458904 0.0753617 0.039211232 0.09685158
-0.25803447 0.042259853 -0.07087812 1.4654772e-08 2.4059476e-08 0.003020726 -0.013883939 2.8949975e-08
0.074362904 -0.032147545 -0.0006538881 0.12529647 -0.0049539055 -3.713479e-08 0.023387609 0.007855925
7.493313e-08 1.1114743e-07 0.04933344 0.007386203 9.787922e-05 -0.040308855 0.077064686 8.2617454e-08
5.523167e-08 0.017127324 -0.024821552 -1.12189355e-07 2.4215264e-08 -0.1923195 4.1613696e-08 0.0037818553
0.049560677 0.088065036 -0.00047800704 -0.021952337 0.011953454 -4.133466e-08 0.05107524 0.00016455755
-7.128237e-08 0.031360414 0.1395632 -0.08908344 -0.118567154 2.229703e-08 0.053350955 -1.2260892e-07
0.07663911 -0.08951528 -3.6756795e-08 -0.009544987 0.0644129 0.005504228 0.052333407 -0.047537968
-4.9654045e-09 -0.0004924011 -0.05242525 0.020424305 4.758364e-08 0.018049698 -1.24406645e-08 0.027680222
-0.00018469994 0.07227762 -0.1116081 -0.1325121 -0.17755859 0.01211141 -0.0009906077 0.008930691
-4.4963787e-08 0.09056991 -0.2924325 0.039141532 -0.0626053 0.02354379 -0.039433416 5.6854264e-09
0.010586166 0.007080274 -5.329371e-05 0.025442995 -0.067716934 -0.19406982 0.093827195 0.03326173
0.014834335 -7.767145e-07 0.017801607 0.058330663 0.10392124 -2.3222537e-05 0.050980147 -0.08488776
-0.082075566 -0.0031372448 -0.032286484 0.030641586 -0.15233968 0.04290919 5.1138024e-08 -0.08685543

convs.0.fcn.bias f4 [16]
00000000: ba1b 3e3c 53e2 30bc 2fa8 433c ee05 afb9
00000010: 95ab 0d3c 8c7a 833c 9d21 c53a ce12 28bb
00000020: ad0c cdbc c0ee 803c c7b9 853b 0497 00bc
00000030: 15dc 28bc de3b c1bc 32bb 1c3c 9f37 4bbc
0.01160329 -0.010796147 0.011941954 -0.0003338302 0.008646865 0.016049646 0.0015039925 -0.0025645974
-0.025030458 0.015738845 0.0040809843 -0.007848505 -0.010306378 -0.023588117 0.009566115 -0.012403398

convs.1.deg_coeff f4 [2]
00000000: 1fcb 8dbc c681 8b3d
-0.01730877 0.06811862

convs.1.coeff f4 [3]
00000000: cec7 0ebf b7e6 25bf 2056 8f3f
-0.5577363 -0.6480517 1.1198158

convs.1.fcn.weight f4 [16, 16]
00000000: d6a5 8a3e e0d8 10be 1d9d 923e ec5e 0bbd
00000010: 1756 d43d 767b 2a3e fc43 8ebd be94 92be
00000020: b7a4 293d 700b 633b 6263 123d b518 f2bd
00000030: b452 88bc 28a3 d73b 14da 113e 05a4 9e3d
00000040: 2c9a cb3d 26f9 b73e f1b0 663d cc12 b0bd
00000050: 04ff babe 329e 10bd f604 10be 8b4b c3bc
00000060: 675d b13d 44a2 913c d603 073e e342 943e
00000070: 9f8d 32b8 4e47 c63e 9daf 723d 77aa 08be
00000080: 894b 813e 0cdc 6b3d cbaf 8c3e 982c d0bd
00000090: f875 d0bc a8d2 fe3d 99a4 abbd 58ae 8cbe
000000a0: ebaf 233d e0a1 a63c c196 a63d 611c 783c
000000b0: 687c aebd 3af7 b43d 234e 613e ee44 bb3b
000000c0: 0d73 c5bd 69a8 adbd 92c1 03be e3cb 163e
000000d0: 3314 cc3d 9809 8c3d e407 0ebd 7e8d 083e
000000e0: dea0 4abd b9d6 873c c4ff b53d bdfb bc3d
000000f0: 2cd0 0abe fb44 05be fbc2 e0bd 4aeb 95bd
00000100: 4458 8a3d 523a c0be 48f4 2abd e336 383e
00000110: bac7 d23e 52b1 133e 060b aa3c 8465 143d
00000120: a8f4 9f3d 8daa 24bd 96ab 83bd b044 f1bd
00000130: 5da9 d0bc 0c69 b9be 7e35 ec3c 59bf f63d
00000140: 41be 073e 4854 dcbd e618 f63d cf3e a13d
00000150: cf84 cd3d f7e0 273e 07dd 10be 1fe6 f8bd
00000160: 1142 10bd 58a4 993d 3c36 1c3e bd54 25bc
00000170: 4974 28be d58a c0bd 9f33 c63d 6b93 ecbc
00000180: 2412 e6bd 74ee 83bd fa09 e3bd 31e2 893c
00000190: 9071 463d fbbb 0dbe 259f 423e 706f 1b3c
000001a0: 49ff f2bc a241 80bd b6e7 57be 0d44 40be
000001b0: 1c48 203e e048 a6bd 7cc5 e1bd 0269 fe3d
000001c0: 2392 97be 93ee 283e 698f 93be e8cd a23d
000001d0: 057d f0bd cbe6 1abe cd9e 913b d962 863e
000001e0: 5053 bebc d1b1 29bc f6fa d73c 92d9 f83d
000001f0: 17df bcbc f4cb 413d 6dee 1fbe 405b 3bbe
00000200: b5b2 b3b9 8214 81bb 2c27 95bb 118c d43c
00000210: 8e9d fcbb aa67 24bd 0f2d 0a3d 68f9 cdbc
00000220: cb5a 193c 0536 04bd cb2d 0fbd 7a59 05bd
00000230: 3af3 2f3d d5fe 8abc c7d1 8ebc 3149 ae3c
00000240: c1d4 333d 28af 713d 7f0f dd3c de61 7bbd
00000250: 09d1 c9bc 41ef 773d 29fd 1fbd 10fd 51bc
00000260: c758 193d 082c fd3c 00fd ad3d 2975 723d
00000270: 1077 3abd 6b8e a03d 914c 5c3d 27dd 73bd
00000280: 75c1 323e 2052 8b3d 192f f03d d8c6 b03c
00000290: 1bcc c0bd 094f 783e ab91 89be 9299 d8bd
000002a0: 198c 2abd 3470 8d3c f643 b63e b6d1 803e
000002b0: 9ca5 9fbe 33cc 973d c313 7b3e 9adf 3fbe
000002c0: e759 24bd bce6 4c3e 3735 49bb db6c 083d
000002d0: 9d86 55be 9f58 333c c16d 06be a0b0 153d
000002e0: 0ef0 f6bd 477a 283e 4dac 413e b91e f23d
000002f0: 84a4 50be 82e7 063e 40fd c63c 65fb 7dbe
00000300: 370a 4abc 7b3d 763d c00d 3a3b 79e3 31be
00000310: ec9a 2dbd 5cb2 4bbe 96c9 343e 286b 47bc
00000320: 3cd6 db3d 85df aebd d5b6 62be 6558 02be
00000330: 719b 923e 768c 513d 4741 dfbd 024a 2e3e
00000340: 138f d03b ea0d 483e de09 c33c d274 21be
00000350: 17f3 a2be 398a 1bbe bd93 313d d87f 71bc
00000360: a9ba 9bbc 2437 6b3d df5b bcbc 1178 873d
00000370: 9d02 bf3b a668 5a3e 9d56 e3bc 8cf2 7fbd
00000380: bbb5 973e caf3 84bc 4df5 863e 9b2a 00be
00000390: f3d5 673d 35cc 673e dafa 2bbe f92d 8bbe
000003a0: ce85 7b3c 9d8a a03d b989 3b3e b4da c93c
000003b0: bd8d 40be 6bab 4fbd b75a 863e 557d 41bb
000003c0: d8a4 d23d 0744 cdbd d419 d33d bfaf 99bb
000003d0: 1491 1b3e 55a2 dabc 685f 2d3e 744f b6bd
000003e0: 54ac 583d 7ce9 8abd 065f 85be 7e9e 85be
000003f0: 3458 8a3e b0f9 a0bd d6f4 a7bc d332 8d3e
0.27079648 -0.14145231 0.28635493 -0.03402607 0.10367983 0.16648659 -0.06946561 -0.28629106
0.04141685 0.0034644268 0.03573931 -0.11821119 -0.016640998 0.006580729 0.14243346 0.07746128
0.09941515 0.35932273 0.05632109 -0.08597335 -0.36522686 -0.035307117 -0.14064392 -0.023839733
0.08660393 0.01777757 0.13185057 0.2895728 -4.2570402e-05 0.38726276 0.05924951 -0.13346277
0.2525294 0.0575829 0.2747787 -0.101647556 -0.025446877 0.12442523 -0.08381004 -0.27476764
0.03996269 0.02034086 0.08134223 0.015143485 -0.08519822 0.08836217 0.22002463 0.005715004
-0.09641085 -0.08479387 -0.1286681 0.14726214 0.0996479 0.06837767 -0.034675494 0.13335225
-0.04946982 0.01658188 0.08886674 0.09227703 -0.13555974 -0.13014595 -0.109746896 -0.073202685
0.067551166 -0.37544495 -0.04173687 0.17989688 0.41168004 0.14423111 0.02075721 0.036229625
0.07810336 -0.040201712 -0.06429212 -0.11780679 -0.025471384 -0.36212957 0.0288341 0.120482154
0.1325617 -0.10758263 0.12016468 0.07873308 0.10035097 0.16394411 -0.14146815 -0.12153267
-0.035219256 0.07502049 0.15255064 -0.010091004 -0.1645061 -0.0940148 0.09677815 -0.028878888
-0.11233929 -0.06441966 -0.11085887 0.01683149 0.048448145 -0.1384124 0.19006021 0.009487018
-0.029662745 -0.062625185 -0.21084484 -0.1877596 0.15652508 -0.081193686 -0.11023995 0.124223724
-0.2960368 0.16497259 -0.2882035 0.0794943 -0.117425956 -0.15127103 0.0044439794 0.2624729
-0.023233086 -0.010357336 0.026364785 0.12150873 -0.023055596 0.047313645 -0.15618296 -0.18296528
-0.00034274688 -0.0039392123 -0.004551789 0.025945695 -0.0077092117 -0.040137924 0.033734377 -0.02514334
0.009360026 -0.03227808 -0.03495578 -0.032556035 0.04295657 -0.016967217 -0.017434014 0.021275135
0.04390407 0.059004933 0.026984928 -0.06137263 -0.024635809 0.060530905 -0.03905979 -0.012816682
0.03743818 0.030904785 0.084955215 0.059193764 -0.045523703 0.07839664 0.053783957 -0.05953708
0.1745661 0.068027735 0.11727733 0.021579191 -0.0941393 0.242489 -0.26868948 -0.10576166
-0.041637514 0.017265417 0.35598725 0.25159997 -0.31181037 0.07411995 0.24519257 -0.18737641
-0.0401248 0.20009893 -0.0030701885 0.033306938 -0.20852132 0.010946422 -0.13127805 0.036545396
-0.120575055 0.16452895 0.18913384 0.11822266 -0.20375258 0.1317425 0.02429068 -0.2480293
-0.012331537 0.060117226 0.0028389543 -0.1737193 -0.042384073 -0.19892257 0.17655024 -0.012171544
0.10734221 -0.08538727 -0.22140057 -0.12729032 0.28634217 0.051159345 -0.109011225 0.17020419
0.006364712 0.19536558 0.023808416 -0.1576722 -0.31826088 -0.15189447 0.043353785 -0.014739953
-0.019009905 0.057425633 -0.022993026 0.06614698 0.005829169 0.21328983 -0.027751261 -0.06248717
0.29630837 -0.016229529 0.26359025 -0.12516253 0.056600522 0.22636493 -0.16794911 -0.27183512
0.015351726 0.078389384 0.18314256 0.024640419 -0.18804069 -0.050700586 0.26241085 -0.0029524167
0.10285348 -0.10022741 0.10307661 -0.00469014 0.15192062 -0.026688734 0.16930926 -0.08901873
0.05289872 -0.06782815 -0.2604906 -0.26097482 0.2702042 -0.07860124 -0.020502489 0.27577838

convs.1.fcn.bias f4 [16]
00000000: a42e 833d 5a16 bf3d 56ee 81bc 7457 4f3d
00000010: f3ff 223e 9c85 023d fe10 213d a5c1 bf3d
00000020: 129e 3e3c 3215 183d 92e4 6dbd 2541 eb3b
00000030: 58fa 803c 280d 083d 0169 d83b 12ca 543b
0.0640538 0.09330435 -0.015860718 0.05062051 0.1591795 0.0318657 0.039322846 0.09363107
0.011634367 0.03712959 -0.05807931 0.0071793967 0.015744373 0.03321567 0.0066043143 0.0032469076

convs.2.deg_coeff f4 [2]
00000000: 737b 28bc ddc7 673c
-0.010283339 0.014146772

convs.2.coeff f4 [3]
00000000: 15e0 3e3c 0bfc e2bb a862 9e3b
0.011650105 -0.0069270185 0.004833538

convs.2.fcn.weight f4 [16, 16]
00000000: 1665 ea3c ff76 343c d706 af3c ac19 56bc
00000010: 6415 793a 55be a93c 63be cb3b 4a97 8dbc
00000020: 9dbe 3b3d 10fd 35bc 4ce7 ad3b 3142 d3ba
00000030: 6fb9 fb3c 1c6d 963c 5f8e bd3c 5088 8b3b
00000040: 3ad2 48bc 6dc9 c23c f33b 563c 4515 fbbc
00000050: c2d7 d4bc 376e 2ebc 88c2 903b f77e febb
00000060: 1036 ffbb bba5 413b 9d8a 063c 1197 9dbb
00000070: d2b5 84bb 75b6 d13c 7ac8 f53b 90f5 d3bb
00000080: 96e1 9d3c da26 323c bfda b63c 48a8 b0bc
00000090: 6878 85bc f39d e23b 8ef3 6c39 84a7 abbc
000000a0: 8c84 713c 3b39 923b 9d86 4a3b a5b6 9cbb
000000b0: 5d5f a13c ac95 843c 79ae be3c 631f c13b
000000c0: ea6d 08bc e404 ebbb f485 22bc 94ee 803c
000000d0: 3ba2 193c d66a bebb bcec ddbb 4754 753c
000000e0: ff38 44bc 7440 953a fb48 b73a 1fd6 3d3b
000000f0: 4bea babb 96f5 fdbb 5fee 16bc 813f fa3a
00000100: d2ae cfbc dcce 0bbd b7b7 b5bb 8729 3b3d
00000110: 5bca ad3c be1a f6bc 3670 503b 0151 903b
00000120: 2e84 05bd 6c41 d03c 8e43 57bc 9b7e c2bc
00000130: 9014 34bc 354d 14bd 3ad9 a7bc 7455 163c
00000140: e952 4e3c c1c4 ecbb c6f6 563c 9410 08bc
00000150: 7cd7 c83b 73dd 9a3c 388f 8ebb dcca 7dba
00000160: a898 59bb 6e0e 603c cf65 6f3c 11c6 f83b
00000170: 58f8 98bb bf95 d53b 589c 253c a935 eebb
00000180: bc7b ac39 f176 b8bb 49a9 9cbb 05ea e23a
00000190: 1e63 72bc f6c7 2bbc e259 113c fd44 a13b
000001a0: 4227 8f3c c238 debb 7cd4 c0bc f787 293c
000001b0: 18b3 713c 461d 2d3c 6f4e 84bb 5cae e83a
000001c0: 65a9 0fbd 4afd 18b9 ca79 9ebc f89a 453c
000001d0: 1c0a bcbc 7fe7 bfbc eaae febb 95d1 b83c
000001e0: 3761 20bd fa5d 093c 596f 2dbb 5832 433c
000001f0: 501e 0bbd 1e45 eabb 7f20 3dbc f462 b8ba
00000200: f7f1 923a 115d 15bb 28c7 2cb9 eb27 e53a
00000210: 1fff c0bb 8dd8 00bb 0318 863a 63ac e7ba
00000220: 0102 42bb be35 9d36 d20e 4dbb a41a e0ba
00000230: c602 9f3b 1df0 d2ba b886 50bb 7345 c53a
00000240: bc54 ddb8 38b3 b93b 6cf5 2a3b a130 36bc
00000250: 0bdd c3b7 0842 44bb a148 25bb 5638 613b
00000260: ba6b 8eba f452 383b dc35 83b8 4db3 2e3a
00000270: c2c5 8bbb 2248 ac3b 7e9a 823b 59d5 2ebb
00000280: cb9e bfbb f44c 1d3c 29ac 243c ef99 ae3c
00000290: d298 a73b c93e d539 259c 0abc 0940 babb
000002a0: 86e8 2ebd a7e5 8e3c 4a47 8f3c 0491 143b
000002b0: 5fad fdbc c8f4 50bc d0d9 e63b d052 2abc
000002c0: abeb d639 b00b 283c 831f 1a3b ad46 da39
000002d0: 4c82 71bc 84da 8c38 3053 17bc 5edc 43bb
000002e0: 8cf8 71bc 5654 403c 2ec1 373c 4739 643c
000002f0: 556a d3bc 3f51 f5ba 7318 b03b 5c3b 9dbb
00000300: f240 283c 8d7c 1e3c 2a3e c0b9 90ea bcb9
00000310: 80e4 7abc 9cb4 553b 9fac 833b e65a aebb
00000320: f3b6 6f3c 0603 83bc d34d 11bc 9ed8 37bb
00000330: 8680 043d 038b 843c 00d4 6eba bb7a 9e3a
00000340: e178 263b e862 953c d3ff 723c 7f6b 1dbd
00000350: 65ae f6bc 599f 9dbc 8691 b93a 3df0 11bc
00000360: ff5e 393c 455c 7ebb 5004 a33b 0b3f 47bb
00000370: 364a 0a3b b1ab 013d 8e8a 8a3c b8b3 d1bb
00000380: 417c 5a3c 72bb 793a 960f a63c d433 f1ba
00000390: f1c1 e03b 0c72 8e3c 7c96 14bc 02ae 8ebc
000003a0: abdf b3bb 893f e43b 5f0d 6b3c 5890 de3b
000003b0: 9832 0ebc f4c5 e23a 902a 0d3c aa99 1ebc
000003c0: 9154 b63c 04d0 3bbb 794b ab3b 8865 663b
000003d0: 09fd 613c aa3e 393c 208a 863b e272 4ebb
000003e0: 4928 383d 8569 48bc d190 d5bb 283f 923b
000003f0: 121b b53c 6512 373c d675 043c c276 39bb
0.028612655 0.011014699 0.021365566 -0.013067644 0.00095017836 0.02072064 0.006217764 -0.017284054
0.04583608 -0.011107698 0.0053071138 -0.0016117749 0.03072807 0.018362574 0.023139177 0.004258193
-0.012257153 0.023777688 0.013075816 -0.03064979 -0.025981788 -0.010646394 0.004417721 -0.0077666
-0.007788427 0.0029548246 0.008211759 -0.0048092683 -0.004049995 0.025599698 0.0075007053 -0.0064684823
0.019272607 0.010873521 0.022321103 -0.021564618 -0.016292766 0.0069158017 0.00022597445 -0.020953901
0.014741074 0.004462389 0.003090299 -0.004782515 0.019698793 0.01618465 0.023276554 0.005893634
-0.008326987 -0.007172214 -0.009919632 0.015738763 0.009377058 -0.0058110757 -0.0067726057 0.014973707
-0.01197648 0.0011387006 0.0013983542 0.0028966737 -0.0057041994 -0.0077502234 -0.009212106 0.0019092412
-0.025351916 -0.034132823 -0.005545582 0.0456939 0.021214655 -0.030042049 0.0031805164 0.0044041877
-0.03259676 0.02542182 -0.013138665 -0.02374201 -0.010991231 -0.036206443 -0.020489324 0.009175647
0.0125930095 -0.0072256033 0.013120359 -0.008304734 0.0061292034 0.018904423 -0.004350569 -0.00096814125
-0.0033202562 0.013675315 0.014611675 0.0075919707 -0.0046682768 0.0065180953 0.010108076 -0.0072695804
0.00032898586 -0.0056294133 -0.0047809226 0.0017312175 -0.014794139 -0.010484686 0.008871527 0.004921554
0.017474774 -0.0067816684 -0.02353882 0.010347358 0.014752172 0.010566061 -0.0040376703 0.0017752158
-0.035073657 -0.00014590207 -0.019345183 0.012060873 -0.02295404 -0.023425816 -0.007772316 0.022560874
-0.03915521 0.008384222 -0.0026464073 0.011913858 -0.033964455 -0.0071493527 -0.011543392 -0.0014067576
0.0011211027 -0.0022791068 -0.0001647739 0.001748321 -0.005889788 -0.0019660324 0.0010230545 -0.0017675277
-0.0029603245 4.685221e-06 -0.0031289351 -0.0017097783 0.0048526255 -0.0016093288 -0.003181858 0.0015050605
-0.00010553884 0.0056671165 0.0026086224 -0.0111199925 -2.3348743e-05 -0.0029946584 -0.0025220292 0.0034365854
-0.0010865845 0.0028125616 -6.256599e-05 0.0006664291 -0.004265518 0.0052576223 0.003985702 -0.0026677458
-0.005847787 0.009600867 0.010050812 0.021313636 0.005114653 0.00040673304 -0.008460079 -0.005683903
-0.04270222 0.017443491 0.017490048 0.0022669444 -0.030966459 -0.012753673 0.0070450082 -0.010395721
0.00040992847 0.010256693 0.0023517318 0.00041632858 -0.014740538 6.716422e-05 -0.009236142 -0.0029885988
-0.014768731 0.011738857 0.011215491 0.013929672 -0.025807539 -0.001871623 0.0053740083 -0.004798336
0.01026939 0.00967325 -0.0003666741 -0.00036032917 -0.015313268 0.0032608872 0.004018381 -0.0053208945
0.014631021 -0.015992653 -0.008868652 -0.0028052698 0.032349132 0.016179567 -0.000911057 0.001209102
0.002540164 0.018235639 0.014831501 -0.038432594 -0.030112455 -0.019241022 0.0014157749 -0.008907375
0.011314153 -0.003881232 0.0049748793 -0.0030402567 0.0021101362 0.03165788 0.016911771 -0.006399598
0.0133352885 0.0009526528 0.020271104 -0.0018402287 0.006859057 0.017388366 -0.009069081 -0.017416958
-0.00548931 0.006965582 0.01434645 0.0067921095 -0.008679055 0.0017301426 0.008616105 -0.009680191
0.022257121 -0.0028657923 0.005227503 0.0035155732 0.013793238 0.011306444 0.0041058213 -0.003150158
0.044960294 -0.012232189 -0.0065175076 0.004463095 0.022107635 0.011173819 0.008084735 -0.0028299545

convs.2.fcn.bias f4 [16]
00000000: 699f 6f3d ddd3 aa3c ba2f 3c3c 1b01 73bd
00000010: de2e 44bd 3523 07bd 0434 8e3c fa07 5bbd
00000020: 5ee6 273c c71e 40bc 5752 67bd 36d2 e2bc
00000030: 8500 463d e434 5f39 6a75 a4bc 026d 813d
0.058501635 0.020852977 0.011485988 -0.059327226 -0.04789626 -0.03299256 0.017358787 -0.053474404
0.010247795 -0.011726088 -0.05647501 -0.027688127 0.04834034 0.0002128664 -0.020075519 0.0631962

convs.3.deg_coeff f4 [2]
00000000: 1654 72bb b92d 95ba
-0.0036976389 -0.0011381424

convs.3.coeff f4 [3]
00000000: 554c d4ba 37ab 91b8 49b0 01ba
-0.0016197065 -6.94603e-05 -0.0004947228

convs.3.fcn.weight f4 [16, 16]
00000000: 3762 ea3b 36be b8bb e38c ab3b ae57 a0bb
00000010: d766 69bb 06c2 693b e94e 083b ca22 c9bb
00000020: fffd 4d3c 513d 633a 5598 a83b 3c86 96bb
00000030: 5542 953a eba4 ed3b ec23 093c 7661 58bb
00000040: 1b2b f23a bd83 c43c b25e 0e3c eaa2 c8bc
00000050: 9c2b 98bc 173f a23a 5419 ecbb 12b5 b63a
00000060: a01f 6939 09ca 9a3b d708 f73b bf68 4c3c
00000070: 41df 1c3b 2805 b73c 8270 3d3c ae4d 41bb
00000080: 128f 373c da2e 053c 747d 923c 95bc 4fbc
00000090: f87c 59bc 1e37 1e3c 7f34 babb b306 c8bb
000000a0: b4eb 243c 8aff 94b9 8008 ea3b 1cf5 b43b
000000b0: 7830 493b 4233 403c 5975 0e3c 73e2 c8bb
000000c0: 3a26 4cbb b37f d0ba d7f1 05bc f5d4 0d3c
000000d0: 2065 b03b c999 183c f9dd cdba 3e9b 873c
000000e0: c791 673a 8e2d ccba 6cf3 9e3a cecf a13b
000000f0: 498b 14bb 3f65 0abb b785 47bc 48b0 e1ba
00000100: 7310 c93b 27cb f0bc 9492 28bc 5f13 c63c
00000110: 85b4 623c 7e01 2a3b fe61 073c 4c07 7cb9
00000120: b23d 713b 0254 4d3a 247f 40b9 c7c5 02bc
00000130: 22f0 a5bb 6079 abbc 1928 f0bb 8c63 ea3b
00000140: bc10 bf3b 1e2a e63b 8dad 963a c947 ee3a
00000150: bcf1 9c3b 9f52 fc3b c3c6 cfbb 59b1 a53b
00000160: 1336 a63c c585 25ba 96e4 423c 3f99 3d3c
00000170: d3ce c43b fa5a 3a3c 7940 7f3b 0da2 75b9
00000180: a57f 0f3c 8ddb 173a cbfb 53bb d3a7 d6bb
00000190: 9ed4 c43b eef7 743c 8f7e 543b b210 893b
000001a0: ea78 8b3c c901 98bc f86e e4bb a874 b93b
000001b0: d662 743c fe08 a13b 0f01 86ba d1fe 6138
000001c0: ad84 cfbb c5c7 0f3b 69bf 1abb 1f0a ebbb
000001d0: 6dfa 4dbb 84cb 993b b216 91bb 9825 013c
000001e0: 0502 71bc 0075 95bb d2d8 dbba 583e 793c
000001f0: ab7b bfbb 1e47 a03b 57fa 4b3b af79 ad3b
00000200: f2df 3c3a 87bb 44ba afec beba 05bb e239
00000210: a95b d539 40e0 ac39 d4c6 c83a 5aa7 8dba
00000220: 99e3 7fba b2a6 e4ba 556e afba 6527 81ba
00000230: 216e 953a 0f62 2dbb bca1 013a 3c6e f9ba
00000240: 85e1 123b ee35 083b 6a98 383b 70bd 71bb
00000250: da50 95b9 1aa2 1dbb a311 6ab9 e69b bfb9
00000260: 991f 83ba 2968 09ba 57a0 853a b1b0 8c3a
00000270: 2d16 b0bb 64f5 243b 9820 963a a6e9 00bb
00000280: c614 723c 213f c03c 50b7 bf3b 9e96 13bd
00000290: 59ac eabb 4500 013d 6b14 71bc e5de 0e3c
000002a0: 9b01 293d dafd 85bc 8266 8f3c 5b6b 073d
000002b0: 21ab 903b e0d8 173d a4d7 723c 7ba5 d0bb
000002c0: 8d4d b7bb 350b 283c b0e3 acba a395 393a
000002d0: e126 5ebb c9b2 86bb c3ad 9abb 07f0 4c3b
000002e0: 77c7 07bc 1e08 3f3c 84f6 fa3a 9bd5 29ba
000002f0: f097 97bc 7bdc 6fbb 6c99 edba 2629 0ebb
00000300: f711 313b bd3c b7b8 01e7 65bb d29c ecbb
00000310: 5827 83ba 3765 803b 029c 933b e5e0 64bb
00000320: 4f53 c13a 6f9a 9ebb c3ee 94bb 478b bb3b
00000330: 35e8 633c 568b d43b 4f75 33bb 162e 0d3b
00000340: 08dc 523b a9a0 ff3b a5dd 5b3c ae94 a7bc
00000350: 3461 debb 8196 e8bb fc2c 65b9 9c45 27bc
00000360: 8c1d 553b 28b9 913a 32f7 4fba 318f 0c3b
00000370: c64c 8aba 4d6f 583c a771 183c 8db2 11bb
00000380: 2ce2 993b 6455 b3bb 6ffe 203c 7d94 d83b
00000390: ce76 d83b 976f cabb 9ecb 2c3c bd13 8abc
000003a0: 0bbb 34bb 8725 fd3b 4460 8cba 49b9 c5bb
000003b0: dde1 20bc e6fb 16bc 077d 123c 2cc9 623c
000003c0: c2df 8a3b 7d34 60bc 135a 21bb f9bc de3b
000003d0: 307c 9c3a 1399 fcb9 8eee be3b 1c91 4fbc
000003e0: e8f1 953b 0d5e fabb b519 11bc c791 81bb
000003f0: 8f3d 423c 34b5 9ebb a4e4 bf3b 5f2c 053c
0.0071528214 -0.0056379093 0.005235301 -0.0048932647 -0.0035614276 0.0035668625 0.0020798987 -0.0061381804
0.012572764 0.00086684996 0.0051451125 -0.0045936387 0.0011387566 0.007252326 0.008370381 -0.0033017076
0.0018475981 0.023988599 0.008689569 -0.024491746 -0.018575482 0.0012378421 -0.007205168 0.0013939461
0.00022232393 0.0047237915 0.0075388956 0.012476145 0.002393678 0.022341326 0.0115624685 -0.0029495764
0.011203544 0.008128846 0.017882086 -0.012679239 -0.013274424 0.009656696 -0.0056825276 -0.0061043142
0.010065962 -0.0002841915 0.0071421266 0.0055223834 0.0030699056 0.011730971 0.00869497 -0.0061305105
-0.0031150714 -0.0015907198 -0.008175335 0.00865673 0.005383149 0.009314009 -0.0015706412 0.016553517
0.0008833673 -0.0015577541 0.0012126989 0.0049381023 -0.0022666028 -0.0021117476 -0.012177876 -0.0017218674
0.006135994 -0.029393746 -0.010288853 0.024179159 0.0138369845 0.002594083 0.008263109 -0.00024035311
0.0036810455 0.00078326475 -0.0001835791 -0.007981724 -0.0050640265 -0.0209319 -0.0073289988 0.00715298
0.0058308523 0.0070240637 0.0011495814 0.0018179353 0.004789559 0.007700279 -0.006340833 0.005056542
0.020289456 -0.00063141837 0.011895319 0.011572181 0.0060061007 0.01137423 0.003894834 -0.0002342539
0.00875846 0.00057929085 -0.0032346125 -0.006550768 0.0060067913 0.014951689 0.0032424068 0.0041828984
0.01702543 -0.018555539 -0.0069712363 0.0056596585 0.014916142 0.004914402 -0.0010223704 5.3881497e-05
-0.006332955 0.002193914 -0.0023612624 -0.0071728374 -0.0031429783 0.0046934504 -0.0044277543 0.007882498
-0.014709954 -0.0045610666 -0.0016772992 0.015212618 -0.0058436 0.0048912903 0.0031124556 0.005294047
0.00072050013 -0.00075047504 -0.0014566387 0.0004324542 0.00040694818 0.00032973476 0.0015318044 -0.0010807321
-0.0009761393 -0.0017444699 -0.0013384322 -0.000985366 0.0011400619 -0.0026456153 0.000494506 -0.0019030045
0.0022412252 0.0020784098 0.0028167018 -0.0036886595 -0.00028479734 -0.002405292 -0.00022322549 -0.00036546512
-0.0010003924 -0.00052416563 0.001019488 0.001073381 -0.0053737373 0.0025170678 0.0011453805 -0.0019670515
0.014775461 0.023467602 0.00585071 -0.03603231 -0.0071616587 0.031494398 -0.014714341 0.008720134
0.041261297 -0.016356397 0.017504934 0.033061367 0.0044149314 0.037072062 0.014821921 -0.006367383
-0.0055939616 0.010256578 -0.0013190415 0.00070794876 -0.0033897685 -0.0041106683 -0.004720421 0.0031270997
-0.008287302 0.01165965 0.0019146954 -0.0006478668 -0.018505067 -0.0036599922 -0.0018127388 -0.0021692007
0.0027018765 -8.7374334e-05 -0.0035080316 -0.007220843 -0.0010006232 0.0039183157 0.0045046816 -0.0034924087
0.0014749559 -0.0048401873 -0.004545064 0.0057233903 0.013910343 0.0064863367 -0.0027383154 0.0021542362
0.0032174606 0.0078011346 0.013419543 -0.020456638 -0.00678649 -0.0070980196 -0.000218559 -0.010209467
0.0032518832 0.0011117803 -0.00079332583 0.0021447653 -0.0010551445 0.01321013 0.009304441 -0.0022231669
0.0046961512 -0.005472826 0.009826287 0.006609498 0.0066059595 -0.0061778533 0.010546593 -0.016855115
-0.0027577307 0.007725421 -0.0010709842 -0.0060340506 -0.009819475 -0.009215331 0.008940942 0.013841908
0.0042381 -0.013684389 -0.0024620339 0.0067974296 0.0011938866 -0.00048179235 0.005826778 -0.012668874
0.0045759566 -0.0076406063 -0.008856227 -0.0039541456 0.011855497 -0.0048433784 0.0058561135 0.008128255

convs.3.fcn.bias f4 [16]
00000000: d39c 093d 2f1f 38bc da80 a73c 7a5d 75bc
00000010: 7130 4eba d96d 873b 3c86 db3c 96ce 11bd
00000020: 7fdf a239 1573 e1bb 6f02 3c3d 0874 96bc
00000030: fc4a 453d 5702 803b d4c4 5abc 862d a23c
0.033596825 -0.0112379035 0.020447183 -0.0149759 -0.00078654947 0.004132968 0.026797406 -0.035597406
0.00031065565 -0.006880174 0.04590076 -0.018365875 0.048167214 0.003906529 -0.013352592 0.019797098

convs.4.deg_coeff f4 [2]
00000000: a9e9 90ba eef7 15bb
-0.0011055964 -0.0022883373

convs.4.coeff f4 [3]
00000000: b952 873a 230e 383b 4753 3bbb
0.0010324336 0.0028084598 -0.0028583573

convs.4.fcn.weight f4 [16, 16]
00000000: 033d 003b f099 26bb dcaf 893b da09 503b
00000010: f23a 9e3b f84f 4b3a c18a 343b b24c 54bb
00000020: f509 43ba 8c5d 1f3c c078 e0ba aa5f 6cbb
00000030: 391c 2fbb 9e2b 9cbb a521 c43b 6710 a9b9
00000040: 8989 e43b f07b 413c 2e41 003c 7fff 98bc
00000050: 4b50 bcbb b793 a43b 5821 04bb 718b e1bb
00000060: 1b76 983a e4b6 893a 8caf fb3b 54db 123c
00000070: 947f 61ba bb95 7b3c ceca 833c d911 9bbb
00000080: fe1f 693b a411 c63a 2c9a 353c 38fa 07bb
00000090: 8655 9c3a 6d68 a33b dbec eb39 5d56 dfbb
000000a0: 84ed 01ba f9bb c73b 7011 803a 3e92 763a
000000b0: 2f2c 593a 87ae 113c d42e 053c 57ae eaba
000000c0: 6510 7fbb 94ae fcba a249 cdbb c172 cf3b
000000d0: ca5f 4f3b bd45 15bb ba62 77ba f248 003c
000000e0: 240d 83ba 830d 6439 4cbe fbb9 4c7f 80ba
000000f0: 902b 1ebb 83bb aebb a595 ebbb 115e 053b
00000100: 0f7e 5c3a 85fb 2abc ae1a 2dbc a795 453c
00000110: 947d a43b 71ee d4ba 2ae1 a53b bf35 e53b
00000120: 4ad7 2bbc f1ea 343b 3fe7 34bb e3ee 9dbb
00000130: 4e8a beba 8505 7bbc 715e 55bc 670b 263c
00000140: 7d10 ccb9 4704 edb9 6c74 8d3b eeb8 073c
00000150: 0e50 e5ba d1e7 da39 bf96 04bb 2e58 2abb
00000160: 486d 723b 15d7 903b 0960 453b c431 433b
00000170: fbc4 84bb 1bee 2fb9 1b57 7abb a762 aaba
00000180: e4f9 023c 9fa6 5abb 208d 0cb8 a153 18bc
00000190: 1bce 133b 1e2c 983b 52a3 40bb 6849 40bb
000001a0: 2fb5 50ba 61b7 0bbc 6ac8 d13a 02eb c3bb
000001b0: abb6 823b c457 d4bb 3b13 b73b 2675 c33b
000001c0: e299 f2bb 5c63 beba 1e6c 26bb d50a e33a
000001d0: f042 d1ba 216c 7abb 1ad4 80bb bc6e 623b
000001e0: 13f7 14bc ca46 2cb8 074b 5ebb 401c f53a
000001f0: 7114 2dbc ef5d dbbb 11fb f1ba e84f fb3a
00000200: a6cf 84ba 9b1f b5ba a81b 9d39 0747 1839
00000210: 889e 75b9 b7d3 ceba 0ec0 5d39 8853 88ba
00000220: 19f3 8b39 5312 5cba dd7c b9ba 0cf7 a0ba
00000230: 28e5 d439 4391 05bb 6fec 1a3b 6d7e ad3a
00000240: d004 94ba ae52 1a3b 5d6f 51b9 5c71 1b38
00000250: 2857 0b3a eb46 593a 8f71 0f3b a035 8039
00000260: f26a cc3b 4f63 12b8 e1b1 893a c338 233b
00000270: aea5 6aba 826a 4138 fd05 a03a 7c3f 2739
00000280: b3f4 283b 277c 123c e542 843b beac 2dbc
00000290: 73b9 083b 5106 e43a 0dda 6fbb b2ad cc3b
000002a0: 3290 a03b 73fa 0f3c 86fc 143c 1662 c13b
000002b0: 0d49 97bb 4916 823c cd0a 293a 87ce a3bb
000002c0: aec8 243b db91 103c 0aaa ac3b f0a7 1cbc
000002d0: 0c9e e63b c657 0b3b 95fa adbb 5c26 983b
000002e0: 94b6 543b 1471 a8bb 11b2 963b c022 6f3c
000002f0: 4c96 de3a 54c6 993c 70e7 6e3c a042 e1bb
00000300: 265e 68b9 57a6 b2b9 c425 073c 6805 60bc
00000310: 1e44 f3bb 44d3 03ba 00d6 01ba 5811 e7bb
00000320: f934 b8ba c211 d33b caf7 3cbb 3311 f5bb
00000330: 2a93 5f3b 1b3c 1cbb 98e4 4d3c 0bc2 cd3b
00000340: 4349 18bb 15d6 7aba 69c4 c83b bed1 21bb
00000350: be93 98bb 7bc4 0cbc 66c6 803b 4686 0abc
00000360: 2abc babb f1b3 c5ba bd1c 98bb 17c2 0a3b
00000370: 2059 14bb 9519 ad3b 3a76 093c 3edb 6dbb
00000380: 2b00 cf3b f120 ea3b 6518 1f3b ce19 41bb
00000390: 7b51 ce3a 03ec af3b 9193 95bb 1a1b 663b
000003a0: 9a92 473c faea a73b fb69 af3b dd74 233c
000003b0: 3197 a53b 8597 7a3c c1c0 01ba 5015 7dbb
000003c0: e7e7 5abb 6903 b5bb cdf5 fbba a847 193c
000003d0: f0a5 5439 bc99 b0bb e136 093c b117 3d3a
000003e0: 453f 04bb 3c7d a4bb 6565 c4bb fd45 ebbb
000003f0: ecdd 113a 0559 87bc 3373 17bc fb98 e73b
0.0019567616 -0.0025421344 0.0042018723 0.0031744153 0.004828804 0.0007755752 0.0027548524 -0.0032394347
-0.00074401434 0.009726893 -0.001712583 -0.0036067762 -0.0026719703 -0.0047659418 0.005985456 -0.00032246413
0.0069744033 0.011809334 0.00782804 -0.018676518 -0.0057468764 0.005022492 -0.0020161476 -0.006883078
0.0011631878 0.0010506776 0.007680839 0.008963425 -0.00086020795 0.015355523 0.016087916 -0.004732352
0.0035572047 0.0015111458 0.011084121 -0.0020748507 0.0011927343 0.0049868138 0.00044999164 -0.006815715
-0.0004956352 0.006095406 0.0009770822 0.0009405947 0.0008284477 0.008891708 0.0081288405 -0.001790474
-0.0038919684 -0.0019278103 -0.006264881 0.0063308184 0.0031642788 -0.0022777163 -0.00094370137 0.0078298915
-0.0009998423 0.00021748808 -0.00048016233 -0.0009803562 -0.0024134852 -0.0053324117 -0.00718947 0.0020350257
0.0008411118 -0.0104359435 -0.010565443 0.012059606 0.005019853 -0.0016245377 0.005062242 0.0069949324
-0.010488341 0.0027605856 -0.0027603654 -0.0048197373 -0.0014537068 -0.01532114 -0.013023005 0.0101345545
-0.00038922197 -0.0004520735 0.004316857 0.008283837 -0.0017495172 0.00041752917 -0.0020231453 -0.00259925
0.0036991406 0.004420171 0.0030117056 0.0029784301 -0.004051802 -0.00016778002 -0.0038198892 -0.0012999371
0.007994149 -0.0033363474 -3.3510034e-05 -0.009297282 0.0022553268 0.004643931 -0.0029394221 -0.0029340629
-0.0007961569 -0.008527608 0.0016005163 -0.005978943 0.003989061 -0.006480189 0.0055870092 0.005964893
-0.007403598 -0.0014525461 -0.0025394033 0.0017321954 -0.0015965383 -0.0038211423 -0.0039315345 0.0034550866
-0.00909211 -4.1073923e-05 -0.0033919232 0.0018700436 -0.010563956 -0.0066945474 -0.0018461664 0.0019173594
-0.0010132685 -0.0013818623 0.0002996598 0.0001452231 -0.00023424078 -0.0015779649 0.00021147748 -0.0010400871
0.00026693268 -0.00083950645 -0.0014151592 -0.0012280657 0.00040606526 -0.0020380772 0.002363946 0.001323653
-0.0011292938 0.0023547816 -0.00019973279 3.7060454e-05 0.00053154165 0.00082884607 0.0021887755 0.00024454016
0.006238335 -3.49016e-05 0.0010505283 0.0024905659 -0.000895108 4.611398e-05 0.0012208816 0.00015950011
0.0025780618 0.008940733 0.0040362948 -0.010600267 0.002086249 0.0017396902 -0.0036598474 0.006246292
0.004900002 0.008787739 0.009093409 0.0059015853 -0.0046168626 0.015879767 0.0006448448 -0.004998985
0.0025144028 0.008823837 0.0052692937 -0.009561524 0.0070378836 0.0021262034 -0.0053094127 0.0046432447
0.0032457458 -0.005140433 0.004598864 0.014595687 0.0016982048 0.018771328 0.014581546 -0.0068743974
-0.00022160317 -0.00034074739 0.00824875 -0.013673164 -0.0074238917 -0.00050287344 -0.0004952848 -0.007051628
-0.0014053873 0.006441326 -0.0028834217 -0.007478857 0.0034114816 -0.0023839537 0.012566708 0.0062792352
-0.0023237027 -0.0009568644 0.0061269295 -0.0024691666 -0.004656284 -0.0085917665 0.003929901 -0.008454865
-0.0056987004 -0.0015083534 -0.0046420977 0.0021172815 -0.002263613 0.0052825906 0.008390004 -0.0036294009
0.0063171587 0.00714504 0.0024276015 -0.0029464844 0.0015740836 0.005368711 -0.0045647104 0.0035111369
0.012180949 0.005124447 0.00535321 0.009976593 0.005053424 0.015294914 -0.0004949682 -0.003861744
-0.0033402385 -0.005524088 -0.0019223035 0.009355463 0.00020279712 -0.0053894203 0.008374901 0.0007213308
-0.0020179313 -0.005019812 -0.0059935325 -0.007179974 0.000556438 -0.01652194 -0.009243774 0.0070677972

convs.4.fcn.bias f4 [16]
00000000: ba6f 433c 67af b03a 7c5e 123c cf7a 0dbb
00000010: 2981 f3ba f805 2fbb 8984 1a3b 9766 7cbb
00000020: ed9b f1bb 9e47 fe3a 3e33 d9bb 3532 30bc
00000030: 088a 0f3d 8b74 03bc a75c 6c3c 429e 13bb
0.011928493 0.0013480008 0.00893366 -0.0021588092 -0.0018577921 -0.0026706439 0.0023577532 -0.0038513297
-0.007373324 0.0019400006 -0.006628423 -0.010754158 0.035043746 -0.0080233915 0.014426387 -0.002252475

convs.5.deg_coeff f4 [2]
00000000: 3c25 143f c289 e2bc
0.57869315 -0.027653579

convs.5.coeff f4 [3]
00000000: 4cf9 9fbf ebe6 9cbf 0bae a73f
-1.2497954 -1.225797 1.3099989

convs.5.fcn.weight f4 [5, 16]
00000000: 5040 823f 530e 9dbf eca1 f63e b862 ecbe
00000010: a3ac 513f 67b1 a23e b207 aa3e ae13 98bf
00000020: 3d5a 823e ac9d fabe 061d 63bf 4fbd 82bf
00000030: af3a 483f b0c0 0fbf c2f0 cf3e 9cd6 a33f
00000040: 45fd b9be f861 41be b93f 0ebd 239f c63e
00000050: dc85 8f3d 30ff dfbe 41ab c23e d074 ab3e
00000060: 3cc4 1dbf 31ba 193f 7f3f 32be a125 abbe
00000070: 43e4 7bbe 9c4c cebe 7fe2 55be cd78 a03e
00000080: 42a4 45bf 55ca 51bf 8c96 96bf f284 913f
00000090: 0d33 8e3f ef6c bc3e 6ed4 34be 2204 6a3f
000000a0: bd37 a2bd 4514 2fbe 80c8 863e 46e6 5b3e
000000b0: 39b3 66bf 964c 5cbf 7f06 a2be 0042 49bf
000000c0: dbb5 4b3f 20bd 753f 91fb 7a3f 3fa6 dabe
000000d0: 71f2 69bf 6300 303f 0650 61bf a567 c4be
000000e0: 981a 47bc edc6 063d eb41 9b3f 6e06 5b3f
000000f0: 4abc b5be 07dd 253f 6bf1 8d3f 62d3 3cbf
00000100: e7ea 5abf ec50 573f e6de 28bf 5596 b7be
00000110: f8ba 8cbf 35f0 83bf 760e 203f 180e 713f
00000120: ce57 153e b14a dbbe a161 91bf a117 cb3d
00000130: 324c a03f 9e53 6b3f 270e a2bf c89d 10bc
1.0175877 -1.2269996 0.48170412 -0.46169066 0.8190405 0.31775972 0.33208996 -1.1881006
0.2545947 -0.4894842 -0.8871616 -1.0214022 0.78214544 -0.5615339 0.4061337 1.2799869
-0.36326042 -0.18885028 -0.03472874 0.38793287 0.070079535 -0.4374938 0.3802128 0.33487558
-0.61627555 0.6004973 -0.17407034 -0.33427146 -0.24598794 -0.40292823 -0.20887183 0.31342164
-0.7720376 -0.8194936 -1.1764693 1.1368697 1.110933 0.3680186 -0.1765916 0.91412556
-0.079207875 -0.17097576 0.26324844 0.21474561 -0.9011722 -0.8605436 -0.3164558 -0.78616333
0.79574364 0.95991707 0.9804011 -0.4270496 -0.9138556 0.6875059 -0.8801273 -0.38360325
-0.012152337 0.032904554 1.2129492 0.85556686 -0.35495216 0.64790386 1.10893 -0.73760045
-0.8551468 0.8410785 -0.65965116 -0.35856882 -1.0994558 -1.030768 0.62522066 0.9416213
0.14584276 -0.42830423 -1.1357919 0.09916616 1.2523253 0.91924465 -1.2660569 -0.0088266805

convs.5.fcn.bias f4 [5]
00000000: b8e8 5f3e f7a3 67be 21e7 733e 1abb c73d
00000010: 51b1 6e3e
0.21866119 -0.22621141 0.23818637 0.09752484 0.23309828

fcn.weight f4 [16, 1703]
00000000: bf9a 0034 d825 6639 b302 1e3c ae61 13bc
00000010: e8a2 b93c b64a 443d 1faf b33b da3a afbb
00000020: fbda 333d a8ee da32 8911 0cbc 2976 88bd
00000030: bd50 023c 16ba 8dbd 81d4 8533 1c65 73bd
00000040: 69d2 1938 ae39 043d 6ee4 7e3d e784 de3b
00000050: 3036 e1bb 4f4e 86bc 6a1f ce3c 3611 6e3c
00000060: 3097 d4bc a762 5f3c 8790 1639 c439 b5bd
00000070: 771a 0e3d 9758 27bb 8654 443d 74c7 fb3c
00000080: b793 ea3b 0ada 65bd b0de 3abd b670 963b
00000090: d49e 533c 24ee 7e3b 0634 abbd cc54 05b3
000000a0: 55c0 b3bb 3a67 443a d209 6dbc 0743 02b3
000000b0: 21de 6db2 239c 20bd 0fc2 acbc 5950 a8b8
000000c0: 9ed1 2dbd e3cb 8433 3af2 34bd 6e3a 0cbd
000000d0: aa6c 72bd 5c3b 22bd 4777 babd 138b 8739
000000e0: 5ec1 fe3a 8f9b ebbd e6f1 e537 29f2 833d
000000f0: 005e 8ab3 1b29 4833 5b33 c7bb 2cbc a73c
00000100: 47c0 01bc fe65 163c 5c51 54bd fba7 003a
00000110: 04f2 8a3b 28a3 5933 baa2 b8bc 2205 2338
00000120: 726e dfb2 5ab8 c4bd c0f0 4a33 2eda a434
00000130: d27b 573c 26a4 313c de4d 5d3d 1b6f d33b
00000140: 14b1 25bc 324d 0f3d 125b e93a fe74 cdba
00000150: fccd 253b fb00 8b33 a7c2 0ebb fd70 0c3c
00000160: 5f71 d533 02ab 40bd a7fb b33d 40ee de3c
00000170: 8d64 523c 54d3 94bc 99ba 6a3c 5e0d df3d
00000180: ae7d 05be 77a6 3b3c ec67 f73b 2f85 613d
00000190: 88bb 52bd 1f3e dab3 900b d3bb eaf8 3d33
000001a0: d339 07ba 2b70 44bd ce50 01ba 78bf 8932
000001b0: a915 28bb 29e4 df3d acda f136 d942 26b3
000001c0: 6705 fb3c 33e4 89bd 2db1 27be 1806 8fbd
000001d0: b3c7 033d c1df f23c 9611 d93c 7f2e dc3b
000001e0: bbeb 7ebd d4ae 5b3d f3d6 8a3a e9fb 11b3
000001f0: 5939 bf3d f1d1 bdbb b427 ce3c 5f86 21b9
00000200: 48af f03c e77c 993b 1b40 d9bc 95ce a73c
00000210: 68b7 d9bb a393 54bd 9882 41bb fca7 3abc
00000220: ff92 093e 184a e33a b131 a23c f04a 3039
00000230: 81f2 43b3 5a74 9eba 9e26 ed3d 8b58 893d
00000240: b23d 103d f1b6 c3b8 734e 353d e10c 8f3c
00000250: 8b12 84bc c287 c5bc a555 683b bcc9 963d
00000260: 8bba b7bd 845a 5abb 0057 c7bc 392a 2833
00000270: e5cf eeb3 14be f7b9 1757 90bc b90f 81b3
00000280: a887 9a3c a83f 0cbd 9c7a a1b9 123a bd3c
00000290: 0d8b 0c3b 2903 36b3 a2ff 5b3c e084 4dbb
000002a0: 3e47 fbb1 26a4 5fb3 c0db 443d d475 0e3d
000002b0: 1eaa 2638 2bbc d5bc 4b75 9e3c 60b4 4cb3
000002c0: 82e0 e831 cc56 e33b b854 03bd 8fbf 02b3
000002d0: ca74 26b3 14fe d7bd 487d d233 374f d6ba
000002e0: 046c a43c cfa9 e13c fd40 feb7 cbd9 3db9
000002f0: cca6 8b3c 09dc 4d33 acb4 9c3b 907b 9bb8
00000300: f541 efb3 f1f1 703c 0f07 d03d c162 933a
00000310: 819c bebc 7497 3133 4121 50bc b8df ce32
00000320: bd84 f03c 2dc8 3fbe 2531 af33 908e ca3c
00000330: d000 9e3b af0a a43a 8ba1 003d 1a34 5ebd
00000340: 70f8 ef32 d4f0 38b9 85bb 133c bf71 c3bc
00000350: e5db d132 7772 83bb b379 6ab2 5153 bf3a
00000360: a9a0 a5b8 498e 103d 8c09 d7bc a032 5ebd
00000370: 24a1 e5bd 2a1f 963d e0f1 d2b9 7372 6b3b
00000380: f983 3eb3 9c6f 1f3d 6abc 65bd 3af6 d73c
00000390: 5d88 92bd d530 5e3c 095c d7bc 74f9 d632
000003a0: b152 8e3c 11ae 9bbb d202 b137 a4a5 3fbd
000003b0: f286 42bc 9348 dd3b 5c46 843d fe7f d83c
000003c0: d1bc 6c3c 74ec 8db3 0921 813b e5a5 5c3c
000003d0: ff82 4a3c 9280 d9bc ffd6 443c b645 70bd
000003e0: d747 84bd 56b0 85b9 f678 eabc c91d a03c
000003f0: 0622 67bc 9f08 a93c f3a8 cab3 ee4c 80bd
1.1977225e-07 0.00021948607 0.009644198 -0.008995457 0.022660688 0.047922812 0.0054835225 -0.005347592
0.043910008 2.5487068e-08 -0.008549103 -0.06663162 0.00795382 -0.06920259 6.2319494e-08 -0.059422597
3.6674002e-05 0.03228157 0.062229566 0.0067907455 -0.0068729147 -0.016394762 0.025161464 0.014530471
-0.025950998 0.01363436 0.00014358955 -0.088489085 0.034693208 -0.0025534981 0.04793217 0.030734755
0.0071587223 -0.05611614 -0.045622528 0.004591073 0.012916286 0.0038899267 -0.08359532 -3.1043598e-08
-0.0054855742 0.00074921886 -0.014467673 -3.0328945e-08 -1.3845722e-08 -0.039211404 -0.021088628 -8.02583e-05
-0.042436235 6.183816e-08 -0.044176318 -0.03423541 -0.05918566 -0.03960739 -0.091047816 0.00025852825
0.001943629 -0.1150428 2.741157e-05 0.06442673 -6.443224e-08 4.6603514e-08 -0.00607912 0.02047547
-0.007919378 0.00917959 -0.051835403 0.00049078435 0.0042402763 5.067264e-08 -0.022538532 3.886701e-05
-2.6010841e-08 -0.09605475 4.725075e-08 3.0706127e-07 0.01315208 0.010842359 0.054029338 0.006452454
-0.0101130195 0.03498573 0.001780363 -0.0015675125 0.0025299778 6.47287e-08 -0.0021783502 0.00857186
9.9392075e-08 -0.047038086 0.08788233 0.027213216 0.012841356 -0.018167175 0.014326715 0.108912215
-0.13036224 0.0114532625 0.0075502302 0.055058654 -0.051448375 -1.0162716e-07 -0.0064405873 4.4231378e-08
-0.0005158458 -0.047958534 -0.00049330003 1.6035969e-08 -0.0025647676 0.1093219 7.2078165e-06 -3.8710684e-08
0.030642224 -0.06732979 -0.16376181 -0.06983584 0.03217287 0.02964771 0.026497643 0.00671941
-0.06223653 0.053633526 0.0010592624 -3.3989554e-08 0.0933711 -0.005792849 0.025165416 -0.00015404214
0.029380456 0.004684079 -0.026519826 0.020484248 -0.006644178 -0.05189861 -0.0029527303 -0.01139259
0.13434981 0.0017340807 0.019799085 0.00016812584 -4.562253e-08 -0.0012089119 0.11579631 0.06706341
0.035215087 -9.3324e-05 0.044264268 0.017462196 -0.016122123 -0.024112586 0.0035451439 0.073626965
-0.08971127 -0.0033318112 -0.024333477 3.915395e-08 -1.11205544e-07 -0.0004725313 -0.017619653 -6.0098905e-08
0.018863514 -0.034240395 -0.00030799664 0.02309898 0.0021445185 -4.237805e-08 0.013427647 -0.0031359717
-7.3131607e-09 -5.2070526e-08 0.048061132 0.03478034 3.9735918e-05 -0.026090702 0.019343039 -4.76615e-08
6.7776122e-09 0.006937837 -0.032063216 -3.0442205e-08 -3.8756106e-08 -0.105465084 9.8016756e-08 -0.0016350512
0.020071037 0.027546791 -3.0309422e-05 -0.00018105579 0.017047308 4.7930403e-08 0.00478228 -7.413991e-05
-1.1141302e-07 0.014706121 0.10157596 0.0011244641 -0.023267986 4.134877e-08 -0.012703241 2.4083292e-08
0.02936017 -0.18728705 8.158012e-08 0.024726182 0.004821874 0.0012515391 0.03140406 -0.054248907
2.7936238e-08 -0.00017637323 0.009016876 -0.02385795 2.4430799e-08 -0.004011448 -1.3648264e-08 0.0014596974
-7.8977384e-05 0.035291944 -0.02624967 -0.0542475 -0.11212376 0.07330163 -0.00040234532 0.0035926371
-4.435785e-08 0.0389248 -0.05608789 0.026362527 -0.071549155 0.013561447 -0.026289003 2.5026317e-08
0.017373415 -0.004750975 2.1101358e-05 -0.046788827 -0.011872994 0.0067530363 0.064587325 0.026428219
0.014449314 -6.608835e-08 0.0039407057 0.013467287 0.012360333 -0.026550565 0.01201415 -0.05866023
-0.06459015 -0.00025499117 -0.028622132 0.019545453 -0.014107233 0.020633994 -9.43709e-08 -0.06264673

fcn.bias f4 [16]
00000000: 2caa 9f3d 5a1b f83c fef8 48bd d4fe f0bb
00000010: 5a47 f33d cf0e 453e 650a afbd 9945 963d
00000020: e7f7 9b3e 778c a1be 1af8 e13b 6c22 ff3d
00000030: cf74 f93d 8582 103e b3eb 053d 31aa 753c
0.077961296 0.03028648 -0.049065582 -0.0073545966 0.118788436 0.1924393 -0.085469045 0.073374934
0.30462572 -0.3155248 0.006896031 0.12457737 0.121804826 0.14112289 0.032695483 0.01499419
