GGCN/pretrained/GGCN_wisconsin_25_14_57_48.pt (torch, 229972 bytes, 22 tensors)

convs.0.deg_coeff f4 [2]
0.6294311 0.14065363
00000000: 6622 213f 8107 103e

convs.0.coeff f4 [3]
-0.5078937 -0.49066934 0.5069094
00000000: 5205 02bf 0339 fbbe d0c4 013f

convs.0.fcn.weight f4 [16, 1703]
-0.18494137 -0.0074700178 -0.068227574 0.031484842 0.10113802 -0.028298667 -0.15766883 -0.1829809
-0.029274167 0.090922035 0.013523443 0.47466353 0.09281512 -0.17030635 0.0048840665 -0.23113257
-0.14408287 -0.19066618 0.30945712 -0.12835895 0.051744726 -0.03793753 0.16216224 -0.31548253
-0.019171583 0.08128585 -0.0016663319 -0.17196387 -0.00615051 -0.00055774156 0.5042364 -0.011097468
-0.28836593 -0.15214276 -0.037702385 -0.10769381 -0.1746974 -0.18839498 -0.021868099 -0.058497142
0.11389755 -0.3269931 -0.15615788 0.40234166 0.03326668 -0.45583358 -0.4085476 -0.17549808
-0.14145406 0.0011559682 -0.014343435 -0.01173474 -0.0008271659 -0.05505305 -0.015247628 -0.017570764
0.11206979 -0.31694594 -0.43302697 -0.47624782 0.13034946 -0.06553473 -0.023464993 0.06987672
-0.18587326 -0.082465224 0.09228257 0.0010364369 0.14428395 -0.08627097 -0.0893256 0.1250708
-0.038155343 -0.0482743 -0.06867279 -0.09909836 0.04745115 -0.061968256 -0.32348272 -0.119323306
-0.06485511 -0.21222995 5.5515407e-05 0.34146696 -0.07595197 5.065131e-05 -0.084475696 -0.0010593734
-0.00056304643 -0.05636465 0.16629827 0.2754071 -0.18971433 0.10395197 0.07613071 -0.083686285
-0.050651398 0.10004294 -0.030221745 -0.0003462801 0.045835573 0.06230708 -0.23415239 -0.00017688781
-0.046156045 0.09329254 0.04368041 0.021247188 0.054783747 0.2292733 0.11287752 0.018742045
-0.043963406 -0.076913364 -0.37546614 0.47116905 -0.16561495 0.00215682 0.0107468255 -0.006109044
0.36620295 0.25268623 0.13877073 0.0007002491 0.11340197 -0.08227052 -0.07942267 -0.06292049
-0.13623847 0.099544965 0.21090731 -0.22841923 0.19696446 0.04855454 0.11069693 -0.43807343
-0.27672663 -0.27833155 -0.11692359 0.01765034 0.10750127 0.46537212 0.41256753 0.07310604
-0.28249338 -0.06853119 -0.19233933 0.51705426 0.0011705104 0.3537133 0.072408706 0.2389417
-0.32639992 0.005475428 0.41589206 -0.0003310089 -0.014443512 0.0039004392 0.04688825 -0.039064888
0.0011933965 -0.07072134 -0.03883326 -0.17013086 0.45922008 0.05499598 0.07224781 -0.42302772
0.13820802 0.04585261 -0.01017485 -0.07340778 0.07595229 -0.27126092 -0.27404812 -0.03899871
0.005451121 0.1823848 0.0010174677 -0.065534875 -0.08194148 -0.3373715 0.0046795965 -0.08539757
0.058991574 -0.1560418 -0.018252658 0.124523856 -0.11365147 0.00014991907 -0.055170532 -0.044002116
0.20012978 -0.1686904 -0.028239861 -0.25097355 -0.08817201 0.039710663 0.10692716 0.042546183
-0.07531393 0.07396549 0.0015647877 -0.03434381 0.044008847 -0.0525728 -0.007367208 0.073796205
0.049346454 -0.0006372605 0.059931085 0.0009188197 -0.1041197 0.17002034 0.047851257 0.019276261
0.042322226 -0.3336351 0.016908878 -0.30849198 -0.06715235 0.19475059 0.15102999 -0.06175963
-0.079605706 -0.12895131 -0.40329155 0.218976 0.4685901 -0.14354369 0.029354913 0.13462317
0.16276577 -0.01536366 0.024545653 -0.220768 0.43198398 -0.0013028071 -0.0015562794 0.1499609
0.14217924 -0.0007630548 0.020689545 0.17407492 0.14713411 0.06645485 -0.11423831 0.014998738
-0.0018983117 -0.011296173 -0.06200001 0.1090113 -0.3948479 -0.009890059 0.10570112 -0.1642806
00000000: 4561 3dbe 0dc7 f4bb e6ba 8bbd 40f6 003d
00000010: 7321 cf3d 9bd2 e7bc f073 21be 585f 3bbe
00000020: 61d0 efbc 5535 ba3d 6e91 5d3c 1907 f33e
00000030: db15 be3d ca64 2ebe 850a a03b 04ae 6cbe
00000040: 768a 13be ff3d 43be 2a71 9e3e 8770 03be
00000050: 47f2 533d 6264 1bbd dc0d 263e ed86 a1be
00000060: b90d 9dbc 3279 a63d d268 daba 4c17 30be
00000070: 388a c9bb 6735 12ba a315 013f 28d2 35bc
00000080: b3a4 93be 50cb 1bbe d16d 1abd 928e dcbd
00000090: e0e3 32be 9dea 40be ba24 b3bc b39a 6fbd
000000a0: 1e43 e93d a46b a7be dae7 1fbe baff cd3e
000000b0: a442 083d 0563 e9be 272d d1be c5b5 33be
000000c0: 55d9 10be db83 973a ba00 6bbc 1143 40bc
000000d0: 2ad6 58ba 4f7f 61bd 30d1 79bc 90f0 8fbc
000000e0: d984 e53d bd46 a2be b6b5 ddbe c1d6 f3be
000000f0: 547a 053e 1337 86bd a839 c0bc 871b 8f3d
00000100: 8f55 3ebe 87e3 a8bd a5fe bc3d 0dd9 873a
00000110: 2cbf 133e d6ae b0bd 57f0 b6bd 8f12 003e
00000120: c748 1cbd 46bb 45bd 52a4 8cbd 15f4 cabd
00000130: 235c 423d 6dd2 7dbd 879f a5be c75f f4bd
00000140: c2d2 84bd cf52 59be 37d9 6838 c2d4 ae3e
00000150: b58c 9bbd 6e72 5438 9801 adbd acda 8aba
00000160: 6899 13ba 9fde 66bd 184a 2a3e 2902 8d3e
00000170: 7944 42be c5e4 d43d 6bea 9b3d b763 abbd
00000180: d777 4fbd 50e3 cc3d 9893 f7bc ee8c b5b9
00000190: 15be 3b3d b535 7f3d a5c5 6fbe f67a 39b9
000001a0: 1f0e 3dbd 2910 bf3d 3bea 323d 950e ae3c
000001b0: ec64 603d 9fc6 6a3e 542c e73d eb88 993c
000001c0: f912 34bd c184 9dbd 193d c0be 123d f13e
000001d0: f796 29be 6f59 0d3b 7413 303c 602e c8bb
000001e0: f47e bb3e 1760 813e ea19 0e3e ec90 373a
000001f0: 4b3f e83d 727d a8bd 5aa8 a2bd 75dc 80bd
00000200: 1982 0bbe 3bde cb3d 16f8 573e bbe6 69be
00000210: 0db1 493e 20e1 463d 12b5 e23d 294b e0be
00000220: 1daf 8dbe 7981 8ebe a375 efbd 7297 903c
00000230: a029 dc3d 4145 ee3e 0d3c d33e 9fb8 953d
00000240: f9a2 90be 155a 8cbd 9af4 44be ab5d 043f
00000250: d06b 993a e919 b53e 044b 943d 22ad 743e
00000260: e41d a7be 386b b33b ceef d43e 438b adb9
00000270: 7ba4 6cbc 839e 7f3b e50d 403d 8102 20bd
00000280: be6b 9c3a 5ad6 90bd a00f 1fbd c936 2ebe
00000290: e51e eb3e 7743 613d a9f6 933d 1797 d8be
000002a0: 6786 0d3e f2cf 3b3d 6ab4 26bc d156 96bd
000002b0: e08c 9b3d b6e2 8abe 0950 8cbe 1dbd 1fbd
000002c0: 519f b23b 15c3 3a3e 8d5c 853a 2637 86bd
000002d0: efd0 a7bd f5bb acbe 4d57 993b ece4 aebd
000002e0: 26a1 713d 6cc9 1fbe 9986 95bc 5d06 ff3d
000002f0: 1ac2 e8bd 9833 1d39 7ffa 61bd 903b 34bd
00000300: d2ee 4c3e 2dbd 2cbe 4857 e7bc 9b7f 80be
00000310: 8793 b4bd a6a7 223d a0fc da3d e844 2e3d
00000320: 313e 9abd 387b 973d 9019 cd3a 18ac 0cbd
00000330: 9f42 343d 9456 57bd 9f68 f1bb 7722 973d
00000340: 821f 4a3d d40d 27ba 4c7a 753d f2dc 703a
00000350: b63c d5bd d019 2e3e aeff 433d 40e9 9d3c
00000360: 125a 2d3d 38d2 aabe 7d84 8a3c a9f2 9dbe
00000370: 2c87 89bd b36c 473e 9ba7 1a3e aaf7 7cbd
00000380: 5108 a3bd d00b 04be 3b7c cebe 3f3b 603e
00000390: 0beb ef3e 1efd 12be b779 f03c a8da 093e
000003a0: 12ac 263e dcb7 7bbc f713 c93c 0211 62be
000003b0: 012d dd3e f4c2 aaba 12fc cbba 5a8f 193e
000003c0: 6f97 113e be07 48ba 1f7d a93c b240 323e
000003d0: 53aa 163e 7b19 883d c6f5 e9bd 44bd 753c
000003e0: c5d0 f8ba 9513 39bc b9f3 7dbd 5141 df3d
000003f0: 8129 cabe ea09 22bc d479 d83d 2c39 28be

convs.0.fcn.bias f4 [16]
0.01656022 -0.028613904 0.09821117 0.14425582 0.057516888 0.07111239 -0.04386295 0.05887766
0.04757902 0.04722886 0.21057227 0.029046211 -0.0525008 0.13030471 0.04813992 -0.002751809
00000000: 4ca9 873c b567 eabc f022 c93d ccb7 133e
00000010: d496 6b3d 5fa3 913d a3a9 33bd b429 713d
00000020: 38e2 423d 0d73 413d 42a0 573e 52f2 ed3c
00000030: 140b 57bd 996e 053e 5d2e 453d b257 34bb

convs.1.deg_coeff f4 [2]
0.19921651 0.04139595
00000000: 6aff 4b3e cd8e 293d

convs.1.coeff f4 [3]
-0.52374184 -0.37610313 0.49742612
00000000: f213 06bf 9790 c0be a3ae fe3e

convs.1.fcn.weight f4 [16, 16]
0.53974015 -0.18566696 -0.3045809 -0.26066872 0.41776454 -0.38889712 -0.23718369 -0.3405685
-0.10570428 -0.03712452 -0.40370786 0.28598377 0.33940613 -0.32287255 -0.43796107 0.07907666
0.23142724 0.15453213 -0.13626124 0.26574573 0.18362914 -0.21078065 -0.050838664 -0.15379961
0.26939315 0.25786877 0.36240718 0.07337576 0.033843543 0.31074476 -0.30963984 -0.24690856
-0.5152085 -0.24302931 0.43757936 -0.27820143 -0.39527267 0.5151617 0.15742 0.29413116
-0.32789275 -0.13386065 0.18809204 -0.15095823 -0.45649785 -0.1389709 0.5623729 0.46169654
-0.15290326 0.19201829 -0.2420855 0.46107924 0.36474502 -0.20279492 -0.3098486 -0.37552333
0.24708061 0.18031889 0.36745423 0.24057192 0.16463232 0.3559257 -0.37167734 -0.2727195
0.35691676 -0.10199971 -0.23384774 0.28934273 0.5019836 -0.19259328 -0.22008663 -0.44940373
-0.13288261 -0.21830098 -0.457546 0.20143147 0.34125143 -0.19015382 -0.25178275 -0.03163288
-0.5208645 -0.29186764 0.35175517 -0.3443025 -0.22092603 0.4154688 0.049157325 0.3631643
-0.3181068 -0.29806963 0.13884397 -0.12828396 -0.34594488 -0.24066103 0.49306193 0.35176995
-0.09136697 0.011755931 0.18560007 -0.15037066 -0.18421806 0.085344024 0.18215428 0.22806196
0.08003006 0.27414432 0.44903252 -0.17600235 -0.14572915 0.10990669 0.21973805 -0.016163945
-0.3227419 -0.19756459 0.30656758 -0.25254664 -0.4476405 0.2866838 0.23045723 0.27104762
-0.14564134 0.038693585 0.31579602 -0.25641313 -0.31398916 -0.08637285 0.36848283 0.2801519
0.28532052 0.15929188 -0.17603114 0.26439536 0.18451363 -0.23734576 0.033753943 -0.12352521
0.22244231 0.29374993 0.33933502 0.0024362577 0.03255934 0.23330644 -0.23787735 -0.2632483
0.2437544 0.16208965 -0.028440459 0.16020751 -0.010654877 -0.14325663 0.14157185 0.038038593
0.21413748 0.28088903 0.35959342 -0.05422598 -0.08488187 0.26606804 -0.20632492 -0.2031017
-0.5058826 0.05548303 0.26453918 0.23048502 -0.16475092 0.15747553 0.029201362 0.057667147
0.14240281 0.13036767 0.4457894 -0.030174581 -0.34606776 0.21519071 0.17968678 -0.1850144
0.26756722 -0.124952175 -0.2119013 0.1563187 0.3288091 -0.081731774 -0.2646423 -0.28777087
-0.14970092 -0.23111703 -0.40553004 0.25993603 0.22074822 -0.172681 -0.24707198 0.0391064
0.33037266 -0.072570994 -0.24016903 0.36574322 0.29333735 -0.10379354 -0.17933796 -0.2584483
-0.0872646 -0.07938121 -0.21801902 0.19377612 0.28884 -0.09131356 -0.3560798 -0.07480709
-0.22236814 0.17136459 -0.0944529 0.3813814 0.16292138 -0.1344284 -0.03621076 -0.15989035
0.24810988 0.17701289 0.41310075 0.052419305 -0.08957071 0.2584274 -0.27108237 -0.3218549
-0.514001 -0.3163591 0.4395479 -0.48955923 -0.4366792 0.23948832 0.21130572 0.331643
-0.21485573 -0.24600694 0.1942736 -0.21900041 -0.4378649 -0.24938996 0.5721872 0.28825384
-0.22780114 -0.23768663 0.18258756 -0.37502038 -0.22076644 0.2558622 -0.046175916 0.23091973
-0.15775217 -0.25838658 -0.39023238 -0.009412721 -0.1998779 -0.28904027 0.4436916 0.4270118
00000000: 692c 0a3f 7b1f 3ebe 07f2 9bbe 5f76 85be
00000010: 3ce5 d53e 861d c7be 48e0 72be ff5e aebe
00000020: 7c7b d8bd e10f 18bd ccb2 cebe 776c 923e
00000030: a4c6 ad3e 8d4f a5be 6f3c e0be f2f2 a13d
00000040: 43fb 6c3e ac3d 1e3e 1188 0bbe d30f 883e
00000050: 4709 3c3e e2d6 57be 343c 50bd a57d 1dbe
00000060: e6ed 893e 6007 843e 6f8d b93e 0846 963d
00000070: 879f 0a3d f019 9f3e 1d89 9ebe 99d5 7cbe
00000080: b4e4 03bf addc 78be 670a e03e 6b70 8ebe
00000090: 2e61 cabe a3e1 033f b532 213e 5c98 963e
000000a0: 8fe1 a7be c412 09be 339b 403e cb94 1abe
000000b0: 16ba e9be 634e 0ebe acf7 0f3f 7d63 ec3e
000000c0: ac92 1cbe 71a0 443e 43e5 77be 9412 ec3e
000000d0: dcbf ba3e 79a9 4fbe 7aa4 9ebe 9844 c0be
000000e0: b302 7d3e 84a5 383e f622 bc3e 7c58 763e
000000f0: 6095 283e e53b b63e 7e4c bebe e4a1 8bbe
00000100: cbbd b63e 39e5 d0bd c875 6fbe bb24 943e
00000110: ff81 003f 2c37 45be 645e 61be 3f18 e6be
00000120: 6112 08be 4b8a 5fbe 7843 eabe 0d44 4e3e
00000130: 82b8 ae3e afb7 42be abe9 80be 7b91 01bd
00000140: 6057 05bf ad6f 95be 4119 b43e 6b48 b0be
00000150: 6f3a 62be 54b8 d43e 3159 493d acf0 b93e
00000160: e5de a2be 959c 98be 1d2d 0e3e df5c 03be
00000170: b01f b1be d86f 76be 9d72 fc3e 311b b43e
00000180: 9b1e bbbd f39b 403c f20d 3e3e c4fa 19be
00000190: a9a3 3cbe d9c8 ae3d a786 3a3e 1389 693e
000001a0: cde6 a33d a55c 8c3e 97e7 e53e f639 34be
000001b0: 063a 15be c216 e13d 0303 613e 406a 84bc
000001c0: 6d3e a5be 5f4e 4abe 6df6 9c3e cb4d 81be
000001d0: 2331 e5be 38c8 923e fbfc 6b3e c1c6 8a3e
000001e0: 0123 15be 2a7d 1e3d 04b0 a13e 9548 83be
000001f0: 30c3 a0be 40e4 b0bd c8a9 bc3e 1270 8f3e
00000200: 8815 923e 691d 233e 8241 34be d45e 873e
00000210: 24f1 3c3e c40a 73be 9341 0a3d c9fa fcbd
00000220: ebc7 633e 6466 963e 52bd ad3e 9fa9 1f3b
00000230: f15c 053d e2e7 6e3e 1f96 73be 7bc8 86be
00000240: c19a 793e d4fa 253e f7fb e8bc 700d 243e
00000250: cb91 2ebc deb1 12be 36f8 103e 5bce 1b3d
00000260: db46 5b3e b0d0 8f3e a11c b83e 101c 5ebd
00000270: 8cd6 adbd 123a 883e d746 53be e4f9 4fbe
00000280: 8681 01bf 2c42 633d ae71 873e 4404 6c3e
00000290: 77b4 28be 4441 213e b237 ef3c 6334 6c3d
000002a0: 0bd2 113e 1a7f 053e 823e e43e af30 f7bc
000002b0: cb2f b1be f45a 5c3e d0ff 373e 6a74 3dbe
000002c0: 92fe 883e ede6 ffbd a8fc 58be 0212 203e
000002d0: ab59 a83e fd62 a7bd 327f 87be b456 93be
000002e0: 334b 19be f1a9 6cbe a2a1 cfbe 5616 853e
000002f0: d20b 623e 4ad3 30be 7000 7dbe 082e 203d
00000300: 9b26 a93e 1aa0 94bd dfee 75be b242 bb3e
00000310: 5030 963e b591 d4bd 5fa4 37be 5653 84be
00000320: c8b7 b2bd 9e92 a2bd 6140 5fbe 3f6d 463e
00000330: d6e2 933e 9b02 bbbd 1750 b6be 7634 99bd
00000340: 79b4 63be 337a 2f3e 8670 c1bd 6c44 c33e
00000350: ddd4 263e 99a7 09be bc51 14bd 4cba 23be
00000360: 8410 7e3e de42 353e f181 d33e a0b5 563d
00000370: d970 b7bd 9950 843e 4fcb 8abe 2aca a4be
00000380: 9295 03bf d2f9 a1be 6c0c e13e 82a7 fabe
00000390: 6b94 dfbe 6d3c 753e 8760 583e 1ccd a93e
000003a0: 2403 5cbe 3ee9 7bbe a9ef 463e a541 60be
000003b0: d42f e0be 1560 7fbe dc7a 123f 0296 933e
000003c0: b444 69be 2064 73be 3cf8 3a3e ac02 c0be
000003d0: 9910 62be 5f00 833e f522 3dbd 3976 6c3e
000003e0: c989 21be 3f4b 84be 8acc c7be d037 1abc
000003f0: cbac 4cbe 16fd 93be 8c2b e33e 4aa1 da3e

convs.1.fcn.bias f4 [16]
0.18155916 -0.07828451 0.010540643 0.020255473 0.1206141 -0.033052567 -0.13348398 -0.013930998
-0.007996628 -0.04244836 0.1499716 0.046209797 -0.107635096 -0.027297884 0.1111122 0.14596999
00000000: a5ea 393e a153 a0bd a9b2 2c3c ceee a53c
00000010: 8604 f73d 2162 07bd 06b0 08be d73e 64bc
00000020: 4a04 03bc 55de 2dbd 2892 193e 7c46 3d3d
00000030: ca6f dcbd d09f dfbc cb8e e33d 2879 153e

convs.2.deg_coeff f4 [2]
0.11265872 0.093733996
00000000: 9db9 e63d 9cf7 bf3d

convs.2.coeff f4 [3]
-0.45027992 -0.31232163 0.41785476
00000000: 178b e6be 9fe8 9fbe 0ff1 d53e

convs.2.fcn.weight f4 [16, 16]
0.38839856 -0.04155076 -0.22521557 -0.25980234 0.4051422 -0.19347048 -0.1674922 -0.28385526
-0.033024732 0.0042034606 -0.41676307 0.2569918 0.20941472 -0.23170176 -0.29984823 0.041290425
0.1355336 0.102181494 -0.097684294 0.24397178 0.15146263 -0.123778395 -0.026150716 -0.057071596
0.16866383 0.15693264 0.2542642 0.06835891 0.021195186 0.14498842 -0.14183232 -0.21039446
-0.34986448 -0.11582702 0.30705312 -0.28199303 -0.31742302 0.3031813 0.13730922 0.2567694
-0.13904673 -0.046278045 0.21373866 -0.14926042 -0.29859886 -0.096940234 0.4194519 0.21093127
-0.08824188 0.19049163 -0.22984569 0.27214265 0.30634266 -0.14451665 -0.13606356 -0.28941453
0.16336024 0.13921799 0.27614596 0.11253029 0.18275648 0.3165183 -0.21753742 -0.28612095
0.24627359 -0.044325434 -0.18802565 0.23482284 0.36906752 -0.15926087 -0.22878993 -0.3196434
-0.030807002 -0.13422264 -0.40761676 0.2412528 0.24703555 -0.08740722 -0.26132512 -0.081946425
-0.38162425 -0.12927492 0.28932273 -0.17737673 -0.29514 0.29843104 0.0909815 0.23980644
-0.17547463 -0.17343742 0.1086701 -0.15050781 -0.19807571 -0.12934865 0.23516235 0.2592762
-0.102399066 0.0016588756 0.18060581 -0.1701525 -0.24526365 0.099022426 0.13429259 0.23830897
0.054688256 0.16169833 0.29555568 -0.15977791 -0.1801564 0.07340847 0.18189235 0.052170742
-0.28097525 -0.042678226 0.27146864 -0.2833969 -0.41450152 0.22131988 0.1798696 0.2925699
-0.0643684 0.086286 0.24360591 -0.19767074 -0.24901725 -8.768542e-05 0.24242944 0.20757926
0.14140622 0.14047599 -0.10378637 0.19803435 0.12904637 -0.17366207 0.012016343 -0.08683217
0.20862806 0.22247964 0.25376418 0.04119875 0.014265332 0.235021 -0.2183373 -0.24075149
0.14881817 0.09799585 0.0030238756 0.093458116 -0.0036984065 -0.13373329 0.09793986 0.042258974
0.17539442 0.19966438 0.29896855 -0.037324384 -0.06526062 0.13962407 -0.12939951 -0.21209933
-0.24540515 0.063883714 0.19614816 0.18550207 -0.16104552 0.09682701 0.07090132 0.09546789
0.15040044 0.14457554 0.37942025 -0.09152455 -0.28142467 0.20633349 0.098914914 -0.16386615
0.2734074 -0.07944361 -0.13694821 0.09133803 0.2806063 -0.07159585 -0.1902939 -0.23294224
-0.10918051 -0.14304082 -0.19946842 0.15356678 0.15738799 -0.11536153 -0.20766391 -0.012711852
0.34913957 -0.095549256 -0.20150019 0.17021391 0.32771102 -0.12653433 -0.24194598 -0.27876994
-0.0012435613 -0.08705307 -0.26612216 0.20347731 0.21380448 -0.09168027 -0.29483193 -0.018399332
-0.106402524 0.13765971 -0.11028227 0.22426166 0.030619675 -0.12502012 0.025671672 -0.07748415
0.19073145 0.19668873 0.3734883 -0.001805063 -0.0012036163 0.23078574 -0.2040231 -0.26749164
-0.41596296 -0.19854051 0.35945326 -0.25898066 -0.34644756 0.2976309 0.17728363 0.32533944
-0.18140396 -0.121064276 0.2105608 -0.21187873 -0.31596887 -0.19888683 0.42592013 0.34369978
-0.16477613 -0.17430511 0.21123475 -0.2898022 -0.17169139 0.22405288 -0.0026795033 0.19796243
-0.21212009 -0.18954459 -0.25918394 -0.016440662 -0.12362994 -0.2504757 0.30587018 0.29671422
00000000: 2ddc c63e 2131 2abd e99e 66be d004 85be
00000010: cc6e cf3e 201d 46be 1383 2bbe 7a55 91be
00000020: f144 07bd 2fbd 893b f861 d5be 6e94 833e
00000030: d070 563e 3a43 6dbe b585 99be 2620 293d
00000040: 52c9 0a3e 8844 d13d b40e c8bd bdd3 793e
00000050: 0519 1b3e 877f fdbd 073a d6bc e8c3 69bd
00000060: 36b6 2c3e f3b2 203e eb2e 823e c2ff 8b3d
00000070: 87a1 ad3c d877 143e 7e3c 11be a571 57be
00000080: 7021 b3be b736 edbd 1136 9d3e 6461 90be
00000090: 4585 a2be 943a 9b3e ca9a 0c3e 4777 833e
000000a0: 4462 0ebe 0c8e 3dbd 4fde 5a3e b9d7 18be
000000b0: f3e1 98be 9a88 c6bd 66c2 d63e 5efe 573e
000000c0: 29b8 b4bd 3d10 433e ab5c 6bbe 4856 8b3e
000000d0: f2d8 9c3e 2cfc 13be 3f54 0bbe 242e 94be
000000e0: e847 273e 298f 0e3e 0163 8d3e 4876 e63d
000000f0: 8424 3b3e b00e a23e 21c2 5ebe 727e 92be
00000100: 252f 7c3e 968e 35bd cc89 40be 6675 703e
00000110: 6bf6 bc3e 4815 23be e847 6abe 4da8 a3be
00000120: f75e fcbc a971 09be 25b3 d0be f90a 773e
00000130: e3f6 7c3e 8e02 b3bd 68cc 85be 87d3 a7bd
00000140: 4164 c3be a560 04be 1c22 943e 3fa2 35be
00000150: 971c 97be f4cb 983e 8254 ba3d d28f 753e
00000160: 9faf 33be 9499 31be 6e8e de3d b81e 1abe
00000170: 5cd4 4abe f973 04be 66ce 703e dabf 843e
00000180: 9ab6 d1bd a16e d93a bbf0 383e 753c 2ebe
00000190: 6526 7bbe 45cc ca3d ff83 093e 4407 743e
000001a0: cb00 603d 3f94 253e 1353 973e d29c 23be
000001b0: eb7a 38be 2e57 963d fd41 3a3e fdb0 553d
000001c0: fddb 8fbe 5dcf 2ebd f0fd 8a3e 6619 91be
000001d0: 8b39 d4be aea1 623e bd2f 383e b9cb 953e
000001e0: 94d3 83bd b7b6 b03d d473 793e 336a 4abe
000001f0: 61fe 7ebe c0e3 b7b8 6c3f 783e a88f 543e
00000200: cbcc 103e f0d8 0f3e f38d d4bd 84c9 4a3e
00000210: bb24 043e 78d4 31be 32e0 443c 11d5 b1bd
00000220: 98a2 553e b4d1 633e 61ed 813e 05c0 283d
00000230: 24b9 693c 58a9 703e d093 5fbe 8f87 76be
00000240: ca63 183e 0cb2 c83d 372c 463b f866 bf3d
00000250: f760 72bb 61f1 08be b194 c83d bf17 2d3d
00000260: 989a 333e d274 4c3e 6812 993e 74e1 18bd
00000270: 5ca7 85bd 9df9 0e3e 4e81 04be 9130 59be
00000280: 7d4b 7bbe 77d5 823d 10db 483e 41f4 3d3e
00000290: 1ee9 24be 3d4d c63d b634 913d ab84 c33d
000002a0: 9302 1a3e 9c0b 143e 5f43 c23e 3971 bbbd
000002b0: e516 90be 1649 533e e793 ca3d 87cc 27be
000002c0: 0efc 8b3e 55b3 a2bd 273c 0cbe 6f0f bb3d
000002d0: a1ab 8f3e d8a0 92bd 67dc 42be 6988 6ebe
000002e0: 089a dfbd 4b79 12be 7341 4cbe 9c40 1d3e
000002f0: 512a 213e aa42 ecbd d9a5 54be 5f45 50bc
00000300: 6cc2 b23e 54af c3bd 1156 4ebe 8e4c 2e3e
00000310: bdc9 a73e 3792 01be b0c0 77be efba 8ebe
00000320: fefe a2ba e148 b2bd 2a41 88be 5b5c 503e
00000330: 90ef 5a3e dec2 bbbd 36f4 96be 32ba 96bc
00000340: 91e9 d9bd abf6 0c3e acdb e1bd d9a4 653e
00000350: 1dd6 fa3c 4605 00be 664d d23c 03b0 9ebd
00000360: 1b4f 433e c568 493e dc39 bf3e dd97 ecba
00000370: a9c2 9dba 1953 6c3e 6eeb 50be aaf4 88be
00000380: 19f9 d4be 344e 4bbe 420a b83e 1d99 84be
00000390: 9361 b1be 1463 983e d789 353e e492 a63e
000003a0: f6c1 39be 8cf0 f7bd 409d 573e bdf6 58be
000003b0: acc6 a1be fda8 4bbe 3412 da3e 6bf9 af3e
000003c0: 13bb 28be 0a7d 32be ec4d 583e f460 94be
000003d0: decf 2fbe 1e6e 653e 9b9a 2fbb aab6 4a3e
000003e0: 0236 59be fa17 42be c2b3 84be 91ae 86bc
000003f0: b231 fdbd 5a3e 80be 049b 9c3e edea 973e

convs.2.fcn.bias f4 [16]
0.110888995 -0.07842838 0.03325778 0.1677342 0.115850314 0.10535315 -0.047766827 0.060511228
-0.0021190182 -0.04843028 0.11397641 0.024182446 -0.012420817 0.09927597 0.02748112 0.04103624
00000000: c519 e33d 0f9f a0bd 4f39 083d 84c2 2b3e
00000010: ee42 ed3d 64c3 d73d 26a7 43bd 9fda 773d
00000020: 3adf 0abb d45e 46bd 776c e93d 441a c63c
00000030: af80 4bbc 3351 cb3d 1620 e13c 9e15 283d

convs.3.deg_coeff f4 [2]
0.10494094 0.19857089
00000000: 47eb d63d 2b56 4b3e

convs.3.coeff f4 [3]
-0.20965625 -0.30049747 0.31503153
00000000: 21b0 56be ceda 99be d04b a13e

convs.3.fcn.weight f4 [16, 16]
0.23328844 -0.05005383 -0.11504401 -0.1615165 0.19303606 -0.18370567 -0.08089208 -0.11795736
0.022176621 0.0051952386 -0.21406971 0.14094412 0.1458116 -0.07811549 -0.16233106 0.005456719
0.10658814 0.08355466 -0.096359506 0.16668494 0.07276001 -0.11392904 0.015257678 -0.042798135
0.06532188 0.12697025 0.15312378 0.041451108 0.026289193 0.12390431 -0.148429 -0.15331355
-0.26871678 -0.028594337 0.19692165 -0.15221363 -0.19581847 0.13728657 0.13083577 0.24212028
-0.07557703 0.0054708524 0.1396869 -0.13426684 -0.12772004 -0.04514076 0.22700137 0.13361132
-0.027062941 0.10241552 -0.16011761 0.27103484 0.22401276 -0.113510996 -0.11344509 -0.17744733
0.074516065 0.06163128 0.13732024 0.113499306 0.086908795 0.24667242 -0.16501468 -0.20523757
0.23527658 -0.04196673 -0.15810846 0.12924121 0.2703277 -0.10088182 -0.18307945 -0.1979142
-0.036307056 -0.11426079 -0.2345312 0.15675196 0.114141226 -0.06707482 -0.1565173 -0.04673889
-0.22454327 -0.07439041 0.14053622 -0.12704635 -0.15287374 0.1937184 0.0483162 0.16781
-0.13305423 -0.091114365 0.07567959 -0.103411414 -0.14372635 -0.07277023 0.20848763 0.16267736
-0.08001388 -0.009561899 0.14737463 -0.055876583 -0.20695543 0.05935899 0.10913789 0.17084469
0.044607796 0.10350741 0.16061385 -0.10961424 -0.13431402 0.030767882 0.11291809 0.0124523705
-0.16339307 0.0077642472 0.16201764 -0.16370715 -0.19654855 0.121268995 0.10518649 0.27518195
-0.028689533 0.062274482 0.13327368 -0.116499946 -0.16471604 -0.0017499166 0.24451949 0.049579233
0.11101153 0.107979104 -0.104022324 0.12985876 0.045516808 -0.12322002 0.04205914 -0.042703263
0.10692629 0.14581864 0.1820645 0.007387417 0.05057798 0.174428 -0.124211796 -0.15302624
0.15594797 0.07636709 0.012780336 0.091228686 -0.015662456 -0.04208764 0.05339888 0.06286609
0.067441955 0.16775508 0.18930349 -0.025652086 -0.015388635 0.14065608 -0.08052281 -0.12574966
-0.27639395 0.026639886 0.09765215 0.16494684 -0.14132094 0.0070038456 0.080379225 0.049202517
0.14225237 0.08391844 0.35667425 -0.065886736 -0.16266544 0.15477426 0.018118 -0.1491785
0.114207655 -0.035859227 -0.1127496 0.051240176 0.20400712 -0.051532276 -0.12526836 -0.12523618
-0.04909126 -0.08465617 -0.17547138 0.11487506 0.093103416 -0.060221676 -0.071486086 0.0125141125
0.24319573 -0.026108753 -0.13324362 0.11471305 0.17992327 -0.098366834 -0.17556411 -0.2421061
-0.027296921 -5.5021614e-05 -0.18851806 0.2042212 0.15193497 -0.03372784 -0.17422149 -0.014024581
-0.031528905 0.08383067 -0.08578501 0.20324819 0.035591476 -0.10287823 0.016114525 -0.014725746
0.14029229 0.15406275 0.2315985 -0.0027314376 -0.028266333 0.22861362 -0.16181937 -0.17898868
-0.29282317 -0.0924584 0.20305128 -0.22870652 -0.2750359 0.2344163 0.1277506 0.23689026
-0.12955424 -0.06203636 0.13297747 -0.1466728 -0.19799055 -0.10004807 0.3243419 0.21651262
-0.10594183 -0.13368726 0.16147767 -0.21407872 -0.08807221 0.12455628 0.0135285 0.11150655
-0.16132854 -0.08509452 -0.11700731 -0.002600552 -0.09992387 -0.14065553 0.23592228 0.1957493
00000000: 2ae3 6e3e 3f05 4dbd 329c ebbd 9564 25be
00000010: 3fab 453e 571d 3cbe bfaa a5bd a193 f1bd
00000020: bfab b53c d23c aa3b 1735 5bbe a853 103e
00000030: a34f 153e 04fb 9fbd 1d3a 26be 47ce b23b
00000040: e24a da3d b51e ab3d 2258 c5bd 75af 2a3e
00000050: 3303 953d a153 e9bd 57fb 793c 194d 2fbd
00000060: 7ac7 853d 7d04 023e 7bcc 1c3e a3c8 293d
00000070: 6f5c d73c 8bc1 fd3d c6fd 17be 3afe 1cbe
00000080: 3f95 89be ac3e eabc d4a5 493e e4dd 1bbe
00000090: a384 48be da94 0c3e d0f9 053e 61ee 773e
000000a0: 21c8 9abd d644 b33b 150a 0f3e 3f7d 09be
000000b0: 0bc9 02be 84e5 38bd 0c73 683e 68d1 083e
000000c0: 1ab3 ddbc 3abf d13d dff5 23be 14c5 8a3e
000000d0: 9a63 653e 7478 e8bd e655 e8bd c1b4 35be
000000e0: e19b 983d 1571 7c3d ad9d 0c3e 5372 e83d
000000f0: 3dfd b13d b297 7c3e 9cf9 28be cc29 52be
00000100: 58ec 703e 4ee5 2bbd 2fe7 21be cf57 043e
00000110: 6468 8a3e 219b cebd 2e79 3bbe 05aa 4abe
00000120: b5b6 14bd 9001 eabd f228 70be 9683 203e
00000130: e0c2 e93d 865e 89bd 1246 20be 4771 3fbd
00000140: acee 65be 005a 98bd bae8 0f3e 7018 02be
00000150: ef8a 1cbe 1e5e 463e 35e7 453d 62d6 2b3e
00000160: 5e3f 08be 2b9a babd e7fd 9a3d 5dc9 d3bd
00000170: 002d 13be 8f08 95bd c87d 553e e594 263e
00000180: 51de a3bd 83a9 1cbc 60e9 163e d8de 64bd
00000190: 20ec 53be 6a22 733d b083 df3d e9f1 2e3e
000001a0: aab6 363d b1fb d33d f577 243e 6e7d e0bd
000001b0: 9d89 09be ed0c fc3c 9941 e73d 0705 4c3c
000001c0: 8350 27be 3a6b fe3b f4e7 253e d9a2 27be
000001d0: 0644 49be e15b f83d 046c d73d a6e4 8c3e
000001e0: 5006 ebbc 8713 7f3d e578 083e 8697 eebd
000001f0: 52ab 28be 755d e5ba 5163 7a3e 9813 4b3d
00000200: 035a e33d 2624 dd3d a809 d5bd b2f9 043e
00000210: d56f 3a3d c75a fcbd 3446 2c3d 9ee9 2ebd
00000220: 2cfc da3d 7b51 153e 1e6f 3a3e 2512 f23b
00000230: db2a 4f3d 419d 323e c162 febd e9b2 1cbe
00000240: d3b0 1f3e 5966 9c3d 9d64 513c 1bd6 ba3d
00000250: 8d4e 80bc 1764 2cbd c9b8 5a3d f0bf 803d
00000260: 021f 8a3d fdc7 2b3e c6d8 413e 5324 d2bc
00000270: 9d20 7cbc 2608 103e 25e9 a4bd 85c4 00be
00000280: 8283 8dbe e43b da3c dafd c73d d3e7 283e
00000290: 70b6 10be 8480 e53b dd9d a43d 9488 493d
000002a0: 9baa 113e 6edd ab3d 029e b63e a0ef 86bd
000002b0: c591 26be 257d 1e3e 336c 943c 40c2 18be
000002c0: b4e5 e93d 20e1 12bd 43e9 e6bd 38e1 513d
000002d0: 3ee7 503e 8213 53bd 5946 00be ea3d 00be
000002e0: eb13 49bd 3760 adbd c5ae 33be 9e43 eb3d
000002f0: 01ad be3d 01ab 76bd 4c67 92bd fe07 4d3c
00000300: 4d08 793e 06e2 d5bc 0471 08be adee ea3d
00000310: ce3d 383e 8d74 c9bd 14c7 33be a9ea 77be
00000320: cb9d dfbc 02c7 66b8 e10a 41be 5d1f 513e
00000330: d794 1b3e 3426 0abd 1e67 32be 5bc7 65bc
00000340: 7424 01bd 6aaf ab3d 0db0 afbd 4b20 503e
00000350: 5ec8 113d d2b1 d2bd 9c02 843c 4144 71bc
00000360: c8a8 0f3e a0c2 1d3e 2828 6d3e eb01 33bb
00000370: cc8e e7bc b019 6a3e fab3 25be cf48 37be
00000380: ebec 95be d45a bdbd adec 4f3e 0b32 6abe
00000390: 81d1 8cbe d40a 703e 0ed1 023e 5c93 723e
000003a0: dea9 04be d719 7ebd 3f2b 083e 6531 16be
000003b0: 09be 4abe 01e6 ccbd 2410 a63e 7cb5 5d3e
000003c0: 08f8 d8bd 50e5 08be 675a 253e 7437 5bbe
000003d0: 345f b4bd 5d17 ff3d a4a6 5d3c 8c5d e43d
000003e0: 4f33 25be 0946 aebd 87a1 efbd 066e 2abb
000003f0: e3a4 ccbd 0108 10be 9c95 713e 8172 483e

convs.3.fcn.bias f4 [16]
0.076252244 0.06306098 0.026133412 0.13935903 0.026060117 -0.028766165 0.0114759505 -0.013787504
0.11179319 0.028680757 0.19187774 -0.031113015 0.01565277 0.14176098 -0.020871097 -0.098044716
00000000: 232a 9c3d 1d26 813d bd15 d63c 22b4 0e3e
00000010: 077c d53c 05a7 ebbc a005 3c3c fce4 61bc
00000020: d4f3 e43d e8f3 ea3c 997b 443e b9e0 febc
00000030: 3d3a 803c ca29 113e ddf9 aabc abcb c8bd

convs.4.deg_coeff f4 [2]
0.85566264 -0.16192956
00000000: b50c 5b3f ddd0 25be

convs.4.coeff f4 [3]
-0.49894044 -0.48336613 0.49972135
00000000: 1f75 ffbe c47b f7be 7adb ff3e

convs.4.fcn.weight f4 [5, 16]
0.37994567 0.33574754 -0.4822333 0.17276809 -0.2583113 -0.38764817 0.4131225 0.19094174
0.28017268 0.2949077 0.023798972 -0.45702153 0.55725473 0.097404554 -0.5034581 -0.27471006
-0.59146154 -0.52115273 0.64752436 -0.6771222 -0.4843796 0.66284394 0.20269985 0.4023933
-0.51683897 -0.27825373 0.45669723 -0.435706 -0.6005281 -0.44159034 0.6714481 0.6412496
0.5771247 -0.49082687 -0.13227148 -0.5621319 0.69003093 0.019424425 -0.57729346 -0.5581359
-0.48935375 -0.41719475 -0.5708554 0.24983755 0.24515238 -0.6564218 -0.25466138 0.46913576
-0.54949105 0.11505672 -0.29642966 0.634089 0.4762963 -0.050168358 -0.47775102 -0.5850014
0.16895053 0.024412353 0.6682416 0.015383776 0.19546759 0.36372724 -0.5528349 -0.3993795
0.586948 0.16476582 -0.06309499 -0.24480322 -0.11363738 -0.39265454 0.3577963 0.052961547
0.4367828 0.54592395 0.6096736 -0.33297452 -0.14653994 0.2116896 -0.42786163 -0.48825905
00000000: 3d88 c23e 1ae7 ab3e 48e7 f6be 1eea 303e
00000010: 6141 84be d279 c6be cb84 d33e 3b86 433e
00000020: cb72 8f3e 24fe 963e 10f6 c23c bafe e9be
00000030: 3fa8 0e3f 0a7c c73d a1e2 00bf cca6 8cbe
00000040: 066a 17bf 446a 05bf 28c4 253f e157 2dbf
00000050: 9a00 f8be 24b0 293f 8d90 4f3e 7f06 ce3e
00000060: 8f4f 04bf 4677 8ebe 38d4 e93e db14 dfbe
00000070: 36bc 19bf 2118 e2be 06e4 2b3f ef28 243f
00000080: 72be 133f a94d fbbe 2d72 07be e0e7 0fbf
00000090: dea5 303f f91f 9f3c 81c9 13bf ffe1 0ebf
000000a0: 938c fabe 8d9a d5be 9423 12bf 6ad5 7f3e
000000b0: 3a09 7b3e 420b 28bf fa62 82be 9032 f03e
000000c0: 72ab 0cbf dca2 eb3d a1c5 97be a853 223f
000000d0: 1cdd f33e 567d 4dbd c89b f4be a7c2 15bf
000000e0: 5e01 2d3e 6afc c73c e211 2b3f 3c0c 7c3c
000000f0: a828 483e 753a ba3e 9786 0dbf 787b ccbe
00000100: 3942 163f 5fb8 283e f237 81bd b2ad 7abe
00000110: b7ba e8bd 040a c9be 1431 b73e 35ee 583d
00000120: ffa1 df3e acc1 0b3f 9213 1c3f a37b aabe
00000130: 910e 16be 29c5 583e ae10 dbbe 17fd f9be

convs.4.fcn.bias f4 [5]
0.00017484932 0.25403655 0.38767657 0.11872285 0.20726672
00000000: c257 3739 1411 823e 8b7d c63e f724 f33d
00000010: ba3d 543e

fcn.weight f4 [16, 1703]
-0.12741733 -0.0044443673 -0.044766802 0.052485842 0.07765188 -0.011031265 -0.09692586 -0.13074565
-0.0025814148 0.06439979 0.0033845676 0.41377753 0.08554073 -0.14896408 0.0020509374 -0.1643389
-0.077648565 -0.12598087 0.30755368 -0.0906951 0.05426202 -0.009984176 0.12815525 -0.24898088
-0.0046881344 0.06214589 -0.00023882337 -0.12350221 -0.00082874147 0.00172275 0.44633058 -0.0037767699
-0.21016133 -0.08805522 -0.025610521 -0.05756477 -0.122474365 -0.21619622 -0.014742501 -0.038748924
0.08279326 -0.32160622 -0.0773248 0.47090137 0.023870038 -0.40560976 -0.3773771 -0.13360144
-0.08866353 -0.0008355819 -0.032099843 -0.0019594037 -0.00046276118 -0.035635907 -0.012668642 -0.013156683
0.07277527 -0.26126668 -0.41577774 -0.40818173 0.08899576 -0.06336559 -0.016081348 0.044419564
-0.1297686 -0.05283092 0.065278165 9.62466e-05 0.10161883 -0.056953482 -0.061731502 0.07334686
-0.024326745 -0.02855355 -0.04457038 -0.068416655 0.03006814 -0.029558888 -0.2261325 -0.08146979
-0.030597787 -0.1632485 0.00018294086 0.25015762 -0.043027382 -0.0006503081 -0.01986934 -0.00060660596
-0.00072375435 -0.030029189 0.15029699 0.23554762 -0.14699778 0.10027362 0.043097015 -0.09734316
0.047939304 0.060167063 -0.018211236 0.00023748819 0.02370578 0.041780747 -0.17645992 0.0003544616
-0.03449284 0.08307192 0.021382838 0.009927394 0.04915101 0.19865638 0.07796643 0.016734727
-0.029492768 -0.06014782 -0.4134491 0.4570363 -0.15867995 0.00036180357 0.0034277674 0.0012617114
0.33204392 0.18380412 0.109406255 0.0013176816 0.06586437 -0.045195416 0.0007504181 -0.07882599
-0.1228163 0.060706273 0.14856 -0.1575561 0.12427937 0.023337305 0.06063282 -0.357943
-0.22433177 -0.20404486 -0.08654241 0.017400013 0.07510297 0.44204426 0.44708815 0.033556193
-0.23693065 -0.030241704 -0.12628716 0.46267983 -0.0014838676 0.3839442 0.04949087 0.22369516
-0.3422045 0.0030583884 0.33357194 -0.00044283288 -0.0027235434 -0.0025934414 0.040129423 -0.028327102
-0.0011480976 -0.046729997 -0.031414445 -0.16693869 0.4112151 0.035079855 0.043163136 -0.3984964
0.08356478 0.005733249 -0.014656207 -0.047799446 0.051096924 -0.21418405 -0.19889316 -0.026807122
0.0017083583 0.14423482 -0.0012889905 -0.045418195 -0.047116455 -0.36682123 0.0046351016 -0.06739392
0.026604744 -0.2076353 -0.009977715 0.07835352 -0.08684874 -0.0011222085 -0.018705979 -0.02690196
0.12506054 -0.120965414 -0.026310941 -0.18530239 -0.015321624 0.031271055 0.06381478 0.044194993
-0.04637803 0.09335781 -0.000752782 -0.027847147 0.032103263 -0.0092230085 -0.010771679 0.053529803
0.027115794 0.0008712718 0.060998026 -0.0011652655 -0.07976597 0.1056056 0.04488276 0.008068657
0.053955738 -0.29020438 0.028130203 -0.21036276 -0.028414842 0.11969203 0.10712975 -0.019130716
-0.05115291 -0.09217384 -0.39931974 0.15266521 0.47571015 -0.09531536 0.0035315924 0.11328669
0.099618606 -0.017614577 0.024541382 -0.17021544 0.42162117 0.03943084 0.0008106234 0.10791359
0.08463892 -4.3724882e-05 -0.015496994 0.18518893 0.09741561 0.04440917 -0.088457815 0.012860085
0.0003521197 -0.00023458761 -0.042415716 0.044724006 -0.34982273 -0.023125049 0.0706099 -0.11172214
00000000: b079 02be 0ea2 91bb 655d 37bd 65fb 563d
00000010: f307 9f3d 7bbc 34bc 1181 c6bd 30e2 05be
00000020: f42c 29bb 09e4 833d 9fcf 5d3b a6da d33e
00000030: fa2f af3d 0a8a 18be 0569 063b 7548 28be
00000040: 3606 9fbd 2101 01be ad77 9d3e 5abe b9bd
00000050: da41 5e3d ab94 23bc 213b 033e d8f4 7ebe
00000060: ec9e 99bb b08c 7e3d a96c 7ab9 baee fcbd
00000070: e63f 59ba e6cd e13a 7185 e43e af83 77bb
00000080: 8834 57be 4c56 b4bd 28cd d1bc 09c9 6bbd
00000090: d7d3 fabd 8b62 5dbe 888a 71bc 31b7 1ebd
000000a0: 838f a93d 92a9 a4be 775c 9ebd fc19 f13e
000000b0: 198b c33c 15ac cfbe 9237 c1be d1ce 08be
000000c0: 3a95 b5bd f40a 5bba 207b 03bd 5769 00bb
000000d0: c19e f2b9 f5f6 11bd 2390 4fbc 218f 57bc
000000e0: 330b 953d bfc4 85be d2e0 d4be 32fd d0be
000000f0: 6943 b63d d2c5 81bd 08bd 83bc 4af1 353d
00000100: 0fe2 04be 3c65 58bd 8fb0 853d 00d8 c938
00000110: 881d d03d 0e48 69bd 2cda 7cbd e136 963d
00000120: e248 c7bc 22e9 e9bc 6e8f 36bd 081e 8cbd
00000130: 7651 f63c 7b25 f2bc 478f 67be a2d9 a6bd
00000140: 36a8 fabc 9d2a 27be d0d3 3f39 a914 803e
00000150: 7b3d 30bd 7079 2aba 07c5 a2bc a304 1fba
00000160: 55ba 3dba c6ff f5bc 74e7 193e 6533 713e
00000170: 9686 16be 415c cd3d 7f86 303d da5b c7bd
00000180: 015c 443d bd71 763d bb2f 95bc 4006 7939
00000190: a032 c23c 4a22 2b3d e9b1 34be 08d7 b939
000001a0: 5d48 0dbd 9c21 aa3d 102b af3c 82a6 223c
000001b0: 9252 493d 946c 4b3e ddac 9f3d 4417 893c
000001c0: d19a f1bc 8f5d 76bd 9aaf d3be a900 ea3e
000001d0: ff7c 22be 74b0 bd39 65a4 603b 0260 a53a
000001e0: a901 aa3e 2637 3c3e 6310 e03d 0fb6 ac3a
000001f0: e6e3 863d d41e 39bd b5b7 443a 856f a1bd
00000200: 1d87 fbbd 24a7 783d 1d20 183e 6356 21be
00000210: 2f86 fe3d e02d bf3c 1f5a 783d 4e44 b7be
00000220: 3ab7 65be 23f1 50be 263d b1bd 798a 8e3c
00000230: 96cf 993d a053 e23e bde8 e43e 3872 093d
00000240: f39d 72be 73bd f7bc 6c51 01be 5fe4 ec3e
00000250: 567e c2ba 5694 c43e f0b6 4a3d 5810 653e
00000260: 6e35 afbe 3e6f 483b f1c9 aa3e 062c e8b9
00000270: 7a7d 32bb baf6 29bb c05e 243d 3d0e e8bc
00000280: c37b 96ba f467 3fbd 6fac 00bd faf1 2abe
00000290: c98a d23e e5af 0f3d d4cb 303d b807 ccbe
000002a0: 0324 ab3d fadd bb3b 9620 70bc 5ac9 43bd
000002b0: 024b 513d 1053 5bbe a6aa 4bbe 9c9a dbbc
000002c0: feea df3a 4bb2 133e 58f3 a8ba 6e08 3abd
000002d0: 2ffd 40bd fecf bbbe 0de2 973b d305 8abd
000002e0: 31f2 d93c 599e 54be 9279 23bc cf77 a03d
000002f0: c1dd b1bd 1217 93ba 483d 99bc 8061 dcbc
00000300: df0f 003e b7bc f7bd 0b8a d7bc e9bf 3dbe
00000310: 8d07 7bbc 1416 003d 53b1 823d cf05 353d
00000320: e4f6 3dbd 6132 bf3d 5856 45ba b31f e4bc
00000330: b67e 033d 1a1c 17bc b27b 30bc 1142 5b3d
00000340: f121 de3c 1066 643a 11d9 793d d2bb 98ba
00000350: 575c a3bd c047 d83d fcd6 373d 6632 043c
00000360: b100 5d3d ab95 94be 5071 e63c 5669 57be
00000370: 3ec6 e8bc 1821 f53d d866 db3d 05b8 9cbc
00000380: b785 51bd a3c5 bcbd a373 ccbe 4554 1c3e
00000390: 4890 f33e b334 c3bd 4a72 673b da02 e83d
000003a0: d704 cc3d 724c 90bc 020b c93c f54c 2ebe
000003b0: bbde d73e 3c82 213d 0480 543a cd01 dd3d
000003c0: 2c57 ad3d 3c65 37b8 1be7 7dbc 2ba2 3d3e
000003d0: d681 c73d 64e6 353d 5f29 b5bd 1bb3 523c
000003e0: b59c b839 a2fb 75b9 1abc 2dbd 8530 373d
000003f0: f71b b3be be70 bdbc ec9b 903d 94ce e4bd

fcn.bias f4 [16]
0.1629719 -0.08643968 0.11326907 0.037301186 0.21840183 0.10011202 -0.09393001 -0.0148913665
-0.06512664 -0.027201343 0.09636827 0.18494877 -0.072235756 0.0026613597 0.06389073 0.097547844
00000000: 1be2 263e 4907 b1bd 9df9 e73d 21c9 183d
00000010: bba4 5f3e 8807 cd3d 615e c0bd ebfa 73bc
00000020: 1e61 85bd 5ad5 debc ba5c c53d 3663 3d3e
00000030: 57f0 93bd 356a 2e3b 25d9 823d 2ac7 c73d
