GGCN/pretrained/GGCN_squirrel_04_14_28_24.pt (torch, 539457 bytes, 10 tensors)

convs.0.deg_coeff f4 [2]
-1.0493243 2.4986136
00000000: 4250 86bf 49e9 1f40

convs.0.coeff f4 [3]
1.9317244 -0.81906253 -1.2976278
00000000: bf42 f73f 15ae 51bf ab18 a6bf

convs.0.fcn.weight f4 [32, 2089]
0.018916463 -0.011968466 -0.00038733723 0.009130269 0.016235124 0.0063015544 0.0071956273 -0.0044838334
0.040319875 0.0121678095 5.2950717e-12 0.024268245 0.009806535 0.041033845 -0.013475877 0.07796387
2.925375e-11 0.0095607545 1.2685287e-11 -0.027239986 0.023765726 -9.870839e-05 -0.02713728 0.025109468
3.5286794e-05 0.027128091 0.05085743 -0.010561778 0.038544744 -0.0079701375 -0.00021519612 6.4286766e-12
0.00809961 0.022941642 0.03747156 -0.0038357752 0.0052389754 4.9962546e-06 -0.03581476 0.017225148
-1.8019036e-11 -2.7077361e-11 -0.003594964 0.029755991 -6.8765273e-13 0.013556701 -0.008921281 -2.2370045e-11
-0.011225622 0.00010868041 0.057525214 -0.04369071 0.032449048 0.02148966 -0.041331198 0.0044464213
0.0028702396 0.0491808 -0.049877334 0.017385399 1.3941493e-05 -4.5095072e-05 0.013521217 -0.0056868643
-0.032300357 -0.009364641 0.009360381 -1.36210964e-11 0.047992915 1.5545727e-05 -0.00085991767 -0.08480952
0.018506618 0.0021104654 0.015612204 0.018686373 0.0060573136 -0.00017099088 0.024086399 0.025033835
-2.2928276e-11 1.7462811e-05 -1.0956202e-11 0.025752516 -0.07358783 0.00026761767 -0.0025970957 0.0043717213
-0.004726804 0.0061854883 0.054237142 -0.008740664 -0.023678407 -0.0050488636 -0.003871883 2.1439402e-11
2.4856687e-05 3.6393237e-12 1.1387975e-11 0.0035962206 -0.065346144 -0.006273304 -0.025893843 -0.071682535
0.0019733931 0.01827849 0.0029026545 0.0043696784 0.00041361985 -0.02743843 0.0272663 -0.012453047
0.025067884 -0.02329139 3.135475e-12 -4.210592e-05 0.011010684 0.0049993736 0.0024692465 0.008377822
-0.026458587 0.038406987 -1.6312115e-11 0.058815043 -0.004512047 -0.07389271 -0.0080806 0.042581182
-0.002824199 -0.010565231 -0.000120212724 -0.032263808 0.03966033 0.025003305 6.385243e-05 0.004884141
-0.038597886 -0.017604053 -0.021337822 0.062491626 0.07572717 0.0010169247 0.01888955 0.024615351
-0.018759904 0.039098542 0.010588121 0.016939549 -0.01551389 3.4257572e-11 0.015605945 0.008425265
-0.0062233726 0.029063474 -0.0015094616 -0.0033198127 -1.5134624e-11 0.008266356 -1.852618e-11 0.024076689
-0.014865071 -0.007414829 7.179579e-05 -0.0056067775 8.840556e-12 0.023115085 0.009094979 -0.012233904
-0.0028813484 -0.012596115 -0.016680188 -0.002744799 -0.0050763106 0.0029539529 -0.017727943 0.0018246758
-4.4784665e-05 -9.089842e-06 -0.00499578 -0.0155525245 -0.011213143 -0.0060217935 -0.0041087484 -0.018657586
0.007086817 0.00013262281 0.0075217243 2.0693665e-06 -0.006481288 -0.024414076 0.0069875293 0.021965262
-0.006272715 -0.047343116 -0.005171965 -4.703471e-05 -0.00041104792 0.03834242 2.4171004e-11 -1.7333574e-11
9.546887e-05 -0.03046415 0.0014661504 0.014712021 0.06381373 0.002608234 0.022992214 2.8927366e-11
0.06311764 7.835078e-05 0.010332344 5.6251065e-05 -0.024420356 0.0057001673 0.000224318 -0.026017915
-0.0011383411 0.03494921 -0.00016434507 0.014955722 0.03464181 -2.6218899e-11 0.037563775 -0.049731225
-0.027598053 -0.0034648299 5.092307e-12 0.027356047 0.07383656 -0.012857129 0.0009340718 -0.042521123
-0.023316868 -0.01941459 -3.2169675e-05 0.049393002 0.0148568805 0.0018293391 -0.02868494 0.0061369026
0.0001381424 0.04123504 -0.017615335 -0.009581057 -0.0019366217 0.0078065824 1.5768956e-11 0.00037553668
0.00013247147 -0.005408833 -0.021835374 -0.022994578 0.042166438 -0.00011655464 -0.005449929 0.021605691
00000000: b3f6 9a3c 6317 44bc 8613 cbb9 2097 153c
00000010: 86ff 843c 457d ce3b 4cc9 eb3b 1fed 92bb
00000020: 7426 253d 7e5b 473c c44d ba2c 33ce c63c
00000030: 97ab 203c 1b13 283d edc9 5cbc 85ab 9f3d
00000040: cba8 002e b6a4 1c3c 7429 5f2d 6426 dfbc
00000050: 57b0 c23c aa01 cfb8 004f debc 5fb2 cd3c
00000060: e800 1438 bb3b de3c e14f 503d 4f0b 2dbc
00000070: 18e1 1d3d 2e95 02bc 45a6 61b9 5f30 e22c
00000080: 3ab4 043c 1cf0 bb3c c77b 193d a161 7bbb
00000090: b6ab ab3b 80a5 a736 7fb2 12bd c11b 8d3c
000000a0: 437f 9ead cc2c eead 7d99 6bbb d6c2 f33c
000000b0: 9a8e 41ab ed1c 5e3c 912a 12bc ddc4 c4ad
000000c0: aceb 37bc 5aeb e338 8f9f 6b3d 08f5 32bd
000000d0: 4be9 043d 150b b03c e74a 29bd 49b3 913b
000000e0: a11a 3c3b ce71 493d 2d4c 4cbd d36b 8e3c
000000f0: 42e6 6937 7724 3db8 1888 5d3c e058 babb
00000100: 614d 04bd 276e 19bc 495c 193c f79f 6fad
00000110: 3894 443d 3268 8237 196c 61ba 9db0 adbd
00000120: 319b 973c bc4f 0a3b 54ca 7f3c 2a14 993c
00000130: 6e7c c63b 044c 33b9 d750 c53c c213 cd3c
00000140: e3ad c9ad 1a7d 9237 59be 40ad f1f6 d23c
00000150: 37b5 96bd 094f 8c39 0934 2abb a840 8f3b
00000160: 4ee3 9abb a3af ca3b c427 5e3d 0135 0fbc
00000170: 38f9 c1bc f070 a5bb 6bbf 7dbb 3e95 bc2d
00000180: 5483 d037 1d0c 802c e156 482d 92ae 6b3b
00000190: 33d4 85bd 4a90 cdbb 531f d4bc 4bce 92bd
000001a0: 0b54 013b c6bc 953c 763a 3e3b 852f 8f3b
000001b0: 1edb d839 8fc6 e0bc 935d df3c dd07 4cbc
000001c0: 2a5b cd3c 96cd bebc b2a3 5c2c e39a 30b8
000001d0: 2866 343c c9d1 a33b 15d3 213b 2243 093c
000001e0: aebf d8bc a550 1d3d 9e7b 8fad 0be8 703d
000001f0: cbd9 93bb 1055 97bd 7e64 04bc 9b69 2e3d
00000200: 3216 39bb ca19 2dbc b71a fcb8 0e27 04bd
00000210: df72 223d bbd3 cc3c 83e8 8538 250b a03b
00000220: d118 1ebd 6036 90bc a8cc aebc 38f7 7f3d
00000230: d916 9b3d 554a 853a 42be 9a3c 22a6 c93c
00000240: 5fae 99bc cb25 203d cc79 2d3c cfc4 8a3c
00000250: f92d 7ebc 99aa 162e 14b0 7f3c 1f0a 0a3c
00000260: 6fed cbbb 8616 ee3c 20d9 c5ba 3791 59bb
00000270: 2520 85ad 9c6f 073c 40f5 a2ad 7a3c c53c
00000280: a08c 73bc 18f8 f2bb 1291 9638 0fb9 b7bb
00000290: 5386 1b2d d95b bd3c 1b03 153c b670 48bc
000002a0: 01d5 3cbb ef5f 4ebc e4a4 88bc 16e2 33bb
000002b0: 2e57 a6bb 1b97 413b 313a 91bc f629 ef3a
000002c0: 2bd7 3bb8 9380 18b7 a4b3 a3bb 04d0 7ebc
000002d0: 55b7 37bc 7752 c5bb aea2 86bb cbd7 98bc
000002e0: 8838 e83b aa10 0b39 cc78 f63b 72df 0a36
000002f0: fc60 d4bb 0700 c8bc a5f7 e43b 7ef0 b33c
00000300: 598b cdbb dbea 41bd 9679 a9bb 2347 45b8
00000310: eb81 d7b9 f10c 1d3d 439c d42d bd77 98ad
00000320: 7636 c838 f48f f9bc d82b c03a b00a 713c
00000330: c6b0 823d e8ee 2a3b 2b5a bc3c a372 fe2d
00000340: d243 813d 4150 a438 fe48 293c 1fef 6b38
00000350: 330d c8bc 78c8 ba3b e836 6b39 8623 d5bc
00000360: 6434 95ba e726 0f3d 0b54 2cb9 d808 753c
00000370: 92e4 0d3d b69f e6ad 79dc 193d f8b2 4bbd
00000380: 5015 e2bc 3312 63bb 6c2b b32c ca19 e03c
00000390: 9f37 973d b5a6 52bc 7fdc 743a a12a 2ebd
000003a0: 0403 bfbc 590b 9fbc eded 06b8 5150 4a3d
000003b0: 466a 733c 6fc6 ef3a aefc eabc 1218 c93b
000003c0: 51da 1039 13e6 283d 094e 90bc def9 1cbc
000003d0: 3ed6 fdba 5cce ff3b 88b4 8a2d aee3 c439
000003e0: 0ae8 0a39 943c b1bb 19e0 b2bc 205f bcbc
000003f0: b7b6 2c3d cc6e f4b8 5195 b2bb 6bfe b03c

convs.0.fcn.bias f4 [32]
0.005305322 0.0048693144 0.002932923 0.0009944915 0.00015392425 -0.0016346717 -0.0010519661 -0.004380324
-0.00069285015 0.0008524174 0.008882084 0.000556214 0.17422964 0.005188033 0.0066376654 0.015065247
-0.0013307346 0.0006004335 0.00029169928 0.00023658888 0.021101154 0.018049804 0.0031177448 0.0057472587
0.1433078 0.00039591055 -0.00056830555 -0.001660432 0.0031936064 0.0007286437 0.014835363 0.0008848611
00000000: 44d8 ad3b c58e 9f3b 4836 403b 9959 823a
00000010: ba66 2139 7b42 d6ba 20e2 89ba d288 8fbb
00000020: 63a0 35ba c374 5f3a 2986 113c e4ce 113a
00000030: 4169 323e 6000 aa3b c680 d93b 3ad4 763c
00000040: 0b6c aeba 6966 1d3a 37ef 9839 d814 7839
00000050: 54dc ac3c 2fdd 933c 1453 4c3b 8053 bc3b
00000060: 48bf 123e 3792 cf39 57fa 14ba daa2 d9ba
00000070: d34b 513b 7302 3f3a 0610 733c 06f6 673a

convs.1.deg_coeff f4 [2]
0.041193355 0.04496371
00000000: 5dba 283d de2b 383d

convs.1.coeff f4 [3]
-1.1731921 -1.1513877 2.2719867
00000000: 292b 96bf ac60 93bf 3b68 1140

convs.1.fcn.weight f4 [5, 32]
-0.3697285 -0.65090054 -0.6548074 -0.883016 0.11338446 0.5236969 0.71875983 0.85691774
1.3870989 0.0012308265 -0.2949126 -0.029068464 0.03792039 -0.6214783 -0.30021092 -0.20729205
1.0041649 0.014081668 -0.56981766 0.8680915 -0.15672569 -0.19788706 -0.6686157 -0.33255628
0.011398711 -0.040249284 0.4008108 -0.010857822 -0.38752288 -0.33218423 -0.18760152 0.45078042
-0.072847396 -0.04914256 -0.04003788 0.422503 1.0252565 1.2388089 0.62374115 0.00047201096
-0.61811966 0.13450247 -0.10387152 -0.25953078 0.053055935 0.03048754 -0.04045227 -0.034426656
-0.9466481 -0.37447098 0.21461141 -0.29839313 -0.02354295 -0.05153157 0.064663365 -0.08078154
0.042049076 -0.4753278 -0.4194961 -0.7259117 0.2687705 1.1215976 -0.055943973 1.062501
0.051473744 0.13583045 0.05144859 -0.6870994 0.46464476 -0.69815683 -0.95001125 -0.17616731
-0.39006278 -0.557321 0.04555 -1.0605114 0.057934456 0.1053514 0.042281605 0.05674956
0.00969944 0.034470957 -0.6793727 0.58360004 0.04171485 0.039495472 0.783008 0.04977846
0.05795625 0.65297675 -0.63622344 0.4279794 -0.013841082 0.81122535 0.021063834 -0.64890474
0.16185816 0.22829138 0.26000735 0.6683062 -1.2512523 -0.5021615 -0.55855256 -0.30213356
-0.85848767 -0.48896793 0.12149752 0.57252854 0.07155162 0.19544333 0.14032744 0.092606604
0.61411476 -0.42212903 0.4365418 -0.59089553 0.08264768 0.108911626 -0.7524111 0.14182012
0.055919632 -1.0899655 -0.22762582 -0.43850905 -0.3852822 -0.8454612 0.11599846 -0.62072504
0.26946443 0.33389765 0.37271094 0.41613403 -0.35524523 -0.55577606 0.20858787 -0.37069258
0.41763887 0.9471581 0.24968204 0.76627976 0.07690441 0.29804537 0.22511344 0.19591746
-0.6507461 0.7507887 0.55444384 -0.5804836 0.14431998 0.19179212 0.56912297 0.252681
0.081158176 0.95450544 0.91520816 0.7588659 0.5398941 -0.71663046 0.17955199 -0.24158148
00000000: 0e4d bdbe 6ba1 26bf 75a1 27bf 560d 62bf
00000010: 1d36 e83d 0011 063f a500 383f f65e 5b3f
00000020: 758c b13f af53 a13a c9fe 96be fd20 eebc
00000030: 6952 1b3d 3419 1fbf 3fb5 99be 5e44 54be
00000040: 7a88 803f ccb6 663c 92df 11bf 3f3b 5e3f
00000050: b37c 20be e8a2 4abe 662a 2bbf d144 aabe
00000060: a9c1 3a3c 6fdc 24bd 1337 cd3e 02e5 31bc
00000070: 6669 c6be 0d14 aabe 9d1a 40be b1cc e63e
00000080: 0431 95bd b649 49bd c3fe 23bd 5052 d83e
00000090: 9b3b 833f 4a91 9e3f 80ad 1f3f 3d78 f739
000000a0: 173d 1ebf 04bb 093e 97ba d4bd 38e1 84be
000000b0: 2e51 593d 01c1 f93c 48b1 25bd f702 0dbd
000000c0: 8857 72bf a9ba bfbe 18c3 5b3e fcc6 98be
000000d0: 25dd c0bc c412 53bd 3a6e 843d cb70 a5bd
000000e0: a73b 2c3d 2a5e f3be 31c8 d6be 59d5 39bf
000000f0: 499c 893e 8390 8f3f 8225 65bd 0800 883f
00000100: 22d6 523d 2317 0b3e c2bb 523d bfe5 2fbf
00000110: ebe5 ed3e 68ba 32bf f033 73bf 3465 34be
00000120: 4fb6 c7be 97ac 0ebf a392 3a3d d6be 87bf
00000130: ae4c 6d3d 7ac2 d73d 7a2f 2d3d 3a72 683d
00000140: 66ea 1e3c 6b31 0d3d 5feb 2dbf d066 153f
00000150: 31dd 2a3d 01c6 213d 3673 483f 80e4 4b3d
00000160: 8863 6d3d 7c29 273f 8adf 22bf 1e20 db3e
00000170: b5c5 62bc 77ac 4f3f 108e ac3c 9f1e 26bf
00000180: 25be 253e 37c5 693e af1f 853e 1d16 2b3f
00000190: 0929 a0bf a88d 00bf 4dfd 0ebf 40b1 9abe
000001a0: d9c5 5bbf 015a fabe b1d3 f83d 3b91 123f
000001b0: a889 923d 4c22 483e ffb1 0f3e 88a8 bd3d
000001c0: a036 1d3f 4c21 d8be 6882 df3e ee44 17bf
000001d0: 3043 a93d 0f0d df3d 049e 40bf 4b39 113e
000001e0: fc0b 653d fd83 8bbf be16 69be 4284 e0be
000001f0: b543 c5be 2570 58bf 9a90 ed3d d6e7 1ebf
00000200: 3ef7 893e a2f4 aa3e f8d3 be3e 850f d53e
00000210: b4e2 b5be 5747 0ebf 0f98 553e 6bcb bdbe
00000220: c3d4 d53e f478 723f a6ac 7f3e e92a 443f
00000230: 0f80 9d3d 6799 983e 2384 663e 969e 483e
00000240: 4c97 26bf b033 403f 08f0 0d3f 939a 14bf
00000250: 9ec8 133e 2765 443e 0bb2 113f 675f 813e
00000260: 4236 a63d 785a 743f 154b 6a3f 0945 423f
00000270: 8036 0a3f 1875 37bf 7adc 373e 2361 77be

convs.1.fcn.bias f4 [5]
0.045317087 0.011599811 0.114859395 0.08941175 -0.22624287
00000000: 699e 393d 220d 3e3c 673b eb3d 821d b73d
00000010: 36ac 67be

fcn.weight f4 [32, 2089]
0.0036173689 -0.0011538576 -0.0011902899 -0.013245489 0.0013118215 0.043787282 0.0048873574 -0.029740632
0.019729644 0.017697774 3.4590986e-11 -0.00082994875 0.0040538902 0.011292591 0.03872523 0.008927753
9.9514e-13 -0.012101956 1.1062276e-11 -0.006947853 -0.0035243633 -0.00058121514 0.021621266 -0.004084605
-0.00031337194 0.045251608 0.017581807 0.00925845 0.010493958 -0.0074370266 -0.0014053746 -1.1755808e-11
0.00021613087 0.0032918141 0.017852472 0.006744831 0.007523305 -0.00014313267 0.003999967 0.0015129828
1.7634633e-11 1.7595416e-11 0.04152397 0.003319524 3.6300106e-12 0.012966095 -0.02208347 -6.3987886e-12
0.026618108 8.395354e-05 0.039950658 -0.023728233 -0.016228013 0.014062622 0.010565275 -0.012118002
0.010455224 0.02249829 0.016083349 0.0041166293 0.0001998176 -0.00012394224 -0.0013041147 0.024704244
0.008395395 0.0039872616 0.0062495447 5.010026e-12 0.002129987 -0.0005234253 0.017042123 -0.002265218
0.011195896 -0.0012380646 0.00551941 0.008234368 0.0042557423 0.00016146568 0.018084053 0.0015068587
1.6909113e-11 -0.00017812943 1.2302117e-11 0.0076956106 0.00719196 -0.00066035404 0.027930517 0.0006486769
0.0021373113 0.01084284 0.0076343254 0.015356523 -0.0009829315 0.01158991 0.0010889947 5.675727e-13
4.1092186e-05 -1.502538e-11 -8.853526e-12 0.003551036 -0.0001688458 -0.008654716 0.022553677 -0.0064980984
-0.0046395604 -0.00989023 0.026313085 4.294686e-05 0.011303439 -0.010340662 0.019515065 -0.009286754
-0.0066712094 0.02156801 6.778642e-12 -0.00016070307 0.00096269423 0.0042653787 0.012600576 0.0124036325
0.03024471 0.014306893 1.3758581e-11 0.02871132 0.014381976 0.036080603 -5.842564e-05 0.011402115
0.018191796 -0.03722065 9.1741174e-05 -0.009014348 0.014486182 0.011664533 9.653136e-05 0.0012900991
0.022324044 -0.001001494 -0.024797317 -0.0019030937 0.0009257886 0.001009582 0.0044684876 0.013816195
0.010914701 0.015682774 0.00031649173 0.002876038 -0.0031250499 -3.360239e-11 0.0067613493 0.01695017
-0.00819162 -0.0019931938 -0.0069004036 0.027442625 -1.3225635e-11 0.0031954413 1.16699185e-11 -0.007861873
0.011245262 0.00046313574 0.00018837432 0.00049482955 1.5065907e-11 0.011410633 -0.00029989565 0.02147125
-0.0045239027 0.008798975 -0.01600971 -0.0016692849 0.00170887 -0.00016570176 -0.0034398371 0.008800366
0.00013733172 0.00024983933 0.012251226 0.004685156 -0.02290219 -0.0025116692 0.0035880047 -0.0126250945
-0.02839465 0.00034518554 0.023812024 -9.554653e-05 -0.019801734 -0.004156261 0.023246672 -0.0012386712
0.0060446993 -0.0033974245 0.0043043806 -8.840382e-05 0.0068724146 0.007945577 1.1997502e-11 1.2798924e-12
0.00017590952 0.0007429265 0.014258736 0.0057280823 -0.006837362 -0.005973244 -0.0006640286 8.489426e-12
-0.0111705 0.00024691178 -3.2983273e-05 -6.001476e-05 -0.027624108 0.013599576 -2.9257279e-05 0.00023981574
0.0018469229 -0.0068937903 0.006805031 -0.002704973 0.023208795 -5.5292207e-12 -0.029518181 0.0015715964
0.0008301449 0.011874528 -9.811173e-13 0.0030992927 0.0047939634 0.0036839677 -0.0019146224 0.03540074
0.016366996 0.026880922 0.00028200267 0.040257536 -0.00030831157 -0.0072791236 -0.0017753291 0.011985618
-0.00026621454 0.034408424 0.0050672456 -0.013449127 1.6433337e-06 0.015202894 3.1338463e-11 -0.00011696806
0.00028721185 0.01777072 0.012716517 0.006662263 -0.0020038807 0.00014290579 -0.013506332 0.013788224
00000000: 6111 6d3b 093d 97ba 8003 9cba 9c03 59bc
00000010: 6df1 ab3a 4b5a 333d 2026 a03b a0a2 f3bc
00000020: 10a0 a13c ecfa 903c fd21 182e eb90 59ba
00000030: 7fd6 843b 8f04 393c 599e 1e3d b645 123c
00000040: b20d 8c2b 4847 46bc 109c 422d d1aa e3bb
00000050: 01f9 66bb b05c 18ba 151f b13c 26d8 85bb
00000060: 124c a4b9 c059 393d b907 903c c1b0 173c
00000070: daee 2b3c 4db2 f3bb 8c34 b8ba 74cf 4ead
00000080: 30a1 6239 7abb 573b 593f 923c be03 dd3b
00000090: 0e86 f63b e215 16b9 2812 833b 474f c63a
000000a0: aa1d 9b2d 5bc5 9a2d 0a15 2a3d 5f8c 593b
000000b0: 7570 7f2c be6f 543c 65e8 b4bc 2a23 e1ac
000000c0: 380e da3c 3710 b038 4da3 233d b661 c2bc
000000d0: 9cf0 84bc e966 663c fa19 2d3c 968a 46bc
000000e0: 634c 2b3c 554e b83c 3ac1 833c cae4 863b
000000f0: 2186 5139 7ef6 01b9 d4ee aaba 8e60 ca3c
00000100: d78c 093c 93a7 823b fbc8 cc3b 4d46 b02c
00000110: 4197 0b3b 7a36 09ba ec9b 8b3c 0d74 14bb
00000120: fe6e 373c 8e46 a2ba 2bdc b43b 71e9 063c
00000130: c173 8b3b 1d4f 2939 0225 943c ca81 c53a
00000140: f0bb 942d 41c8 3ab9 cf6b 582d 762b fc3b
00000150: 88aa eb3b 9c1b 2dba 8ace e43c f80b 2a3a
00000160: 2212 0c3b 2ba6 313c 5d29 fa3b ed99 7b3c
00000170: b5d5 80ba 9be3 3d3c 99bc 8e3a ecc1 1f2b
00000180: 665a 2c38 262a 84ad bdc0 1bad 7fb8 683b
00000190: 330c 31b9 83cc 0dbc 7dc2 b83c 00ee d4bb
000001a0: 7407 98bb a20a 22bc 8a8e d73c d721 3438
000001b0: 0f32 393c e16b 29bc 0fde 9f3c 7827 18bc
000001c0: 299a dabb 65af b03c 9480 ee2c 6782 28b9
000001d0: 515d 7c3a 97c4 8b3b a572 4e3c 9b38 4b3c
000001e0: c1c3 f73c 7567 6a3c 240b 722d 0134 eb3c
000001f0: 61a2 6b3c 41c9 133d 0e0e 75b8 f0cf 3a3c
00000200: f606 953c ae74 18bd 2b65 c038 eab0 13bc
00000210: 7357 6d3c 991c 3f3c e170 ca38 8b18 a93a
00000220: eae0 b63c 9044 83ba be23 cbbc 3a71 f9ba
00000230: 9fb0 723a f353 843a 646c 923b 525d 623c
00000240: 93d3 323c 2979 803c cdee a539 e97b 3c3b
00000250: a3cd 4cbb eec8 13ae 4f8e dd3b 15db 8a3c
00000260: 2536 06bc 3ea0 02bb c81c e2bb 5bcf e03c
00000270: f7aa 68ad 9c6a 513b a44c 4d2d 16cf 00bc
00000280: 0c3e 383c 07d1 f239 5986 4539 73b7 013a
00000290: 6885 842d aaf3 3a3c 503b 9db9 7ae4 af3c
000002a0: 3f3d 94bb 9329 103c cc26 83bc e8cb daba
000002b0: 2afc df3a 3ac0 2db9 e46e 61bb 692f 103c
000002c0: b400 1039 defc 8239 5eb9 483c f085 993b
000002d0: 609d bbbc d19a 24bb bb24 6b3b 7cd9 4ebc
000002e0: e69b e8bc 05fa b439 6f11 c33c 2760 c8b8
000002f0: 3f37 a2bc 3f31 88bb ce6f be3c e95a a2ba
00000300: 9d12 c63b 53a7 5ebb c30b 8d3b 7165 b9b8
00000310: fe31 e13b 2a2e 023c f20f 532d fc20 b42b
00000320: 5a74 3839 f4c0 423a 799d 693c a3b2 bb3b
00000330: f30b e0bb 34bb c3bb 3412 2eba fa58 152d
00000340: 7904 37bc f073 8139 8557 0ab8 5cb8 7bb8
00000350: f44b e2bc c2d0 5e3c 876d f5b7 0c77 7b39
00000360: 7314 f23a 4ee5 e1bb bdfc de3b eb45 31bb
00000370: 5f20 be3c cb8a c2ac 1dd0 f1bc 06fe cd3a
00000380: 159e 593a 618d 423c 7a14 8aab 811d 4b3b
00000390: ae16 9d3b b96e 713b 11f4 faba 5e00 113d
000003a0: 1414 863c 6135 dc3c c2d9 9339 16e5 243d
000003b0: e1a4 a1b9 b785 eebb 29b2 e8ba 535f 443c
000003c0: b692 8bb9 d9ef 0c3d 230b a63b ba59 5cbc
000003d0: 8490 dc35 8f15 793c f9d3 092e c04c f5b8
000003e0: ec94 9639 e793 913c f058 503c 1d4f da3b
000003f0: 8a53 03bb fbd8 1539 aa49 5dbc 01e8 613c

fcn.bias f4 [32]
-0.0050154207 0.010483205 -0.0032507544 0.015997672 0.068745054 0.076306656 0.04489514 0.020308394
0.055782307 -0.0022800162 -0.0012794742 0.021958554 -0.07763416 0.00121547 -0.044941436 -0.011877183
0.09803982 0.0037650664 0.008236569 0.043423172 -0.03117072 -0.019484557 0.016780477 -0.010688053
-0.07278764 0.015727242 0.015384244 0.01256695 0.001081612 0.028964601 -0.021693733 0.02514781
00000000: 6658 a4bb c0c1 2b3c 9c0a 55bb 8d0d 833c
00000010: 35ca 8c3d aa46 9c3d f7e3 373d ca5d a63c
00000020: fd7b 643d 536c 15bb 08b4 a7ba 6de2 b33c
00000030: a9fe 9ebd 6850 9f3a 8314 38bd 8498 42bc
00000040: 1ac9 c83d 55bf 763b adf2 063c 7fdc 313d
00000050: bd59 ffbc 149e 9fbc 3677 893c f21c 2fbc
00000060: b011 95bd 6bd6 803c 320e 7c3c 9ce5 4d3c
00000070: e0c4 8d3a 2c47 ed3c 0eb7 b1bc c802 ce3c
