GGCN/pretrained/GGCN_cora_04_13_56_03.pt (torch, 269501 bytes, 130 tensors)

convs.0.deg_coeff f4 [2]
00000000: 0841 ca3f f945 a03f
1.5801096 1.2521354

convs.0.coeff f4 [3]
00000000: 4742 2c3f a5cb 72bf e59d 0a3f
0.6728863 -0.94841987 0.5414718

convs.0.fcn.weight f4 [16, 1433]
00000000: b6ce 3c3d 0f0b 073e faae 5f3d 7685 5dbc
00000010: 7fcb 81bd 4b41 4bbd daf4 02be 9bda be3d
00000020: 1877 ba3d 2345 71bc 94ab f43c e004 693c
00000030: 32c1 08bd 3afe 413d c386 9e3d 8462 b2bc
00000040: 43c4 773e 229a 1bbc 8e8b 843d 91f1 313e
00000050: 0430 ae3c cc14 0dbc bd11 66bc f229 353d
00000060: 2878 45bd 396f 093d 69ac b6bd 006d 343d
00000070: 3188 e93c 7b10 afbd 0444 c2b7 5682 a73d
00000080: a013 903b d0ab 493c bbf1 a337 4312 fabc
00000090: d1b4 af3d 88f8 103c b773 c13e b7f2 bb3d
000000a0: d86c 3dbe b328 a53c 639d 2c3d d46b 533d
000000b0: 89a0 2bbd d949 9d3c 6ce3 b8bc 98bb 7abc
000000c0: a0ca 13bc 5b73 d4bd 78c1 31bd 615c fb3e
000000d0: a987 19bd b9b6 913d 13bd 8ebd 7315 083d
000000e0: 8329 c5bd eee0 5fbc 318e 803e 923b 31bd
000000f0: dfec ebbd 70fe 6fbd a423 cabd b465 8abd
00000100: 4492 0ebd 4244 3c3d 2bd2 de3d 99b9 823d
00000110: 4892 db3b e17d 903d ff1d a7bd c4de 7cbb
00000120: c525 aebc cb13 d5bc 71a0 f3bc bb11 4cba
00000130: a3d7 733b 3e56 9e3d 30d3 30bd a698 08bd
00000140: 98d7 0b3e 03b3 68bc ee3c 913d 07ae 11be
00000150: 56b4 bcbc 9693 9dbb 276f b13e 72cc a2bd
00000160: 7d7c a8bd dbef f93c ee29 083d 8756 2bbe
00000170: 8de8 e03d 1983 fdbd 4a63 5d3d 708c a43d
00000180: 29f4 1e3d 7dd1 aa3d 8ef3 a3bd dfd3 d53d
00000190: 86c4 cd3d a6bc c0bb a46d 793e 7b2d aabc
000001a0: 9e1c 093d 52d0 b0ba e4c1 89bd 8319 a23d
000001b0: 73a6 c3b7 babd 32bd 9883 99bd f5f1 c33d
000001c0: 43cf 12bb db83 cdbc 7eaf a53d 38d6 a93d
000001d0: 1753 963a 600c b43d e83d 2abe dc2b 743c
000001e0: c83d a8bc 048b e7bd 08bd 2fbe 74bf dfbc
000001f0: 0594 063d 8124 bd3d b78a bbbc a989 943d
00000200: dfa0 3e3e 35c4 2b3e 8c8d 83bd 53bb c63d
00000210: 4ba0 7b3d 053b 043e 49b0 1bbe 4696 063e
00000220: f0d7 173e e0a8 ce3c c747 203c 88c7 103a
00000230: 0891 38be cbe1 0ebd c175 b43d 1cd3 bd3b
00000240: cd0c 403e 6c65 583d ae9c 5bbd df66 abbd
00000250: 7a2f 21bd abc9 333e dcfa 6b3b 9b73 093e
00000260: b693 2cbd e38a 123e 0084 ebbd 7d05 8bbd
00000270: ee24 1cbe 9a51 a23d a6e9 18bd 4948 c6bc
00000280: 57d7 153d 6daf 89bd aa57 a2bc b216 22bd
00000290: 62f8 3cbc d79f 1ebd 4563 0d3d 35fc 47be
000002a0: 1e3d 123e 878b e4bb 1c23 57bd b8d6 f03d
000002b0: 98c2 2d3e 8cb0 083e 4fe6 45bd e72f dc3b
000002c0: c4d5 9e3d d8f0 2cbe d9ca 253a baf2 fdbd
000002d0: cba7 23bd dbf1 a73d 8cd7 96bc e3fe 88bc
000002e0: b284 aebc f2f0 733d e559 94bd 84a1 f1bd
000002f0: c52f 373d 73f7 cebd 2f2b 9a3a cc49 2fbe
00000300: 57c4 41bd f16c b3bd 8444 04bd ba0a 1cbb
00000310: df28 0f3e 2720 0e3e 29b1 b83d 1466 5a3c
00000320: 92a3 93bd 73dc 063c 4609 13bd 183d 773d
00000330: 25f2 d03b f9ef 29be 3b42 38bd edff 78bc
00000340: 7ec1 d63d b653 0a3c df26 e43b 661e 0cbd
00000350: 40fa 663e 8f59 d43c c3d9 9ebd 76f0 f5bd
00000360: 913a 6dbc 50a8 0fbe 9295 453d aa49 58bd
00000370: e50d 49bd b0db a0bc 7b92 d63d 0979 9ebc
00000380: 3baf 9cbd 4822 7ebd 77e9 f0bc ec3e e03d
00000390: dde0 90bd 93f5 09bd dfd3 c23d e3ad 213c
000003a0: 34d9 c93b 2cb7 50bb 0498 b3be db97 82bc
000003b0: 8332 b3bd 10b5 65bd cccc bd3d ed4c 103b
000003c0: 352d 9c3d e6d0 d0bc 981a 47bd c429 19bd
000003d0: b9b0 893d 8adc 79bc ff33 573e ab84 e4bd
000003e0: 2482 11be 9e48 a0bc a39f 18bd 42c6 cd3c
000003f0: aba1 cbbd b976 303d aede 263e 4435 0abe
0.046095572 0.13187812 0.05461023 -0.013520589 -0.06337642 -0.049622815 -0.12788716 0.093190394
0.091047466 -0.014725956 0.029866971 0.014222354 -0.03338737 0.04736159 0.077405475 -0.021775492
0.24195962 -0.009497197 0.064719304 0.17377307 0.02126313 -0.008610915 -0.014042315 0.044229455
-0.048210293 0.033553336 -0.089196034 0.044049263 0.028507324 -0.08548065 -2.3158274e-05 0.081791565
0.0043968707 0.01230903 1.9543679e-05 -0.030526286 0.0857941 0.008848317 0.37783596 0.091771536
-0.18498552 0.020161008 0.042142283 0.051616505 -0.041901145 0.019200252 -0.02256938 -0.015303515
-0.0090204775 -0.10373565 -0.043397397 0.49093917 -0.03748289 0.0711493 -0.06969657 0.03322358
-0.09627058 -0.013664467 0.25108483 -0.0432697 -0.11519789 -0.05859226 -0.09870079 -0.067576796
-0.03480746 0.045963533 0.1087993 0.06383056 0.0067007877 0.070552595 -0.08160018 -0.0038584927
-0.021258244 -0.026010415 -0.02973959 -0.00077846245 0.0037207387 0.07731293 -0.043170154 -0.033348702
0.13656461 -0.014202836 0.070916995 -0.14226542 -0.02303521 -0.0048088534 0.34655115 -0.07949151
-0.08226869 0.03050988 0.033243112 -0.16732226 0.109818555 -0.123785205 0.054049768 0.08034599
0.038807068 0.08340738 -0.08005439 0.10440802 0.100472495 -0.0058818636 0.24358231 -0.02077364
0.033474557 -0.0013489819 -0.06726435 0.07915022 -2.332332e-05 -0.04363797 -0.07495803 0.09567634
-0.002240137 -0.025087288 0.08090113 0.08292812 0.0011468854 0.08791423 -0.16625178 0.014903035
-0.020537272 -0.11305812 -0.17161953 -0.027312972 0.032856006 0.09235478 -0.022893293 0.07252819
0.18616055 0.16774066 -0.06423482 0.09703698 0.061432164 0.12913139 -0.15203966 0.13143262
0.14828467 0.02522701 0.009782738 0.00055228965 -0.18024075 -0.0348833 0.08811522 0.0057929885
0.18754883 0.0528311 -0.05361622 -0.083692305 -0.039351918 0.17557399 0.0036007678 0.13423006
-0.042133056 0.14310794 -0.114997864 -0.06788156 -0.15248463 0.079257205 -0.0373322 -0.02420439
0.036582317 -0.06722913 -0.019817192 -0.039572425 -0.011533828 -0.038726654 0.0345185 -0.19529803
0.14281127 -0.006974641 -0.052523717 0.11759704 0.16968763 0.13348597 -0.048315343 0.0067195776
0.07755616 -0.1688875 0.0006324477 -0.12399812 -0.03995494 0.08200427 -0.018413328 -0.016723102
-0.021303508 0.059555955 -0.072437085 -0.11798385 0.04472329 -0.10105791 0.0011762137 -0.17117995
-0.047306385 -0.08761013 -0.032291904 -0.0023810104 0.13980435 0.13879453 0.090181656 0.013330001
-0.07208933 0.00823127 -0.035897516 0.060360998 0.006376522 -0.16595449 -0.044985037 -0.015197736
0.104861245 0.00844281 0.0069626416 -0.034208678 0.225564 0.025921611 -0.077563785 -0.12008755
-0.014479295 -0.1402905 0.048238344 -0.052804627 -0.049085516 -0.019636005 0.10477158 -0.019344823
-0.0765061 -0.062044412 -0.0294082 0.109495014 -0.07074139 -0.033681463 0.095130675 0.009868118
0.006159926 -0.003184746 -0.35076916 -0.015941551 -0.08749869 -0.056080878 0.092675775 0.0022018508
0.0762581 -0.025490236 -0.048609346 -0.037393346 0.0672316 -0.0152503345 0.21015929 -0.11158117
-0.14209801 -0.019565877 -0.037261616 0.02511895 -0.09942945 0.043081973 0.16295883 -0.13496882

convs.0.fcn.bias f4 [16]
00000000: c391 edbb 04ea 4d3e 5499 daba 7c28 73bc
00000010: 85a2 7c3c 08dc e43b dfc4 c13b 4c92 5bbc
00000020: 7b0f 93bc 0e1a 2fbc 572b c9bb ec1a 103c
00000030: 37a3 1d3a 6f7a f13b 3c57 543a 4cce 2b3c
-0.007250042 0.20108801 -0.0016677775 -0.014841195 0.015419607 0.0069842376 0.0059133614 -0.013401579
-0.017951718 -0.010687364 -0.0061391997 0.008795481 0.00060133956 0.0073693315 0.0008100157 0.010486197

convs.1.deg_coeff f4 [2]
00000000: a763 993f 1b86 a43f
1.1983536 1.2853426

convs.1.coeff f4 [3]
00000000: 8d18 8f3f 3069 85bf 4d87 423d
1.1179367 -1.0422726 0.047492314

convs.1.fcn.weight f4 [16, 16]
00000000: e141 613f 0d91 b23c f187 fabb 5e7c a53d
00000010: e6ec 2f3d d96c 1a3e 66d2 8fbe 5bda 46bf
00000020: 5196 7cbe c668 b4be dbca 863d 6d1e e33e
00000030: f3b5 e3be 76d1 bcbd 5fb3 983d 539e 0a3d
00000040: f0c8 aabe 5a1e b83e 4e25 82bd 8caa ed3d
00000050: 1c1b 863e a746 aa3e f2ee 853e 6eab c83e
00000060: 7475 acbd 874a e93e 5022 6b3e b099 03be
00000070: e610 473e 6d30 bc3e 4de8 793e e701 5b3e
00000080: 9516 a93d 7aba 093e 8fd4 563f 924a e3be
00000090: a1a2 653e b263 2fbe b223 073f 8eaa 01be
000000a0: 8aaa 913e b7dc c7be 5d4b 34bf b3f5 c63d
000000b0: 875a 84be 3c24 8a3e cac4 cebc 2ab5 283e
000000c0: c9dc 383d 655d dc3c dcd2 05bf 4c3e 423f
000000d0: 5926 36bf af68 e43c 344d d3be 2615 9d39
000000e0: 2db2 dcbd 1b79 a03e 1d36 61ba 7739 273f
000000f0: d0af 8a3e 041b 893d 6a32 36bf 62ae 473e
00000100: 3aae 083e 51bd 823d d6b9 2b3e c6c7 2bbf
00000110: 2c28 603f d50f ab3d 8a27 5b3e 9682 973d
00000120: 49e7 f6bd 47d8 87be e837 ed3d 9a75 29bf
00000130: 9d8c 06bf b2a7 1dbe 6b69 043f eae4 6e3e
00000140: 3652 513e dd52 333d e393 41be 8123 42bb
00000150: 8ed1 a13a a158 563f e86b a4bd a238 b9be
00000160: 427a 32bf 09f8 1c3f a417 cdbd 124a 293e
00000170: 4d59 1bbe 60c0 bfbe 6c83 d33e 04bb af3e
00000180: 01d1 2bbe a8bf 393e f4a6 0f3f 3223 cabe
00000190: 3f65 b03e 8f3e c6bd 6ce8 7c3f 7874 043f
000001a0: 1100 8b3e 1684 0bbf e302 e2be d1b3 483e
000001b0: 56d4 0d3f 4268 ffbe 5d3b 0f3e 11e2 863d
000001c0: a093 3dbf b45f a73d 562a d0bd 2d21 0f3d
000001d0: aa83 8e3d d066 a3be 0715 db3e f88e 643f
000001e0: 50f1 a43e 8e12 b0bc 46b0 24be 3389 86be
000001f0: c02e 003f 5665 28be d949 b9be d3ff 183e
00000200: 6579 02be 4033 e03d efa6 9a3e 807e 6e3d
00000210: c14a 50bc 9c9c 2bbf 716c 5c3e 604e 8b3e
00000220: 45e4 283f 42b1 efbe 87af 693d 5f56 043d
00000230: d947 4b3e 01a3 f03e f1d8 85be cd0b 93be
00000240: 74f4 cbbe e89d 1a3d 3169 e6be 0a38 c73e
00000250: 76f1 d4be 4ea3 103f e861 0bbf 8026 20bd
00000260: d59a f0be b971 6b3f 6484 073d 90cd c5bd
00000270: 1210 9fbd c9b9 613e 003f a7bc c78d 463e
00000280: c22d ef3c df7c 6fbd f91b 1cbf ef92 bd3d
00000290: 70d6 153d bb7a a0bd 4c72 0cbf a978 1dbe
000002a0: 85e1 f03c 58cb a53d 9cb4 533f 6f2d a2be
000002b0: c94e b33c 59ff 373e 536f b13e d9ee 12bf
000002c0: ec2c e63e 6713 f23d 41e1 8f3c 40e1 1a3f
000002d0: 06ee 18bf bb9f 1c3e ae86 533e 7249 a2be
000002e0: 3fac f9bd 6301 47be 4af0 9abe 070a 5f3f
000002f0: 599f e23e 030a 84be b719 c9be 023b 0c3e
00000300: e25b cfbe 4a8b 733d c8d7 8fbe 3c28 a03e
00000310: 5e77 e7be 44c9 bcbd d589 d43e 3ca3 f63e
00000320: 0b45 263e c97a cdbd 194c 053e 67b4 ea3e
00000330: 3d2d 733f 0146 ddbe 27c0 67bd 789e d9be
00000340: 3bab dcbc ff8a 9f3d 373e ad3e 11a1 483e
00000350: b5bb 4cbe 8bb2 a1be a09d f1be 69f8 7cbe
00000360: 9dd1 cd3e 8fcf 7b3e 1bf6 e53d afe7 21be
00000370: ffe7 dcbe 83a9 733f 2466 81be b7a4 03be
00000380: c176 343e 5121 4a3d ffd8 183d 16cc 27bf
00000390: 4211 003f 3005 ee3e 801b 293e 0a01 d3be
000003a0: 1077 b0be f26b 4e3d e24e f73e 8919 c3be
000003b0: a3c7 ebbc 3dad 7abe e24b 583f 5637 fcbe
000003c0: 4fb6 d33d 33cd cb3d 63c3 8c3d ac48 373e
000003d0: aed0 393e 5655 a53e c25f 953d 8085 273e
000003e0: 5bf6 a5be df19 553e 1f41 21bf ac5c 213e
000003f0: b266 d1be 6df4 32be f362 02bf 6a9c 723f
0.8799115 0.021797681 -0.0076456 0.08080362 0.042950533 0.15080585 -0.2809021 -0.77676934
-0.24666716 -0.35236186 0.0658166 0.4435915 -0.44474754 -0.09219639 0.07456087 0.033842396
-0.33356428 0.35960656 -0.063547716 0.11604795 0.26192558 0.33257028 0.26158863 0.3919329
-0.0842084 0.45564672 0.22962308 -0.12851596 0.1944004 0.36755696 0.24405022 0.21387444
0.0825626 0.13450041 0.8391809 -0.4439283 0.22425319 -0.17127874 0.5278884 -0.12662718
0.28450423 -0.3903558 -0.70427495 0.09714832 -0.25850317 0.2698077 -0.02524032 0.16475359
0.045132432 0.026900003 -0.5227487 0.7587631 -0.71152264 0.027881948 -0.4126984 0.0002996113
-0.10776172 0.31342396 -0.00085911324 0.6532206 0.2708726 0.06694606 -0.71170676 0.19500116
0.13347712 0.063837655 0.1677011 -0.67101705 0.875613 0.08352629 0.21401802 0.07397954
-0.12055833 -0.26532194 0.11582929 -0.6619507 -0.5255831 -0.15396002 0.51723355 0.23329511
0.20441517 0.043780196 -0.1890407 -0.0029623213 0.0012345777 0.83728987 -0.08028394 -0.3617602
-0.697178 0.6131597 -0.10014275 0.16532162 -0.15170784 -0.37451458 0.41311204 0.3432237
-0.16778947 0.18139517 0.56114125 -0.39479977 0.34452245 -0.09679901 0.9879215 0.5174022
0.27148488 -0.5449842 -0.44142827 0.19599845 0.55402124 -0.4988423 0.13987489 0.065860875
-0.7405338 0.08172551 -0.10164325 0.03494375 0.06958707 -0.31914377 0.4278948 0.89280653
0.32215357 -0.021493223 -0.16082868 -0.2627655 0.50071335 -0.16444907 -0.36189154 0.14941339
-0.12741621 0.10947275 0.30205485 0.05822611 -0.012713135 -0.6703584 0.21525742 0.27208233
0.6597331 -0.46814924 0.05705216 0.032308932 0.19851626 0.46999362 -0.26142076 -0.2871994
-0.3983494 0.037748247 -0.4500213 0.38909942 -0.4159047 0.56499183 -0.5444627 -0.039099216
-0.46993127 0.919704 0.033085242 -0.096583486 -0.07766737 0.22043528 -0.020415783 0.19390021
0.029196624 -0.058468696 -0.6098018 0.09256541 0.036581457 -0.07835909 -0.54861903 -0.1537806
0.029404411 0.08095425 0.82697463 -0.31675288 0.021888154 0.17968501 0.34655246 -0.573957
0.44956148 0.11820107 0.017563464 0.60499954 -0.59738195 0.15295307 0.20656845 -0.3169666
-0.121910565 -0.19434123 -0.3026145 0.87124676 0.44262198 -0.25788888 -0.3927743 0.13694385
-0.4049979 0.05945901 -0.28094316 0.31280696 -0.45208257 -0.09218076 0.41511407 0.48171413
0.16237275 -0.10033185 0.1301731 0.4584076 0.94990903 -0.4321747 -0.056579735 -0.42503715
-0.026937118 0.07790183 0.3383653 0.19592692 -0.1999348 -0.3158153 -0.4719057 -0.24704136
0.40198985 0.24590896 0.112285815 -0.15811037 -0.4314575 0.9518053 -0.2527324 -0.12855802
0.17623426 0.04934818 0.03731632 -0.65545785 0.50026333 0.46488333 0.16514397 -0.4121173
-0.34465837 0.050395913 0.4830237 -0.3810542 -0.028781718 -0.24480148 0.8449079 -0.49260968
0.10337507 0.09951248 0.068732046 0.17898816 0.18146011 0.3229167 0.07293655 0.1635952
-0.32414517 0.2081065 -0.6298999 0.15758008 -0.40898663 -0.17476054 -0.50932235 0.9476992

convs.1.fcn.bias f4 [16]
00000000: 6090 063e edb8 433f b382 aa3d d386 903e
00000010: 81f3 a83e 542a 743e 3086 bb3e 5275 723e
00000020: d9f7 1e3e efac ae3d dce7 9f3d ddf5 973e
00000030: 1d4b 903e f551 333e d07f 2b3e d6f2 8c3e
0.13141012 0.7645405 0.0832571 0.28227863 0.3299828 0.23844272 0.36625814 0.23677567
0.15524234 0.08529078 0.078078955 0.29679766 0.28182307 0.17511733 0.16747975 0.2752902

convs.2.deg_coeff f4 [2]
00000000: 7f21 2b3f 0feb 9d3f
0.66847986 1.2337359

convs.2.coeff f4 [3]
00000000: 3595 8b3f 60f8 5dbf a788 a63c
1.0904909 -0.86707115 0.020328833

convs.2.fcn.weight f4 [16, 16]
00000000: 3767 d63e bb09 9b3c 85ec d63b dfc2 033d
00000010: 37c0 7a3c b8f9 8a3d a288 1cbe 4722 c4be
00000020: f62f 0ebe a31c 18be 3e31 013c b122 3d3e
00000030: f97b 5abe b3d3 7bbd 5579 133d 4f53 1b3c
00000040: 4557 14be fd06 bd3d 7e56 093c d6ac c6bb
00000050: 7daf 923d 9dd0 dd3d bdde 843d 88c9 d23d
00000060: d245 dabc 93ef 293e 88d5 373d 255b a8bd
00000070: e38a 073d a2fd de3d 3efa bb3d d35d 483d
00000080: 93d9 273d edcb 8f3d f077 f53e 88ed 71be
00000090: d09e fe3d 8326 d2bd 0431 9b3e d9d0 03bd
000000a0: 6c4c 163e ae72 5fbe 6829 afbe 5954 0c3d
000000b0: 07c3 eabd f792 c63d 1f6c 7a3c b975 753d
000000c0: 533d ba3c 0c92 633d 3349 79be b83c f63e
000000d0: f79f b4be 755a b7bc 15c4 3fbe 868b 233d
000000e0: f9e3 52bc b590 313e 7d9b 333c 0a51 ac3e
000000f0: 112e 1e3e c72e b03d 389b c5be 719c ea3d
00000100: ede3 9f3d faef b83d cd03 a33d f704 9cbe
00000110: 5182 f83e 19e5 8c3d 57bf ea3d 57d5 473c
00000120: aba9 55bd 9886 d4bd 0943 b83d b535 95be
00000130: ab3d 80be c5f4 2cbd bc3b 893e b55c fe3d
00000140: e684 c83d 03bc cc3d ee29 e8bd b3d8 9a3c
00000150: 57b7 823d 2ad4 de3e 45ef e6bc 657d 23be
00000160: fea3 acbe cc9d 953e b5eb 143d 9adf a63d
00000170: 4888 3cbd 3680 e0bd f3c7 763e 28a4 283e
00000180: 91ca b3bd 0e1c 243e 8110 8c3e b178 4dbe
00000190: cc1e 3e3e 1b20 dbbc cafd 093f c815 723e
000001a0: 8a37 0b3e 074e 8bbe 8132 48be bafd c13d
000001b0: 12af 7a3e 9839 6bbe e417 053e 22ae c33c
000001c0: acf2 afbe 3194 ec3b b7f6 84bc 0907 c63a
000001d0: 8ebf e63c 5e29 1fbe 35b6 483e e612 dc3e
000001e0: dad0 173e 7dee 13bc d803 a6bd a194 f6bd
000001f0: 22d7 483e 1021 b6bd ae10 1ebe cfef 623d
00000200: 0083 9dbd b922 aa3d 31f1 073e e94b 403d
00000210: 76dd 98bc a589 a4be 3e4b f13d e982 0e3e
00000220: e1ec a03e 94a0 4ebe 9edd f13c e023 603c
00000230: c69b ff3d 726c 613e 3e04 15be 7dc1 06be
00000240: 6b9e 33be 690f 263d c803 54be 3a36 5d3e
00000250: 28b6 2ebe a9ce 973e 1171 86be 89c2 87bc
00000260: af73 68be c3b2 0d3f b7ee 443d 43c9 37bd
00000270: e9df 12bd 1d3f 173e 23a8 11bd cb01 f73d
00000280: f24d 963d 7dd0 703c 1f24 b8be b992 d53d
00000290: 839c d83c 8b71 d43c fc1f 95be 6d8c cebd
000002a0: ee06 5dbd 3e9e d93d a18e f03e 478a ebbd
000002b0: ec64 cf3b 61ba ee3d 8317 2e3e fac4 76be
000002c0: 7afa 703e 7327 d23d e609 743a 6603 923e
000002d0: f764 81be c4e0 913d 4dbd 093e 1273 dbbd
000002e0: 3956 a3bc d38e cebd 9cd5 0bbe e8c5 043f
000002f0: 725d 813e 1ac7 e1bd 2cc0 2bbe 9c3e b03d
00000300: 2e47 2fbe 2bae b63d e492 e2bd 6b4f 2e3e
00000310: 9379 73be 39ba 64bd b34a 723e f501 673e
00000320: 934c e23d d59e 4bbd 55c8 083d a564 813e
00000330: 7e0c 003f f773 44be f43b 20bd cc6a 3abe
00000340: d380 bfbc 952e b13d 59b0 0e3e 168d c33d
00000350: fb65 b0bd 62ef 08be 4615 73be 1d20 e5bd
00000360: 7f10 3c3e 4556 123e ea13 9a3d c179 cdbd
00000370: 8a32 3fbe 37b0 1c3f 1538 e4bd 16fe aabd
00000380: 72e8 ac3d 74ea 4d3d 235b 2a3d 722d b1be
00000390: ed61 8c3e e6f4 6d3e 22c6 c13d 149c 4abe
000003a0: 3e36 19be 3846 623c 5a2d 593e 166e 47be
000003b0: bffc 8bbd 49dc b9bd acef 0f3f 0569 5cbe
000003c0: 02be db3d dfbd 143e 0a5d 363c 28c3 0f3e
000003d0: 365b 093e 4ecd 453e 84e7 373d 3cb1 333d
000003e0: c649 29be a1c7 f03d 5836 75be b4ba e33d
000003f0: 3a5f 37be f599 69bd 85db 44be 6444 013f
0.41875622 0.018925538 0.006558957 0.032168265 0.015304617 0.06785911 -0.15286496 -0.38307402
-0.13885483 -0.14854674 0.007885275 0.18470265 -0.21336354 -0.06148119 0.036004383 0.009480312
-0.14486416 0.092298485 0.008382438 -0.006063084 0.07162378 0.108308055 0.064877965 0.10292345
-0.026644621 0.16595297 0.044881374 -0.082205094 0.033091437 0.1088822 0.09178589 0.048917603
0.04097898 0.07021318 0.47943068 -0.23625767 0.12432635 -0.10261252 0.30310833 -0.032181595
0.1467759 -0.2182109 -0.34211278 0.034260128 -0.1146298 0.09696 0.015284567 0.059926722
0.02273432 0.055559203 -0.2434433 0.480932 -0.35278293 -0.022382 -0.18727143 0.03992798
-0.012871736 0.17340358 0.010962364 0.33655578 0.1544726 0.08602672 -0.38594985 0.1145562
0.07807145 0.09030147 0.07959709 -0.30472538 0.48536924 0.068796344 0.114622764 0.01219686
-0.05216376 -0.10377234 0.08997161 -0.29142538 -0.2504705 -0.042225618 0.26803386 0.12420026
0.09790973 0.09996798 -0.113361225 0.018902158 0.063826256 0.43521243 -0.028190264 -0.15965803
-0.33718866 0.29221952 0.0363576 0.08148117 -0.046028405 -0.10961954 0.24099712 0.1646887
-0.08778871 0.16026327 0.2735634 -0.20065571 0.18566436 -0.026748708 0.53902876 0.23641121
0.13595405 -0.27207968 -0.19550516 0.094722226 0.24480847 -0.22971189 0.12997395 0.023886744
-0.3436483 0.007219814 -0.016230924 0.0015108298 0.028167512 -0.15543124 0.19600756 0.42983168
0.14825764 -0.009029028 -0.08106202 -0.120400675 0.19613317 -0.08893025 -0.1543605 0.05540448
-0.07691002 0.08307404 0.13275601 0.046947394 -0.018660288 -0.32136264 0.117819294 0.13917126
0.31430724 -0.20178443 0.02952462 0.013680428 0.12480883 0.22014025 -0.145524 -0.13159747
-0.175409 0.04054204 -0.20704567 0.21602717 -0.17061675 0.29649857 -0.26258138 -0.016572254
-0.2270038 0.55350894 0.04807922 -0.044869673 -0.03585807 0.1477017 -0.03556074 0.12060889
0.07339086 0.014698145 -0.35965058 0.10428376 0.026441818 0.025933048 -0.29125965 -0.10085378
-0.053961687 0.106258854 0.46983817 -0.11500984 0.0063291695 0.11656643 0.17001157 -0.24098578
0.23533049 0.102614306 0.00093093363 0.28518218 -0.25272343 0.07122949 0.13451119 -0.10715307
-0.019938575 -0.10085835 -0.13655704 0.5186448 0.25266606 -0.11024304 -0.16772527 0.08605692
-0.17116997 0.08919939 -0.110631734 0.17022483 -0.23776846 -0.05584166 0.23661308 0.2255934
0.110497616 -0.04971202 0.033394177 0.25272098 0.5001906 -0.19184862 -0.039119676 -0.18204802
-0.023376858 0.08651463 0.13934459 0.095483944 -0.08613201 -0.13372567 -0.23738584 -0.11187766
0.18365668 0.14290722 0.075233296 -0.10032988 -0.18671623 0.6120638 -0.11143509 -0.08349244
0.08442773 0.05027242 0.04159082 -0.34604985 0.2741846 0.23237953 0.09461619 -0.19786102
-0.14962098 0.013810687 0.21208706 -0.19475588 -0.06835317 -0.09075219 0.56225085 -0.21524437
0.107296005 0.14525555 0.011130581 0.1403929 0.134137 0.19316599 0.044898525 0.043870196
-0.16532049 0.11756826 -0.23946512 0.11119595 -0.1790742 -0.05703159 -0.19224365 0.5049498

convs.2.fcn.bias f4 [16]
00000000: e309 123e ab60 803e b56a 943d c085 693e
00000010: 181d 5e3e ba2b 793e 221f 6c3e f45b c83d
00000020: 998d 0d3e 3a76 353e 2882 1b3e e962 363e
00000030: 75bc 463e 8212 303e 944b 4b3e 87a9 a13e
0.14261584 0.25073752 0.07246915 0.22804928 0.21690786 0.24333087 0.23058751 0.09783164
0.13823546 0.17720881 0.1518637 0.17811169 0.19407828 0.1719456 0.1985305 0.31574652

convs.3.deg_coeff f4 [2]
00000000: 5f0e 593d b811 d73e
0.05299222 0.42005706

convs.3.coeff f4 [3]
00000000: 2c4e 633d d5d9 48be d341 093d
0.055494472 -0.19614346 0.03351004

convs.3.fcn.weight f4 [16, 16]
00000000: 7270 bc3d 70bf 3c3d ba27 55bc 469d a23b
00000010: e4ea db3b 07f4 c33c 19f9 36bd 0955 babd
00000020: 8046 1cbd 4790 edbc c047 d03b 6005 2c3d
00000030: 1619 3ebd 7221 cdbc 10b6 b03c 035c 493c
00000040: ae09 f0bc d4ef 9ebc a270 6b3b f97a 71bc
00000050: bad2 103c b7e5 223c 62a8 a33b 4f3c 803c
00000060: 21ec dabb 686b f03c 906a b53b 2eeb d2bc
00000070: f9f5 c9ba ec3b 893c dcbc 843c cff8 b33a
00000080: 02b6 77bb 4d07 c23b b659 e23d 6757 53bd
00000090: 44de d53b 754c c8bc 8752 283d caa4 b9bc
000000a0: 0192 af3c 4aa3 0bbd 08a1 cfbd 7944 233a
000000b0: 14bf 35bd 7793 833b c5ef b53b 09af d63b
000000c0: 24ca 433c 036b a33c 9926 54bd 8bbc d73d
000000d0: 0e41 a6bd 7d20 23bc b2f6 39bd 346f 0ebb
000000e0: 73c4 52bb 98e1 bb3c d0c9 f03a e193 803d
000000f0: bbe6 e73c aa5b ae3c b5c1 90bd ec6b d83c
00000100: b0f9 783c f42e 1b3d 6f7b 993c d05d 6ebd
00000110: a935 c13d 9639 833c 133b b23c 738c 673c
00000120: 5261 52bc 0d97 65bc da40 1d3d 1198 79bd
00000130: cd76 35bd ad7f 973a c177 613d 8e2c 143d
00000140: abf0 bc3b a889 eebc e40c 31bc 885f 84bc
00000150: 8d72 aabb 132d bf3d 0c2a b5bc ce82 2ebd
00000160: 49e3 73bd 6d86 603d 630a 57bc 7be9 843b
00000170: 203f bebc c736 08bd a266 2f3d 6f3d 9d3c
00000180: c2a6 a73b edcc a23d 8e58 343d 077d 8ebc
00000190: 24f2 6c3d b811 953b d629 fa3d c734 143d
000001a0: d6b0 fa3c 4a3e 7abd 13c9 a7bc fd5c c33c
000001b0: 6544 5f3d 2a50 d7bc 0e03 5a3d 4170 393c
000001c0: 5888 9abd bf0b b9bc 6e71 40bb 9ddd 9cbb
000001d0: 91cd 813c 9c93 0fbd 2380 703d 8a93 b43d
000001e0: e5bb 3b3d 0587 c8b9 0c24 dbbb ff51 3fbd
000001f0: 8867 1b3d 10e7 38bc b7d4 25bd bf2c 203c
00000200: 5514 95bc f42e 4c3c f77c d93c 3b18 353c
00000210: 46b8 73bc c9eb 8bbd 39ce 9b3c 91fd c53c
00000220: e864 843d 934e 42bd f5fe 69bb 9625 6d3c
00000230: c815 043d 888b 1a3d 205f 15bd 3195 05bd
00000240: 77c0 8dbd 9fe7 d0bd f190 29bd 80f9 f53b
00000250: 44e3 8bbd 7f52 1d3d e7fd 93bd 6495 92b8
00000260: 6d8b 38bd 188f df3d 907a b3bb 88ae 54bd
00000270: 26ce b2bc db29 753c bc13 b7bc 9f5b 2bbb
00000280: 067a 593c 378f 323b f78b 81bd bb5e d33c
00000290: 5595 323c 8516 033b 08cc 9bbd 4434 d1bc
000002a0: b27c 36bc bbf9 bc3c e515 0b3e f5ad fbbc
000002b0: 77a5 383c 0939 b63c b342 0c3d a3ab 7cbd
000002c0: f363 6b3d cb3f ab3d 048e a4bb 7d70 943d
000002d0: f624 73bd f292 233c b8aa be3c 7129 1abd
000002e0: 723e d6bb 9a7a 85bc 0096 0bbd a73e ff3d
000002f0: 1637 313d bb1e 8ebc 3e63 d6bc 4de9 8f3c
00000300: caa9 fdbc d544 323c 74e2 babc 8ce5 a33c
00000310: bce7 55bd 79de 4ebc a5a3 3a3d 63b3 363d
00000320: 09d6 fb3c f926 73bc e1d4 773c c7c7 213d
00000330: 4dfd c53d d49e 4bbd eda0 273b 8e68 67bd
00000340: 2798 96bc dcc9 c83b 4f76 d83c 9db9 df3c
00000350: c01e dbbc c927 66bd ac1a 49bd 73f9 c7bb
00000360: 0f82 463d 5fc5 cd3c 30fe ca3b 47f5 b0bc
00000370: bcd8 06bd 53f4 103e 4748 55bd cd18 8dbc
00000380: 2301 053c 76e1 023d ea80 963c 0e39 b3bd
00000390: 13d1 b43d 5f8b 7b3d d802 1c3d 1157 f6bc
000003a0: b3f0 fabc 963a b63a 6656 753d c609 4abd
000003b0: 1e20 62bc 30f0 89bc 92c5 0c3e 516f 41bd
000003c0: d518 7d3c e29e b53c c482 403c 8e01 223c
000003d0: d595 233d dc1f 2c3d 8c2d 033c 0748 a03a
000003e0: 9b87 02bd 6249 a93c 57ec 6cbd cb95 363c
000003f0: f801 6ebd 0a0d 44bc a366 01bd ba28 cb3d
0.09201135 0.046081007 -0.01300996 0.004962596 0.0067113508 0.023920072 -0.04467115 -0.090982504
-0.03815317 -0.02899946 0.0063562095 0.041997313 -0.046410643 -0.025040362 0.02157119 0.012290004
-0.02930149 -0.019401468 0.0035925289 -0.014738792 0.008839304 0.009942464 0.004994438 0.015653757
-0.006680981 0.02934809 0.005536385 -0.025746908 -0.0015408389 0.016752206 0.016203336 0.0013730767
-0.0037797694 0.0059212805 0.11052267 -0.051597025 0.0065267403 -0.02445052 0.04109433 -0.022661585
0.021431925 -0.03409127 -0.10138136 0.000622816 -0.04437168 0.004015382 0.0055522644 0.0065516275
0.01195005 0.019948488 -0.051794622 0.105340086 -0.08117877 -0.009956476 -0.045401283 -0.0021733763
-0.003216055 0.02293472 0.0018370692 0.06278206 0.028308263 0.021283943 -0.07068197 0.026418649
0.015196249 0.037886575 0.018735616 -0.058194935 0.09434063 0.01601867 0.021756684 0.014132607
-0.012840586 -0.014013064 0.038391925 -0.060936037 -0.04430275 0.0011558436 0.055045847 0.036175303
0.0057659945 -0.029118374 -0.010806296 -0.016158834 -0.005201644 0.09334769 -0.022114776 -0.042605214
-0.059542928 0.0548157 -0.013125035 0.0040561534 -0.02322346 -0.033255365 0.042822488 0.019194333
0.0051163146 0.07949243 0.044029765 -0.017393602 0.05784811 0.0045492314 0.12215011 0.036183145
0.0306019 -0.06109456 -0.020481622 0.023848051 0.054508585 -0.026283342 0.05322557 0.011318267
-0.07545537 -0.022588609 -0.0029364484 -0.0047871605 0.015845092 -0.03505288 0.05871595 0.08817203
0.045833487 -0.0003824757 -0.0066876467 -0.046709057 0.037940532 -0.011285558 -0.040486064 0.009776293
-0.018198172 0.012462366 0.026548846 0.01105314 -0.014875477 -0.06832082 0.019019233 0.024168761
0.06464559 -0.047438215 -0.0035704945 0.014474293 0.032247335 0.037730724 -0.03646767 -0.032612983
-0.069214754 -0.10200428 -0.041397993 0.0075065494 -0.06830457 0.038408753 -0.072261624 -6.989649e-05
-0.04505484 0.10915965 -0.005477257 -0.05192426 -0.021826815 0.014963592 -0.022348277 -0.002614714
0.013273722 0.0027246007 -0.06325524 0.025802007 0.010899861 0.0020002436 -0.07607275 -0.025537618
-0.011138128 0.0230683 0.13582571 -0.030722598 0.011269919 0.022243993 0.034243297 -0.061687123
0.057468366 0.08361777 -0.0050218124 0.07248018 -0.05936142 0.009983765 0.023274764 -0.037637178
-0.006538206 -0.016293813 -0.034078598 0.12463122 0.043265425 -0.017348638 -0.02617037 0.017567301
-0.03096475 0.010880669 -0.02281306 0.020006917 -0.052222952 -0.012626284 0.04556622 0.04460467
0.030741708 -0.014840835 0.015126438 0.039497163 0.09667454 -0.049712017 0.0025578097 -0.056496195
-0.018383099 0.006127579 0.026423601 0.027310187 -0.026748061 -0.056190286 -0.049097702 -0.0061027347
0.048463877 0.025118528 0.0061948523 -0.021601332 -0.032921538 0.14155702 -0.052070882 -0.01722374
0.008117947 0.031953298 0.018372018 -0.08751117 0.0882894 0.06141221 0.03808865 -0.030070813
-0.030632352 0.0013902958 0.05989685 -0.049325727 -0.013801603 -0.016838163 0.13747242 -0.0472253
0.015447815 0.022170488 0.011749927 0.009888066 0.039937813 0.04202257 0.008006465 0.0012228497
-0.031867605 0.020664874 -0.05784258 0.011144112 -0.058107346 -0.011965999 -0.031592023 0.09919877

convs.3.fcn.bias f4 [16]
00000000: 6403 93b8 006c 2b3c 8bf3 093c 7173 e53c
00000010: eef1 1e3e d54a 963c 0ad1 8c3d 36d8 883d
00000020: 2f70 d93c b234 45ba b6bd c63d 1013 263d
00000030: a0ec 7a3a 480d 3b3d 418a 073e 6bb2 9f3d
-7.010138e-05 0.010462761 0.008419882 0.028009148 0.15521976 0.01834623 0.068758085 0.06681864
0.026542751 -0.0007522806 0.09704153 0.040545523 0.0009572003 0.045666963 0.13236333 0.077977024

convs.4.deg_coeff f4 [2]
00000000: 759c 613b dadc 913c
0.003442553 0.017805506

convs.4.coeff f4 [3]
00000000: 0e68 353b f570 c1bc 394a bb3c
0.002768043 -0.023613432 0.02286254

convs.4.fcn.weight f4 [16, 16]
00000000: 5e8d 393d 320d 803d afb8 7cbb 21ce 683c
00000010: b784 113c d8bc 3a3c b2f0 d3ba 8e03 02bd
00000020: 7080 28bc b595 88bc 5903 d23b 2d8b de3c
00000030: 9f97 93bc e017 8f3a 61c2 d13b e1d7 8a3c
00000040: 756a 45bc bbcf d1bc 0454 723b 471e aabb
00000050: dac8 3c3a 3ad9 463b 8be0 bb39 ba6c e63b
00000060: 8bb7 e8ba c015 4e3c cb21 083b 8a5c 4fbc
00000070: d41f f2b9 70c7 b43b 79c7 e23b b7f3 fbba
00000080: 1cbc 243a 56a6 ae3c d0bb 283d 5316 9ebc
00000090: 44c0 603c 4755 2fbb dab7 9a3c 1201 54bb
000000a0: c1a1 4a3c 838d 93bc 9f80 32bd 18a5 9b3b
000000b0: 8bdd 83bc 74bc 253c d199 943b ec6e 403c
000000c0: 35d1 0a3b 4717 503b bde6 b1bc 60b6 1a3d
000000d0: faf6 f7bc 2577 273b 1e70 9abc 2dc5 963b
000000e0: 8d35 2f39 9c0d 643c 5417 493b e70c e33c
000000f0: 3c4b 213c 3c32 663c 85fc 07bd 59eb 053c
00000100: 5607 8d39 bf14 fc3a c1f0 393c ea1b c2bc
00000110: e4ae 2e3d e719 e439 ecb6 6e3c 439e b13b
00000120: beb6 9dbb c072 21bc 78b7 493b 2a62 fcbc
00000130: 9d8e bcbc d930 52bc ac04 ae3c 73f5 143c
00000140: 8608 3b3b 5abe 89bc ec27 e8bb 7ecc 7dbc
00000150: fbe8 f03a b864 f43c e0bf 1dbc 6ea4 11bc
00000160: e49e aabc 8a61 b63c 44c7 abbb 135c 1ebc
00000170: fff2 4cbc a879 91bc 804f 943c 9ad9 de3b
00000180: 643d f73a 38c0 1f3d 350b b63c 8fd3 52bc
00000190: e919 2d3c c4a3 ca3b 67c3 433d 264a b63c
000001a0: deab 253c 5534 ccbc eed1 a0bc 5f18 903c
000001b0: 9f92 af3c 05c4 adbc 4633 9b3c 4b17 903b
000001c0: a016 fdbc dec5 aebb 78cc ab3a e278 4f3b
000001d0: b3f4 053c 59ad 09bc 93a8 b03c 31dc 003d
000001e0: 5ab2 593c 36e2 88bb 9a6e f4bb d171 47bc
000001f0: 9043 993c 688c 3fbc 7227 05bc 558b 02bb
00000200: 22db 67bc 1487 da3a 6c8d 6f3c 677f b33a
00000210: d46f 08bc 99a0 13bd 5286 093c 94ef 563c
00000220: 1534 023d d993 a9bc 20d1 13ba 0a8c 4fb9
00000230: 556c 603c 8ec2 5a3c 29f3 1ebc c6dd 99bc
00000240: d113 13bd be7d aebd 566c 25bc 2b4a ca3a
00000250: cec7 f2bc aae8 3f3c c4fc 16bd 5445 24bc
00000260: a66f 95bc 4352 3e3d 03a4 1ebc 8446 ccbc
00000270: 70c2 42bc a9ca 90ba fcbf f1bb 95ce 74bb
00000280: bcd5 d3b6 cd52 d3bc 5faf b2bc 4b50 85b8
00000290: 2e04 f8bb 01eb bebb 3bae 0bbd 2d95 abb9
000002a0: c3b2 84bb 7537 403a 992a 103d 5e1c 80bc
000002b0: daee 063b 98ae 4cba 2364 123b 690d c2bc
000002c0: 25d4 b33c 1352 533d 84e7 0839 9751 d13c
000002d0: d77a bfbc fa6d 593c 9254 5d3c 7c4b 3ebc
000002e0: 487a 5cba d70f 80bb 5a4c 12bc 5868 7c3d
000002f0: 19e8 ae3c f118 50bc e8e0 83bc f194 a13c
00000300: 5dbf 42bc 89a4 463c 0b68 4cbc 881d 283c
00000310: eeb5 c0bc 716a 14bc 9f4a 7d3c febe 523c
00000320: 41cc 3c3c ccfe ebbb 1ed7 1b3b 04f5 b43c
00000330: e263 3a3d 4a28 a7bc 519a 00bb f25b c6bc
00000340: 39ca 5fbc e308 81bc 4b21 873c 9e43 7b3c
00000350: 1f64 60bc 0836 aabc 6527 6dbc 4ca8 52bb
00000360: 7392 a43c aa5f 4e3c e051 e83a 858c 84bb
00000370: 2cb3 40bb ad7c 733d 81e5 9dbc a365 15bc
00000380: 3f33 063c 9817 463c 4c63 13b9 8bde e2bc
00000390: 187b f83c fe3d ea3c 6e4f 8a3c 7afb 40bc
000003a0: b276 12bc 7d1b 873b ae4e c03c e923 69bc
000003b0: 5e65 aa3a 6795 d0ba 74ce 5b3d eb38 a5bc
000003c0: 2600 d63b 142b db3b 687d fe3b 93be c83a
000003d0: df2a 843c 238f 273c 8f8d 40bb a4f3 203b
000003e0: d731 26bc 737b 273c 6b92 e8bc 88a4 b93b
000003f0: 6240 bdbc fd77 cbbb 2fc6 56bc d239 2e3d
0.045300834 0.06252517 -0.0038562228 0.014209301 0.008881739 0.011397563 -0.0016169755 -0.03174167
-0.010284528 -0.016672948 0.0064090905 0.027165974 -0.018016635 0.001091715 0.0064013456 0.016948642
-0.012049307 -0.025611749 0.0036976347 -0.0051915976 0.000720156 0.003034188 0.00035834717 0.007032004
-0.0017754895 0.012578428 0.0020772095 -0.01265634 -0.0004618155 0.005516939 0.0069207516 -0.0019222413
0.0006284134 0.02131955 0.041194737 -0.019297754 0.013717715 -0.002675371 0.018886495 -0.003234927
0.012367667 -0.018011814 -0.043579694 0.0047499053 -0.01609685 0.0101157315 0.004534938 0.011745196
0.0021181826 0.0031752156 -0.02171647 0.037771583 -0.030269135 0.0025553193 -0.01885229 0.004601142
0.0001670925 0.01391926 0.003068407 0.027716113 0.009844597 0.014050063 -0.033199806 0.008173787
0.0002689908 0.0019232257 0.011348904 -0.023694951 0.042647257 0.00043506848 0.014569979 0.0054204776
-0.0048130443 -0.009854019 0.0030779522 -0.030808527 -0.023017222 -0.012829029 0.021242462 0.009091723
0.0028539016 -0.0168144 -0.007084837 -0.015490649 0.001837998 0.029833183 -0.009628266 -0.008889301
-0.020827718 0.022263307 -0.00524226 -0.009665507 -0.012509107 -0.017758206 0.018104315 0.0068008425
0.00188629 0.039001673 0.02222214 -0.012867822 0.0105652595 0.006184073 0.047793772 0.022252154
0.010111777 -0.024927298 -0.019631352 0.017589746 0.02143222 -0.021211633 0.018945348 0.004397308
-0.030894578 -0.005333646 0.0013107201 0.0031657745 0.008176017 -0.008403146 0.021564757 0.03145999
0.013287151 -0.004177357 -0.007459474 -0.012173132 0.018708974 -0.01169119 -0.00812708 -0.0019919474
-0.014151366 0.0016672336 0.01462112 0.0013694585 -0.008327443 -0.03604183 0.008393841 0.013118643
0.03178795 -0.020700382 -0.0005638767 -0.00019793227 0.013697703 0.0133520495 -0.009701529 -0.018782508
-0.03590757 -0.08520077 -0.01009663 0.0015433481 -0.02963629 0.011713186 -0.03686215 -0.010026295
-0.018241715 0.04646517 -0.009682658 -0.024935968 -0.011887178 -0.0011046726 -0.0073776226 -0.0037354578
-6.313172e-06 -0.025796318 -0.02181214 -6.35689e-05 -0.0075688576 -0.0058263545 -0.034101706 -0.00032726806
-0.0040496304 0.00073324825 0.035196874 -0.015638527 0.0020589144 -0.0007807999 0.0022337518 -0.023688035
0.021951744 0.051591944 0.00013056217 0.0255516 -0.023374004 0.013270849 0.013508933 -0.011614677
-0.00084105553 -0.0039081383 -0.008929336 0.061622947 0.021350907 -0.012701259 -0.016098455 0.019724341
-0.011886445 0.012124189 -0.012475978 0.010260947 -0.02352425 -0.009058581 0.015459686 0.012862919
0.011523307 -0.007202005 0.0023779343 0.022089489 0.045505412 -0.020404954 -0.001962323 -0.024213765
-0.0136590535 -0.015751308 0.016495368 0.015335945 -0.013695746 -0.020777717 -0.014474724 -0.003214377
0.020089364 0.01259605 0.0017724596 -0.0040450715 -0.002940367 0.059445072 -0.019274475 -0.00911847
0.008190929 0.012090586 -0.00014056003 -0.027694007 0.030332133 0.028594013 0.016883578 -0.011778707
-0.008939432 0.00412315 0.023475017 -0.014229753 0.001300018 -0.0015913666 0.053663686 -0.020168742
0.0065307794 0.006688485 0.0077664144 0.0015315585 0.016133724 0.010226998 -0.002938125 0.0024559284
-0.010143719 0.010222304 -0.02839013 0.0056653656 -0.02310199 -0.006209372 -0.013108774 0.04253561

convs.4.fcn.bias f4 [16]
00000000: 6a85 003d 4f2d e7ba 1783 0a3c 4231 a2bb
00000010: 5bec d13b 5fcf 843a beef 0d3d 4f9a 49bc
00000020: 3087 68bc 09c9 36bd 0f17 bbba 8fa3 af3b
00000030: 6ef8 52bb 5b7d 27bc b018 f83c f788 203b
0.031377234 -0.0017637404 0.008454106 -0.0049497196 0.0064063496 0.0010132602 0.034652464 -0.012304856
-0.014192387 -0.044625316 -0.001427384 0.005360074 -0.0032191533 -0.010222758 0.03028521 0.00244957

convs.5.deg_coeff f4 [2]
00000000: 0c82 edba 4c21 083c
-0.0018120422 0.00830872

convs.5.coeff f4 [3]
00000000: b719 c1ba 85d0 18bc 358a 243c
-0.0014732395 -0.009327059 0.010042717

convs.5.fcn.weight f4 [16, 16]
00000000: 9f00 103d f71e 8d3c 7188 21bb f82d 3c3c
00000010: 06bd 98bb efb2 adbb b769 11bc 9017 80bc
00000020: abe5 18bb 66a7 75bc 7c03 463c 0cd9 753c
00000030: 34b1 09bc 043f c63b 4dc3 51bb 655f 233b
00000040: 427d 1fbc 1dad 74bc 5ba5 ca3a 2cd2 89bb
00000050: a905 7db8 409d a63a 7357 9638 479e 963b
00000060: fe0f e0b9 43bc 013c 99be 63b9 b568 06bc
00000070: f387 d439 7be1 d33a 848a aa3b 0ec3 f8ba
00000080: 67cd 483a 04f4 593c c9f5 d73c 1322 6abc
00000090: d4bf 9d3b 48e0 d5ba a2c0 833c f8e5 8c3b
000000a0: 5946 973b d4b9 14bc 5118 9ebc 3b52 e23b
000000b0: 3f0b 22bc 07c6 d73b 7e9a 9c3a 8ea5 f63b
000000c0: b1ae 3739 ae8e cabb 3f57 57bc 7eb6 ba3c
000000d0: fd95 a7bc bbb9 d93b 4b2e 30bc fef4 41ba
000000e0: a62d 01bb 7908 f83b 7a04 6a3b f016 4d3c
000000f0: c525 153c 28d3 913b 3411 9fbc 6d14 893b
00000100: 62c7 a33b 9116 8abb 3f59 e73b 6bd6 91bc
00000110: e524 e53c 1388 fbba 8ff8 1bbb b609 cc3b
00000120: 910b 25bc 5fce c8bb 77d3 993a b6d6 acbc
00000130: 9bd1 01bc fdc9 9fbb b770 233c 7a83 183b
00000140: 0f7e 7d3b 8cfb bbbc d900 bfbb a957 e6bb
00000150: 8b88 daba a7cc b53c e514 43bc a7f0 38bc
00000160: 961c 89bc 10ce 823c eded 42bb ff96 90bb
00000170: 4809 ebbb 533b 51bc 042e 363c 7ec9 9dba
00000180: 4a42 6abb a038 843c 52af 903c e906 5fbc
00000190: 4055 9f3b 8d17 293b 2622 d83c fed1 153c
000001a0: 98d8 843b 5fff 40bc 2966 4bbc 6500 013b
000001b0: 3cb9 673c 7f2c 00bc 00a4 253c 392a 093c
000001c0: 43c5 acbc 1cf3 dfbc ca24 4db9 859a 97bb
000001d0: 04bb bfba f79f 85bb 9293 703b 45b5 973c
000001e0: 59e1 ee3a 28f5 1e3a c674 1dbc 4060 47bc
000001f0: a538 153c cad9 dabb faed 6ebc 2d64 1dba
00000200: f69e f7bb ec35 d33b c5c0 1b3c ed50 293b
00000210: 6af0 96ba 3f97 a2bc 1e7c 1e3c 8bd7 0c3c
00000220: a25c 873c ab20 27bc b161 223b 7179 af3b
00000230: 71ef 253c 423e 523c 2c8d a1bb 1320 2fbb
00000240: 05fe 70bc 55e7 37bd 5a47 e6bb 6ea0 aebb
00000250: 54b4 35bc fd38 4c3c 76e7 b6bc 5c8b 61bb
00000260: 58c8 52bc d260 f73c ad58 82bb 800d 9abc
00000270: f047 15bc 302e f23b cb10 29b8 4d48 0dbb
00000280: 7fe7 013c dcfd 9fbc bbb7 95bc 3986 7cb9
00000290: 1f39 b039 e86a f8bb a9da 5cbc 1efb b8bb
000002a0: fb9e 27bb c79a 5739 c8b1 9f3c d07c 54bc
000002b0: 5fdd 73bb b257 80bb 92d6 473c a028 88bc
000002c0: a586 9b3c 7e23 d83c dbb1 733a 4665 873c
000002d0: 8ee4 80bc 7340 153c e1bb 333c 2209 14bc
000002e0: 5d52 4dbb f937 0ebc 14ae 2ebb fc15 e73c
000002f0: 448a 4d3c f35a 983a 3255 f2bb 1c3c a63b
00000300: aae7 21bc 4275 0fbc 163f fcbb 299f 003c
00000310: 96f4 c6bc 9d97 f83a 39e1 f33b 647e 083c
00000320: bd5e 543b 145f b9ba cce0 e5ba a1be 263c
00000330: 5b5e f13c 8175 7ebc 1c1d 16bc fb74 82bc
00000340: 61d3 0dbc 5ac0 63bc 539f 1f3c e950 cc3a
00000350: 448a 02bc 3dfe 42bc 2c78 7cbc 22b5 babb
00000360: a3b8 b43b 2c99 063c 16c0 1bbb 95b3 42bc
00000370: 120b 4bbc 0e20 d93c 62e3 5abc d78c e9bb
00000380: 3b21 79b8 c36e 11bc da37 013b 0e24 adbc
00000390: 7151 323c 4b97 75b8 c73f 973b cec1 753a
000003a0: c143 c4ba 41ec ddbb fb27 f33b 14f6 2bbc
000003b0: c510 c5ba 0985 a1bb 4539 023d bd42 83bc
000003c0: 7e0f 173c 0070 c23b 5198 a53b 5650 ff3b
000003d0: 06f6 343c e76d e73b 54eb 8eb8 4646 413b
000003e0: 3284 f3bb e0a2 973b 4539 7dbc f523 373a
000003f0: 0f7b 33bc d4ab 49bb 8c63 06bc d291 de3c
0.035156842 0.01722668 -0.0024647976 0.011485569 -0.004661205 -0.0053008716 -0.008875302 -0.015636235
-0.0023330252 -0.014993524 0.012085792 0.015005361 -0.008404065 0.0060499925 -0.0032007277 0.0024928686
-0.009734454 -0.014933852 0.0015460657 -0.0042059626 -6.0325172e-05 0.0012711659 7.168846e-05 0.004596505
-0.00042736524 0.00791842 -0.0002171941 -0.008203675 0.0004053708 0.0016165221 0.0052045006 -0.0018979029
0.0007660002 0.013302807 0.026362317 -0.0142903505 0.0048141275 -0.0016317451 0.016083065 0.0042998753
0.0046165404 -0.009077508 -0.019298704 0.0069067753 -0.009890377 0.006584886 0.0011947898 0.00752706
0.00017517318 -0.0061815595 -0.01314336 0.022792097 -0.020457262 0.0066444553 -0.010753225 -0.00073988724
-0.0019711046 0.0075693694 0.0035708235 0.012517676 0.009103243 0.0044502206 -0.019417383 0.004183343
0.0049981335 -0.004214116 0.0070601995 -0.017802438 0.027971694 -0.0019190334 -0.0023799276 0.0062267436
-0.010073558 -0.006128117 0.0011735995 -0.021098476 -0.007923509 -0.004876374 0.009975604 0.0023271726
0.0038679873 -0.022947095 -0.0058289585 -0.007029493 -0.0016672773 0.022192312 -0.011906837 -0.011287845
-0.016737264 0.015967399 -0.0029743866 -0.0044125314 -0.0071727373 -0.012770492 0.011119369 -0.0012038199
-0.0035745078 0.016140282 0.017661724 -0.013612487 0.0048624575 0.002580139 0.02638347 0.009144304
0.0040541403 -0.011779635 -0.012414494 0.0019684073 0.014143284 -0.007823109 0.010109901 0.008371883
-0.021090155 -0.027337603 -0.00019564028 -0.0046265745 -0.0014627879 -0.004077907 0.0036709053 0.018519053
0.0018225118 0.0006063753 -0.0096103605 -0.012168944 0.009107743 -0.0066787945 -0.014583105 -0.0006004002
-0.0075567914 0.006445637 0.009506409 0.002583559 -0.0011515741 -0.01984751 0.0096731465 0.008596311
0.016523663 -0.01020066 0.0024777467 0.005355053 0.010127888 0.012832226 -0.004930159 -0.0026721999
-0.0147090005 -0.04489835 -0.0070275487 -0.0053291833 -0.011090357 0.012464759 -0.022327166 -0.003441534
-0.0128651485 0.030197535 -0.003977856 -0.018805265 -0.0091113895 0.00739076 -4.030838e-05 -0.0021557987
0.007928728 -0.01953023 -0.018276086 -0.00024082595 0.00033611894 -0.0075811036 -0.013479867 -0.00564517
-0.0025576937 0.00020561657 0.019493952 -0.012969211 -0.0037210805 -0.003916704 0.012197154 -0.016620934
0.018985102 0.026384111 0.0009296217 0.016527783 -0.015733983 0.009109604 0.010970087 -0.009035381
-0.003132961 -0.008680337 -0.0026654052 0.028208725 0.012545172 0.0011623785 -0.00739541 0.0050730836
-0.009881893 -0.008755984 -0.00769795 0.007850447 -0.02428655 0.0018966083 0.00744262 0.008330915
0.0032405101 -0.0014142715 -0.0017538308 0.010177285 0.029463938 -0.015530945 -0.009162214 -0.015924921
-0.008656354 -0.013900841 0.009742576 0.0015588078 -0.007967535 -0.011901435 -0.015409511 -0.0056978622
0.0055151745 0.00821523 -0.0023765615 -0.011883636 -0.012392776 0.026504543 -0.013359876 -0.007127385
-5.9397174e-05 -0.008876505 0.0019717128 -0.021135356 0.010883675 -5.8553454e-05 0.004615757 0.00093748874
-0.0014973806 -0.0067725484 0.0074205375 -0.010495681 -0.0015034905 -0.004929189 0.031792898 -0.016023034
0.009220002 0.0059337616 0.005053558 0.007791559 0.011044985 0.007062662 -6.814921e-05 0.002949135
-0.0074315304 0.0046275705 -0.015455549 0.0006986254 -0.010954632 -0.0030772584 -0.008202445 0.027169142

convs.5.fcn.bias f4 [16]
00000000: 212f 7fbc 5c30 f739 2427 3dbc 371b e9ba
00000010: f14b 073b 8826 ecbb db60 b5bb 16d7 bbbc
00000020: 18d4 db3b 8a2f ebbc d4fd faba 1bfe cc3b
00000030: 06bd 2bbc 61a9 41bc 9233 cb3b 7ee0 013b
-0.015575201 0.00047147542 -0.011544976 -0.00177846 0.002064463 -0.0072067417 -0.0055352277 -0.02292971
0.006708633 -0.028709192 -0.0019149133 0.0062558777 -0.010482078 -0.011820168 0.006201216 0.0019817646

convs.6.deg_coeff f4 [2]
00000000: c47f 30bb a06d 163b
-0.0026931623 0.0022953525

convs.6.coeff f4 [3]
00000000: 33cf e139 182f adbb b395 a13b
0.0004306972 -0.005285155 0.0049311756

convs.6.fcn.weight f4 [16, 16]
00000000: 4a9f 803c 6f7a a33c 40d1 6fbb d249 bf3a
00000010: 7373 7d3b f51f f7b9 a31a 96bb ce80 55bc
00000020: d166 77bb c220 0abc b40b b33a 4fce eb3b
00000030: 6a7c 05bc a3ff 39bb 418a c3bb 0ae9 403b
00000040: 8599 02bc f49d 62ba 1282 143b 0562 10bb
00000050: ed29 07bb 82d8 253b 3d39 81b9 b94c 383b
00000060: 95d1 19ba 037e 8b3b fe86 afba c8aa 07bc
00000070: 502e a1ba b22f 9db7 a1e5 863a e3ad ce3a
00000080: 1083 1a3b da85 a33b 595d 943c 0a32 1dbc
00000090: b7f0 bd3a eab2 0239 970e d33b 0324 2ebb
000000a0: 9bbf b73b b391 40bc ef6e 35bc de11 e33a
000000b0: d3f5 9bbb 58fe df3a 04f6 c5ba 52ae dc38
000000c0: 4a34 efb9 9e7c a3bb be85 d6bb c45c 333c
000000d0: 8c61 55bc 76fd 25bb 44bd b0bb f40f 84ba
000000e0: 17fd fb39 ecc2 803b 0e92 edb9 5232 e03b
000000f0: 0bfe 873b 05fd 373a f16b 67bc 81a8 a43a
00000100: 9320 7f3b 999b 533c dc29 7a3b 69fc 08bc
00000110: c556 943c b280 2d3b 9fa9 e43b 121e 423b
00000120: c346 f9bb abac afb8 ee05 073c 64e4 2fbc
00000130: c545 79bb fb05 163b 2ad2 733c 1a80 863b
00000140: f605 103b 4a4b 46bc b925 99bb b556 abbb
00000150: 06a1 1fbb e407 6d3c b140 b1bb aceb 4bbb
00000160: 9a39 44bc 6208 103c 055c 733a b357 f33a
00000170: 8fa8 b7bb 2e98 01bc 3d9f 0d3c 7c8c 973b
00000180: 4362 05bb 99c0 483c e03d 323c 9cd2 29bc
00000190: 1587 863b 46f8 45ba 3d43 943c 094c 9f3b
000001a0: 31ad 8f3b 4809 1ebc 9678 0fbc 7fa8 a13b
000001b0: 2162 283c 4b0a 1ebc 9dbd c43b 2953 753b
000001c0: bba7 4cbc 3918 48bc 30cd 6f3a 9f83 28bb
000001d0: b189 ce3a e311 babb 2190 ba3b d49a 223c
000001e0: f8b1 a13b 8fc8 11ba 59a0 a6bb 6d2c 4abb
000001f0: 7a18 fa3b c026 b9bb 63db 02bc c9c3 f73a
00000200: 9a49 e6ba bce0 0f3c b00b d23b 789c 463b
00000210: d2d3 bfb9 535b 4bbc d513 093c c44f c43b
00000220: 4fab 103c 1461 05bc 44e8 c13a 1394 853b
00000230: 5de2 0f3c f8b1 e33b f786 b8bb a6ca 3ebb
00000240: ce41 76bc 2f92 5abd e683 02bb 5379 09bc
00000250: 8392 80bc 0aa0 e43a 06f4 8abc f268 a6ba
00000260: 05aa fdbb ab62 8e3c 440a a3bb b896 97bc
00000270: c64f b4bb 7f64 02bb 531b bcbb fee5 49bb
00000280: 15ec 1bbb 22ab 5dbc c93a 4abc 1d7c 5a3b
00000290: a2e8 b6bb feb6 5fbc d283 a9bc f26b 6bba
000002a0: d413 30b9 b115 af3b d2b9 773c a655 49bc
000002b0: 3839 e53a d9d4 503a 50e1 3b3a a150 47bc
000002c0: 3eca 3b3c 52b9 9f3c ca15 89b7 9aab 0b3c
000002d0: b835 02bc c59f d93b e784 c13b 1d83 753b
000002e0: a956 5e39 111b b0bb 3bec 09bc 0f9a c53c
000002f0: ecd5 573c 12d0 acbb b505 a2bb 9360 1a3b
00000300: c407 dfbb 0e0d 003b 2a59 24bb 7463 f83a
00000310: 9259 00bc 16a1 9abb 3fdf 773c 73ca f13b
00000320: 80d3 b03b 3b1f a9bb 39df 9b3b 8508 b43b
00000330: d09c 9a3c 9d0c b1bb 02bc 473b db21 34bc
00000340: 6d33 9ebb 257b 8cbc b00e c43b ef75 833b
00000350: 2d0a a0bb 5a40 f5bb 6528 0ebc 5fd9 4aba
00000360: 3f42 e43b 0f3f d03b 67bc 053c c133 9ebb
00000370: 4d67 babb 2331 d83c 890b b6bb 7e62 18bc
00000380: ca7a cf3a f966 a03b 1e6b 6e38 8b56 55bc
00000390: 2a62 3e3c 625b f63b d1a7 e73b eb80 60bb
000003a0: ca42 2dbb 0e87 d13a e6f5 ec3b c580 27bc
000003b0: 3bfd a9ba 3c02 bbba c112 a63c f735 e5bb
000003c0: 172e 003b 21fe 203b c465 bd3a 6f92 b6b9
000003d0: 44aa 7c3b 66e6 063c c3cd 3ebb 5a90 9e39
000003e0: a1a7 a1bb 5a22 373b 288f 2dbc d435 b13b
000003f0: 5676 52bb bd79 37bb 8948 26bc 6b1c 9a3c
0.015700955 0.019955842 -0.0036593229 0.0014594144 0.003867355 -0.0004713532 -0.004580812 -0.013031198
-0.0037750492 -0.008430662 0.0013660104 0.0071962248 -0.008147338 -0.002838113 -0.005967409 0.0029435777
-0.007971172 -0.00086447527 0.0022660536 -0.002203108 -0.0020624355 0.002530605 -0.00024647443 0.0028121902
-0.0005867717 0.004256965 -0.0013391671 -0.0082804635 -0.0012297127 -1.8738068e-05 0.0010291823 0.0015768375
0.0023576654 0.0049903216 0.018110918 -0.00959445 0.0014491294 0.00012464417 0.006440948 -0.0026571758
0.005607558 -0.011753487 -0.011073812 0.001732405 -0.004759529 0.001708935 -0.0015103226 0.00010522887
-0.0004562459 -0.0049892208 -0.006546705 0.01094741 -0.013023745 -0.0025328076 -0.005393656 -0.0010075555
0.00048063017 0.0039294865 -0.00045312982 0.006841936 0.0041501573 0.0007018599 -0.014124856 0.0012562425
0.0038929328 0.012915515 0.0038171923 -0.0083609605 0.018107781 0.0026474413 0.006978228 0.0029619974
-0.0076073124 -8.376812e-05 0.00824116 -0.010735605 -0.003803597 0.0022891748 0.01488165 0.0041046264
0.002197621 -0.012102911 -0.0046736863 -0.005228842 -0.0024357452 0.014467213 -0.005409323 -0.0031115813
-0.011976624 0.008791061 0.00092834263 0.0018565565 -0.0056048105 -0.007909818 0.008643922 0.0046249013
-0.0020352758 0.01225295 0.01087901 -0.010365155 0.0041054585 -0.0007551949 0.018098468 0.004861359
0.0043846597 -0.0096457675 -0.008756777 0.0049334164 0.010277302 -0.009646009 0.006004049 0.00374336
-0.012491162 -0.012212806 0.0009147702 -0.0025713218 0.0015757588 -0.005678402 0.005693451 0.009924609
0.0049345456 -0.00055611966 -0.005085033 -0.0030849234 0.0076323124 -0.0056503713 -0.007986876 0.0018902953
-0.0017569542 0.008781608 0.0064100847 0.0030305665 -0.00036588177 -0.01241191 0.008366545 0.005990954
0.008829906 -0.008140821 0.0014793952 0.0040764897 0.008781997 0.0069487058 -0.0056313234 -0.0029112487
-0.0150303375 -0.053362068 -0.0019915043 -0.008390742 -0.015694862 0.0017442715 -0.016962063 -0.0012696071
-0.007741215 0.017381033 -0.004975589 -0.018504485 -0.005502674 -0.0019896326 -0.005740562 -0.0030807252
-0.002379184 -0.013529571 -0.012343117 0.0033338137 -0.005581931 -0.013654469 -0.02069274 -0.00089806237
-0.00016792055 0.005343162 0.015119987 -0.012288487 0.0017488366 0.0007966287 0.0007167058 -0.0121652195
0.0114617925 0.019497547 -1.6341819e-05 0.0085248 -0.007947378 0.0066413605 0.005905736 0.0037462183
0.00021203853 -0.0053743203 -0.008418138 0.024121312 0.013173562 -0.0052738274 -0.004944528 0.0023556098
-0.0068063457 0.0019539031 -0.002507756 0.0018950538 -0.007833855 -0.00471891 0.01512891 0.00737887
0.0053963065 -0.0051611937 0.004756835 0.0054941797 0.018873602 -0.005403115 0.0030477052 -0.0109944
-0.004827908 -0.017148564 0.005983196 0.0040118615 -0.0048840255 -0.007484478 -0.008676623 -0.00077380793
0.006965905 0.0063551734 0.008162594 -0.004827947 -0.005688584 0.026390618 -0.0055555743 -0.009300826
0.0015829441 0.004895088 5.6843382e-05 -0.013021122 0.011620084 0.007518218 0.007069566 -0.0034256529
-0.0026437514 0.0015985684 0.007231462 -0.010223572 -0.0012969145 -0.0014267634 0.020272614 -0.0069949585
0.0019558722 0.0024565535 0.0014449884 -0.00034822847 0.0038553635 0.008233642 -0.0029114343 0.0003024366
-0.004933313 0.002794406 -0.010593213 0.005408028 -0.003211399 -0.0027996146 -0.01014913 0.018812379

convs.6.fcn.bias f4 [16]
00000000: 2134 adba 8528 84bb 64b3 cbbb 077f aabb
00000010: fdb3 a03c 39e7 53bc 4261 303b 844b d0bb
00000020: ecf7 1a3c 695a 07bd 05df 1dbb 73c0 583b
00000030: e0ce f0bb a1f3 c43b 6e90 403c 1fd5 ffb9
-0.0013214388 -0.0040331506 -0.0062164534 -0.005203131 0.019617075 -0.012933546 0.002691344 -0.0063566584
0.009458523 -0.033045206 -0.0024089229 0.0033073693 -0.00734888 0.006010488 0.011753185 -0.00048796178

convs.7.deg_coeff f4 [2]
00000000: b3c3 64bb af31 483a
-0.0034906685 0.0007636798

convs.7.coeff f4 [3]
00000000: 8fa1 283a b04d a0ba 8dd9 af3a
0.00064327655 -0.0012230184 0.0013416276
