GGCN/pretrained/GGCN_wisconsin_08_01_53_49.pt (torch, 229972 bytes, 22 tensors)

convs.0.deg_coeff f4 [2]
0.06549067 0.18754302
00000000: f91f 863d 470b 403e

convs.0.coeff f4 [3]
-1.3241937 -1.2463571 1.3313811
00000000: 2e7f a9bf a188 9fbf b26a aa3f

convs.0.fcn.weight f4 [16, 1703]
-4.352751e-08 -0.01020563 -1.04632406e-07 -0.02432498 0.0039920416 0.042668868 -0.027202612 -0.031089948
0.0521844 0.030307814 0.005964909 -0.078766815 -0.003944472 0.07072587 5.70193e-05 -0.085874446
-0.031820565 0.0127539905 -0.0014190719 0.035960447 -0.01405098 -0.011242066 -0.0076212627 -0.001395828
0.08817815 -0.022353698 0.017427817 -0.0009250581 0.02665042 -0.017652612 -0.067407176 0.00095088617
-0.016890245 0.029563854 0.00018255867 -0.025519079 -0.017585866 -0.017365549 0.015102396 0.016142579
0.0032895247 0.051278036 0.016680224 -0.14366812 -0.0065174373 0.025314266 -0.00963659 0.043950103
-0.0050482927 -5.9255154e-08 0.053774435 -0.012753941 0.008414302 -0.00063634705 0.0113715455 0.0018301315
-0.010749283 0.036128756 0.11789725 0.13772051 0.029061146 -0.049466576 0.00015055129 -0.007439075
-0.017199734 -0.008818679 0.023690013 3.9235957e-08 -0.048203453 0.023073375 -0.00070720015 0.021241002
5.6685607e-05 -0.037337225 -0.014826029 0.0501146 -0.016274942 0.014537997 0.022523718 -0.011973468
-0.047324795 0.057015855 5.8671887e-08 -0.016536945 -0.009215437 9.200676e-09 -0.037547015 -3.914454e-08
-6.29909e-08 -0.019209115 -0.012432255 -0.055577923 -0.041634176 -0.00014068051 0.0002121444 -0.007818692
0.03941669 0.029686477 -0.024439797 -1.8398492e-08 0.032387342 0.0076532583 -0.014579155 -7.349796e-08
-0.01666625 -0.013508353 0.02298374 -0.041285854 0.021894356 0.06213655 0.016827311 0.052697066
-0.029104525 -0.0017092573 -0.102672845 0.007871134 -0.08229679 0.0152948545 8.5311505e-08 -0.038203064
-0.040442973 0.04022029 -0.024396794 -1.29276305e-08 -0.0066626244 -0.030379888 0.07534286 -0.0139071075
0.0372368 0.0025666037 -0.03358027 -0.023430819 0.025053166 -0.030224418 -0.029417492 0.10336564
0.048965912 -0.02989712 -0.010398546 -0.044128247 0.0009430375 -0.026602011 0.04427228 0.01340627
0.03219943 0.026334016 0.026874553 -0.047166463 -0.0075945524 -0.051133536 0.0004729199 -0.004907674
0.099072695 6.0679165e-05 -0.15068606 2.1471486e-08 0.0036403686 -0.04255546 -0.0024684388 -0.0023854417
4.005942e-10 -0.00574265 -4.3064272e-05 0.030858831 -0.11184754 -0.03221965 2.0284155e-05 0.04954593
-0.015638 0.00089948566 -0.07782278 0.034259025 -0.0061938944 0.053786203 -0.016549893 0.011117146
0.023342814 0.018151771 6.9168536e-08 -3.4815017e-05 0.022432618 -0.051487435 0.01640762 -0.022968695
-0.019259049 0.070709564 0.022952352 -0.02985172 -0.01404411 -1.1384779e-08 -0.030705009 0.0054742354
0.0006322354 3.516186e-05 -0.016226955 0.05775034 0.011850312 -0.006245755 0.013820247 -0.016446933
0.0049883164 -0.028941356 0.00015333715 0.031185858 -0.0033649595 -0.030167794 0.006031373 -0.0049533388
0.01667887 -0.0077340407 -0.061295398 3.718829e-10 0.040760536 0.027616248 0.010968005 0.09063197
-0.00042890667 -0.0032538683 -0.052286707 0.0030074168 -0.032495648 -0.050872006 -0.00583949 0.08737302
0.0019342203 0.059195183 0.035242725 -0.0065987515 -0.15421943 0.01263464 -0.06586977 -0.03877455
0.06255976 0.017689705 -0.0097928485 0.010918358 -0.030127823 0.034006644 0.00035868536 -0.0053251632
0.0507974 0.047695603 0.024142802 -0.14299373 0.0005691504 0.0010468463 0.04273495 -0.007621454
0.025627038 0.024271697 -0.000843413 0.00036835662 0.07319577 -0.004968884 0.007848199 0.007994198
00000000: 01f3 3ab3 8435 27bc 46b2 e0b3 2e45 c7bc
00000010: accf 823b 8dc5 2e3d 03d8 debc 59b0 febc
00000020: 4fbf 553d 1848 f83c 4975 c33b 7f50 a1bd
00000030: a140 81bb bad8 903d 0228 6f38 f1de afbd
00000040: 4856 02bd 1df6 503c 2700 baba 434b 133d
00000050: 1536 66bc a430 38bc c9bb f9bb 37f4 b6ba
00000060: bf96 b43d 1a1f b7bc c8c4 8e3c 997f 72ba
00000070: fb51 da3c 369c 90bc c60c 8abd e444 793a
00000080: 695d 8abc e52f f23c 386d 3f39 630d d1bc
00000090: 3c10 90bc 3242 8ebc 0a70 773c 713d 843c
000000a0: 1195 573b eb08 523d f7a4 883c bc1d 13be
000000b0: 3a90 d5bb dd5f cf3c cae2 1dbc 0605 343d
000000c0: 266c a5bb bb7f 7eb3 9542 5c3d e8f5 50bc
000000d0: 24dc 093c 87d0 26ba b84f 3a3c 06e1 ef3a
000000e0: c31d 30bc bffb 133d 1d74 f13d 9b06 0d3e
000000f0: a411 ee3c 779d 4abd 4edd 1d39 7cc3 f3bb
00000100: 75e6 8cbc 387c 10bc 8f11 c23c 6484 2833
00000110: fc70 45bd 6004 bd3c 6663 39ba 9c01 ae3c
00000120: b5c1 6d38 ebee 18bd dfe8 72bc f844 4d3d
00000130: 0753 85bc c730 6e3c a983 b83c 5d2c 44bc
00000140: a5d7 41bd 7589 693d 6cfe 7b33 7d78 87bc
00000150: 58fc 16bc 0011 1e32 e6ca 19bd e01f 28b3
00000160: 9d45 87b3 6f5c 9dbc a8b0 4bbc ada5 63bd
00000170: 9988 2abd a383 13b9 1473 5e39 f919 00bc
00000180: 6573 213d 0e31 f33c f835 c8bc b60a 9eb2
00000190: 97a8 043d 2fc8 fa3b 68dd 6ebc eed5 9db3
000001a0: a987 88bc 2452 5dbc 6548 bc3c 5b1b 29bd
000001b0: cb5b b33c e582 7e3d 6ed9 893c e1d8 573d
000001c0: 9d6c eebc 2809 e0ba 2446 d2bd eef5 003c
000001d0: 388b a8bd 4597 7a3c 7f34 b733 d17a 1cbd
000001e0: 88a7 25bd 08be 243d c9db c7bc 5218 5eb2
000001f0: 2552 dabb 3edf f8bc 5b4d 9a3d a3da 63bc
00000200: 9d85 183d 7734 283b 778b 09bd fdf1 bfbc
00000210: 4c3c cd3c 3399 f7bc f4fc f0bc 5db1 d33d
00000220: 7b90 483d ceea f4bc aa5e 2abc d2bf 34bd
00000230: 2d36 773a 76ec d9bc da56 353d f9a5 5b3c
00000240: 8de3 033d 6fba d73c 0628 dc3c 9f31 41bd
00000250: b9db f8bb 6671 51bd 3cf2 f739 8ed0 a0bb
00000260: a0e6 ca3d c281 7e38 724d 1abe 4c70 b832
00000270: 4093 6e3b a24e 2ebd 88c5 21bb 1255 1cbb
00000280: 9f3a dc2f d72c bcbb e99f 34b8 a9cb fc3c
00000290: 5310 e5bd c0f8 03bd e427 aa37 acf0 4a3d
000002a0: 431b 80bc 76cb 6b3a 8d61 9fbd 3153 0c3d
000002b0: 27f6 cabb ec4e 5c3d a493 87bc b124 363c
000002c0: 6e39 bf3c 06b3 943c ce89 9433 5706 12b8
000002d0: 9cc4 b73c 7de4 52bd 4669 863c d828 bcbc
000002e0: 27c5 9dbc 2dd0 903d 9206 bc3c 988b f4bc
000002f0: 4419 66bc ca96 43b2 1289 fbbc 3761 b33b
00000300: 99bc 253a c27a 1338 64ee 84bc 9f8b 6c3d
00000310: d027 423c 31a9 ccbb 516e 623c b8bb 86bc
00000320: 0875 a33b 6c16 edbc 21c9 2039 7c79 ff3c
00000330: a786 5cbb 7322 f7bc d3a2 c53b 9e4f a2bb
00000340: 20a2 883c d66d fdbb e210 7bbd de71 cc2f
00000350: 85f4 263d 783b e23c 26b3 333c 419d b93d
00000360: e1de e0b9 da3e 55bb 962a 56bd 1518 453b
00000370: 281a 05bd 2a5f 50bd 3159 bfbb a0f0 b23d
00000380: aa85 fd3a a676 723d ad5a 103d 573a d8bb
00000390: b3eb 1dbe 8501 4f3c bbe6 86bd 10d2 1ebd
000003a0: 551f 803d 00ea 903c 2f72 20bc eae2 323c
000003b0: a0ce f6bc 8d4a 0b3d ef0d bc39 b57e aebb
000003c0: ef10 503d 775c 433d 20c7 c53c f36c 12be
000003d0: 0933 153a 5536 893a d80a 2f3d 64bd f9bb
000003e0: cbef d13c 70d5 c63c 7d18 5dba fd1f c139
000003f0: aae7 953d 05d2 a2bb bc95 003c 19fa 023c

convs.0.fcn.bias f4 [16]
0.051631812 0.036732193 0.039530367 0.028498573 0.114268586 0.04516711 0.14484987 0.16408886
0.12975205 0.11310536 0.040067613 0.07527865 0.07095109 0.046128236 0.039121162 0.015450843
00000000: e17b 533d 7f74 163d 98ea 213d d775 e93c
00000010: a605 ea3d 2601 393d 8653 143e e906 283e
00000020: b9dd 043e c8a3 e73d f01d 243d b12b 9a3d
00000030: ce4e 913d f6f0 3c3d 833d 203d 8825 7d3c

convs.1.deg_coeff f4 [2]
-0.0058084102 0.058079667
00000000: 7a54 bebb f2e4 6d3d

convs.1.coeff f4 [3]
-1.337855 -1.2501135 1.4882714
00000000: d53e abbf b803 a0bf ad7f be3f

convs.1.fcn.weight f4 [16, 16]
0.33863193 0.18718667 -0.3816797 0.19828299 0.14732248 0.0038218566 0.19205965 -0.103081115
0.23066534 0.25711894 0.2259547 0.11442481 -0.02577064 0.26830974 -0.1988799 -0.18164352
0.19890545 0.2591776 -0.089620225 0.26159316 0.20135406 -0.13532849 0.18857479 -0.21466109
-0.01640023 0.02812853 0.24541767 0.25432217 0.048196156 0.22347254 0.06763876 0.0027164407
-0.3803298 -0.084712476 0.7525354 -0.042020585 -0.18116179 -0.047015082 -0.27194145 -0.07038835
-0.42078036 -0.2574248 -0.04873783 -0.06878167 0.09605623 -0.071787976 0.38445148 0.49699873
0.19560175 0.2640802 -0.017565012 0.45443794 0.081474334 0.21453458 0.083596446 -0.41485783
-0.10026298 -0.08043188 0.48813307 0.060432184 -0.23994595 0.22091076 0.16912898 0.2267067
0.13579808 0.18892711 -0.15983026 0.06296611 0.4322505 -0.21951756 0.44743392 0.123080224
0.07739715 -0.10017875 -0.04935204 0.43780842 0.16801853 -0.09642828 0.14262678 -0.24214779
-0.01005039 -0.1520293 -0.018322375 0.21281049 -0.2215744 1.0356264 -0.11402045 -0.103513524
0.030450668 -0.31333634 0.31745115 -0.507129 -0.767563 -0.27129474 0.13582431 0.2985542
0.1716354 0.1689288 -0.24460371 0.05865723 0.45541167 -0.115663625 0.48048127 0.17174761
0.14988582 -0.086283036 -0.0482363 0.4043296 0.10581368 -0.13810499 0.102834016 -0.29516557
-0.13929023 -0.24318229 -0.03312568 -0.44001666 0.08893979 -0.08162846 0.13019316 0.6029278
0.2162933 0.03888058 -0.52077883 0.040767334 0.21034442 -0.35826734 -0.08548301 -0.32312623
0.2052321 -0.03814344 -0.36255488 -0.099556215 0.061724197 0.04971842 0.13580357 0.23171796
0.40544122 0.35115215 -0.07506704 -0.026680937 0.04039488 0.070941456 -0.34850895 -0.33611068
0.22515756 0.00036345082 -0.19409367 -0.08017708 -0.14123796 -0.24086863 -0.12629977 0.05831105
0.34442252 0.72421205 0.021959184 -0.10212452 0.25282884 0.4969876 -0.5374149 -0.19110024
0.21904117 0.24355583 0.0069026006 0.51036644 -0.03341025 0.33597848 -0.022115832 -0.47418728
-0.07185319 0.019597137 0.5996822 -0.07265198 -0.3101917 0.33286884 0.09299863 0.31414774
0.11685643 0.252423 -0.051492378 0.057491202 0.48083815 -0.47746715 0.43555474 0.090817414
0.004647618 -0.05594988 -0.07788936 0.6018741 0.3445585 0.003143162 0.17566204 -0.22072476
-0.030023523 0.047787495 0.15090089 -0.22952409 0.16435747 -0.67738605 0.10567104 0.2572451
0.06850087 0.3131288 -0.29963127 0.33713466 0.6243831 0.17226878 -0.10213169 -0.19247806
0.26334384 0.216358 -0.021247892 0.22219394 -0.10028141 -0.2589959 -0.13945767 -0.30117667
0.0887695 0.5324602 0.32521477 0.016288148 0.18574946 0.6844948 -0.28707466 0.07771495
-0.20914279 0.056650914 0.39227054 0.14741789 0.15336035 0.1666963 0.117486425 -0.07503537
-0.37012148 -0.5663132 0.059816997 0.15359679 -0.13725042 -0.31502384 0.6087148 0.31619665
-0.19149913 -0.006132025 0.5359991 0.22941922 -0.27728257 0.32823253 -0.3294849 -0.35604176
-0.38225454 -0.24508339 0.2991186 -0.24948415 -0.24218202 0.06510996 0.3193731 0.61540693
00000000: 2a61 ad3e ddad 3f3e 866b c3be b20a 4b3e
00000010: b4db 163e 1d78 7a3b 49ab 443e 311c d3bd
00000020: 8933 6c3e 18a5 833e ab60 673e 8e57 ea3d
00000030: f31c d3bc e55f 893e 2ca7 4bbe c200 3abe
00000040: dfad 4b3e edb2 843e cf8a b7bd 8aef 853e
00000050: c22f 4e3e 8d93 0abe c019 413e 1ed0 5bbe
00000060: c659 86bc ce6d e63c c54e 7b3e 8436 823e
00000070: 5569 453d fcd5 643e 3186 8a3d 5006 323b
00000080: 96ba c2be bc7d adbd 29a6 403f c71d 2cbd
00000090: 7a82 39be e392 40bd e93b 8bbe c427 90bd
000000a0: 8670 d7be 2fcd 83be 52a1 47bd 67dd 8cbd
000000b0: 21b9 c43d 9305 93bd d3d6 c43e 9e76 fe3e
000000c0: d34b 483e 8535 873e 80e4 8fbc 17ac e83e
000000d0: 04dc a63d f4ae 5b3e 9d34 ab3d 3f68 d4be
000000e0: ad56 cdbd 78b9 a4bd 94ec f93e bd87 773d
000000f0: 64b4 75be 6e36 623e 2630 2d3e cd25 683e
00000100: a70e 0b3e 1c76 413e 8baa 23be 60f4 803d
00000110: f04f dd3e 36c9 60be 0f16 e53e 7c11 fc3d
00000120: 6682 9e3d 842a cdbd 5d25 4abd 6d28 e03e
00000130: 0d0d 2c3e 317c c5bd c10c 123e 97f5 77be
00000140: 64aa 24bc 92ad 1bbe ce18 96bc feea 593e
00000150: 66e4 62be 688f 843f 8e83 e9bd e6fe d3bd
00000160: ae73 f93c 9f6d a0be f588 a23e 35d3 01bf
00000170: 027f 44bf 25e7 8abe 8715 0b3e 19dc 983e
00000180: 31c1 2f3e acfb 2c3e 6579 7abe 9042 703d
00000190: b82b e93e 0de1 ecbd a401 f63e 9bde 2f3e
000001a0: ab7b 193e 29b5 b0bd 6d93 45bd 4a04 cf3e
000001b0: d8b4 d83d 656b 0dbe a49a d23d f11f 97be
000001c0: 19a2 0ebe c704 79be cbae 07bd dd49 e1be
000001d0: 1126 b63d d22c a7bd 5b51 053e 7a59 1a3f
000001e0: fe7b 5d3e 3e41 1f3d c351 05bf a6fb 263d
000001f0: 8764 573e d16e b7be b711 afbd cd70 a5be
00000200: 5d28 523e 4c3c 1cbd cba0 b9be 21e4 cbbd
00000210: 83d2 7c3d 8ba5 4b3d 1710 0b3e 7947 6d3e
00000220: fe95 cf3e 37ca b33e c0bc 99bd fb91 dabc
00000230: 1a75 253d c149 913d c46f b2be b316 acbe
00000240: b48f 663e 8b8d be39 7ec0 46be e233 a4bd
00000250: afa0 10be 44a6 76be ba54 01be 91d7 6e3d
00000260: 2658 b03e f665 393f bfe3 b33c a926 d1bd
00000270: c872 813e 2975 fe3e 0694 09bf c8af 43be
00000280: 544c 603e b366 793e 362f e23b 60a7 023f
00000290: 30d9 08bd 5f05 ac3e 432c b5bc adc8 f2be
000002a0: c427 93bd 2d8a a03c c684 193f 90ca 94bd
000002b0: 72d1 9ebe c96d aa3e 1176 be3d f9d7 a03e
000002c0: 6d52 ef3d 963d 813e ace9 52bd e57b 6b3d
000002d0: 6b30 f63e 9376 f4be 0801 df3e 7bfe b93d
000002e0: 0c4b 983b b42b 65bd 7584 9fbd 6c14 1a3f
000002f0: f969 b03e 82fd 4d3b c0e0 333e ac05 62be
00000300: e4f3 f5bc d2bc 433d c385 1a3e 5d08 6bbe
00000310: 534d 283e 2c69 2dbf 0f6a d83d a1b5 833e
00000320: 2f4a 8c3d 6b52 a03e 4569 99be ea9c ac3e
00000330: 92d7 1f3f 3a67 303e 6b2a d1bd f818 45be
00000340: 01d5 863e f48c 5d3e 0f10 aebc cf86 633e
00000350: 5760 cdbd 1c9b 84be fecd 0ebe d433 9abe
00000360: c9cc b53d 504f 083f 8d82 a63e b96e 853c
00000370: 1b35 3e3e 0d3b 2f3f 73fb 92be 0429 9f3d
00000380: 8729 56be ca0a 683d afd7 c83e b7f4 163e
00000390: 7f0a 1d3e 6fb2 2a3e b99c f03d 25ac 99bd
000003a0: 9080 bdbe e7f9 10bf ab02 753d 7a48 1d3e
000003b0: 608b 0cbe ce4a a1be bcd4 1b3f 87e4 a13e
000003c0: 5918 44be 27ef c8bb 3d37 093f dfec 6a3e
000003d0: fbf7 8dbe 180e a83e 3fb2 a8be 1b4b b6be
000003e0: deb6 c3be 24f7 7abe 1326 993e c678 7fbe
000003f0: 90fe 77be 5f58 853d df84 a33e 4f8b 1d3f

convs.1.fcn.bias f4 [16]
0.033166025 0.037152015 0.12112373 0.061783805 0.02129625 0.10865975 0.036331642 0.09126339
0.07971217 0.12974009 0.11030529 0.013815412 0.117120296 0.11286412 0.05352098 0.108759046
00000000: 19d9 073d b62c 183d b80f f83d 0411 7d3d
00000010: 7975 ae3c 0189 de3d 7dd0 143d 4de8 ba3d
00000020: 2240 a33d 96da 043e bde7 e13d 0a5a 623c
00000030: c4dc ef3d 4e25 e73d d138 5b3d 10bd de3d

convs.2.deg_coeff f4 [2]
-0.008211401 0.016159955
00000000: 1d89 06bc e261 843c

convs.2.coeff f4 [3]
-0.53162295 -0.54206765 0.96080977
00000000: 7118 08bf f2c4 0abf a1f7 753f

convs.2.fcn.weight f4 [16, 16]
0.08400506 0.04678325 -0.10492642 0.043423917 0.03659526 -0.010249007 0.046537157 -0.028547801
0.057717945 0.06473959 0.048811194 0.030630313 -0.0024427762 0.06606973 -0.059050202 -0.056799266
0.04814198 0.065181315 -0.033757795 0.06058207 0.046821896 -0.044235528 0.042957664 -0.058976293
-0.006326344 0.003369782 0.05535944 0.06419481 0.012383252 0.051619675 0.008176313 -0.008813182
-0.100102104 -0.026484547 0.17468071 -0.010559399 -0.054044034 -0.0071442854 -0.07673636 -0.025973922
-0.107203454 -0.07164252 -0.011150288 -0.028283717 0.009962677 -0.024781173 0.09421846 0.12375124
0.041455187 0.06124579 -0.015851708 0.10878781 0.009379198 0.04652348 0.006765239 -0.11369474
-0.035001546 -0.032463353 0.1154927 0.006865037 -0.06642224 0.045291957 0.036700044 0.054242834
0.036082227 0.046568792 -0.05536518 0.010401434 0.104516335 -0.07021767 0.10631298 0.027782736
0.020518498 -0.0239643 -0.018551404 0.114342384 0.046702683 -0.02162397 0.024870526 -0.07421733
-0.012873787 -0.041496374 -0.005895115 0.05012807 -0.06771064 0.27210054 -0.045661453 -0.03961514
-0.011492297 -0.085616395 0.073940106 -0.1309029 -0.19494951 -0.07500534 0.041857112 0.084796265
0.044980753 0.0419935 -0.07762494 0.008616717 0.10508018 -0.047143016 0.11960803 0.037652522
0.037355736 -0.020792527 -0.01914546 0.10239896 0.032012876 -0.030727815 0.014001956 -0.08918137
-0.032143135 -0.058931176 -0.012504529 -0.11624369 0.027144603 -0.03235268 0.0375852 0.15138182
0.056617785 0.012988979 -0.1342092 0.017154258 0.060536455 -0.08363048 -0.02563231 -0.09049416
0.05639923 -0.006034863 -0.10399443 -0.028592795 0.019481506 -0.003085896 0.03715037 0.056383234
0.10208466 0.091309 -0.023636814 0.00018689768 0.017473463 0.022069396 -0.09719997 -0.09800922
0.062192693 0.0029173212 -0.06443746 -0.023678057 -0.030709963 -0.07235768 -0.027260771 0.011839788
0.08710618 0.18284395 -0.00049564947 -0.022333022 0.067974456 0.12637776 -0.14406551 -0.061469793
0.04456654 0.055544503 -0.011125305 0.11923486 -0.01931604 0.07368704 -0.020737635 -0.13304092
-0.033439506 -0.015684532 0.13834424 -0.02590241 -0.08559042 0.0650166 0.021327145 0.074847005
0.032491386 0.06286046 -0.02928249 0.0070933467 0.114816606 -0.13378027 0.10769703 0.023817362
0.005966618 -0.01397261 -0.027403025 0.14460841 0.09141787 0.002329458 0.030753855 -0.07316201
-0.0027305677 0.013121933 0.02047369 -0.06338591 0.046992134 -0.18422027 0.032540888 0.06696971
0.021696646 0.07596357 -0.08257153 0.09050604 0.15988126 0.043441843 -0.036734838 -0.06753219
0.06424208 0.051815163 -0.021701772 0.048515663 -0.024490066 -0.07619363 -0.03481381 -0.08000614
0.019864239 0.122035764 0.07254255 0.0035610273 0.04518989 0.1601005 -0.081503175 0.005510209
-0.059069235 0.008800493 0.092173725 0.035274003 0.02406665 0.04298289 0.012922299 -0.030957535
-0.1000183 -0.14781865 0.014771881 0.026780458 -0.04398096 -0.08290262 0.14860736 0.083918
-0.057409436 -0.0077343634 0.12770501 0.058171306 -0.081814215 0.087755546 -0.09512641 -0.10079182
-0.10835245 -0.07415932 0.07512151 -0.07440741 -0.07607114 0.0034707794 0.08699694 0.16632587
00000000: d80a ac3d cb9f 3f3d aae3 d6bd 47dd 313d
00000010: e9e4 153d 73eb 27bc bf9d 3e3d 14dd e9bc
00000020: a769 6c3d 3196 843d 3fee 473d 6cec fa3c
00000030: fc16 20bb 914f 873d a0de 71bd 59a6 68bd
00000040: 8630 453d c87d 853d 9d45 0abd e824 783d
00000050: 51c8 3f3d 5030 35bd 60f4 2f3d 2091 71bd
00000060: 384d cfbb 8fd7 5c3b 95c0 623d 9278 833d
00000070: 20e3 4a3c 276f 533d f1f5 053c 2a65 10bc
00000080: 5502 cdbd 1ff6 d8bc 80df 323e 5401 2dbc
00000090: 475d 5dbd 9c1a eabb f427 9dbd 43c7 d4bc
000000a0: 7c8d dbbd 50b9 92bd b3af 36bc 41b3 e7bc
000000b0: 7f3a 233c e301 cbbc 9cf5 c03d 4a71 fd3d
000000c0: eacc 293d dedc 7a3d 71db 81bc 25cc de3d
000000d0: 35ab 193c 688f 3e3d f0ae dd3b cad8 e8bd
000000e0: c85d 0fbd 4bf8 04bd 7087 ec3d 1bf4 e03b
000000f0: 6208 88bd 0f84 393d c952 163d bc2d 5e3d
00000100: f5ca 133d ebbe 3e3d 99c6 62bd c76a 2a3c
00000110: a90c d63d 48ce 8fbd 9fba d93d 9f98 e33c
00000120: 6916 a83c c850 c4bc 1df9 97bc 572c ea3d
00000130: 504b 3f3d c024 b1bc 46bd cb3c 41ff 97bd
00000140: 94ec 52bc 1af8 29bd cf2b c1bb 1753 4d3d
00000150: e0ab 8abd c350 8b3e 8107 3bbd 7c43 22bd
00000160: 304a 3cbc a657 afbd e96d 973d 690b 06be
00000170: d8a0 47be 669c 99bd 5d72 2b3d aaa9 ad3d
00000180: bd3d 383d 6001 2c3d d3f9 9ebd 212d 0d3c
00000190: 4734 d73d 0919 41bd 0ef5 f43d 8839 1a3d
000001a0: 5402 193d 1755 aabc f1d6 9cbc 8cb6 d13d
000001b0: ef1f 033d e6b8 fbbc 7668 653c b9a4 b6bd
000001c0: 85a8 03bd d161 71bd ccdf 4cbc 2c11 eebd
000001d0: 5c5e de3c 3e84 04bd f0f2 193d d603 1b3e
000001e0: 0de8 673d bacf 543c 236e 09be 1687 8c3c
000001f0: 13f5 773d 7546 abbd dafa d1bc 0155 b9bd
00000200: e102 673d 1ac0 c5bb 08fb d4bd 703b eabc
00000210: ae97 9f3c be3c 4abb fd2a 183d 1bf2 663d
00000220: c311 d13d 3700 bb3d fea1 c1bc f7f9 4339
00000230: 8224 8f3c e1ca b43c c710 c7bd 0fb9 c8bd
00000240: c4bd 7e3d 8730 3f3b c9f7 83bd 7cf8 c1bc
00000250: 7693 fbbc 4330 94bd fb51 dfbc acfb 413c
00000260: ba64 b23d 723b 3b3e 79ee 01ba bef3 b6bc
00000270: 3136 8b3d 2c69 013e e985 13be c0c7 7bbd
00000280: 678b 363d a282 633d e946 36bc 6831 f43d
00000290: ac3c 9ebc 3be9 963d f9e1 a9bc e13b 08be
000002a0: ddf7 08bd d97c 80bc 1daa 0d3e 4a31 d4bc
000002b0: 084a afbd 6c27 853d 44b6 ae3c 6349 993d
000002c0: b015 053d fcbc 803d d5e1 efbc 4e6f e83b
000002d0: f824 eb3d b2fd 08be 4390 dc3d a11c c33c
000002e0: 9f83 c33b 60ed 64bc 4f7c e0bc 3a14 143e
000002f0: 4b39 bb3d d2a9 183b 82ef fb3c f7d5 95bd
00000300: 53f3 32bb 60fd 563c 71b8 a73c 79d0 81bd
00000310: d37a 403d 3da4 3cbe 9849 053d 6a27 893d
00000320: 2abd b13c ca92 9b3d 431b a9bd 3b5b b93d
00000330: eab7 233e 13f0 313d 4577 16bd 514e 8abd
00000340: 5a91 833d 233c 543d eac7 b1bc 5cb8 463d
00000350: 649f c8bc 680b 9cbd ed98 0ebd 42da a3bd
00000360: 54ba a23c e3ed f93d 3091 943d 2060 693b
00000370: 0919 393d 63f1 233e 23eb a6bd fc8e b43b
00000380: 95f2 71bd f12f 103c 94c5 bc3d 797b 103d
00000390: 6c27 c53c d40e 303d 0db8 533c a89a fdbc
000003a0: 65d6 ccbd c65d 17be c205 723c b162 db3c
000003b0: 6125 34bd d9c8 a9bd 872c 183e 33dd ab3d
000003c0: 2826 6bbd 8b70 fdbb 1ac5 023e 0945 6e3d
000003d0: 368e a7bd 2eb9 b33d a3d1 c2bd f16b cebd
000003e0: e4e7 ddbd d7e0 97bd 4ed9 993d ea62 98bd
000003f0: 30cb 9bbd 0476 633b 742b b23d 5451 2a3e

convs.2.fcn.bias f4 [16]
-0.0020443946 -0.004766809 0.015836772 0.007690151 -0.005262469 0.010267663 -0.0036419283 0.015531116
0.010297776 0.018733537 0.014901219 -0.004022874 0.018607238 0.009787846 0.004133999 0.013237169
00000000: 40fb 05bb e432 9cbb 1ebc 813c aafd fb3b
00000010: ca70 acbb b339 283c 6bad 6ebb 3976 7e3c
00000020: 01b8 283c 1377 993c 3e24 743c 50d2 83bb
00000030: 356e 983c 345d 203c 7f76 873b b6e0 583c

convs.3.deg_coeff f4 [2]
-0.001423963 0.0037552768
00000000: 45a4 baba 171b 763b

convs.3.coeff f4 [3]
-0.009549997 -0.0077094915 0.11695528
00000000: 9777 1cbc e79f fcbb 4086 ef3d

convs.3.fcn.weight f4 [16, 16]
0.010340072 0.0056922357 -0.011892873 0.0038588373 0.0063240775 -0.0036858078 0.0074691926 -0.0005698738
0.00820752 0.009293906 0.0037020089 0.005739371 0.0022351637 0.0076369788 -0.0074212262 -0.008528772
0.0057273023 0.0072160396 -0.004294727 0.0062040607 0.0066422704 -0.0063287066 0.006067822 -0.005225471
8.664775e-05 0.0008336 0.0052658105 0.008395811 0.0025705788 0.0054896125 0.000936599 -0.0020754356
-0.013749207 -0.004235561 0.021264438 -0.00013537146 -0.010042811 0.0032671844 -0.013526608 -0.006967479
-0.016874209 -0.013474159 0.0005598463 -0.0072730654 -0.0038665177 -0.005180693 0.013124081 0.018188046
0.0029376075 0.005834064 -0.0006682591 0.011518174 0.00013857224 0.006310694 -0.0003512403 -0.013223344
-0.005968157 -0.0067154965 0.012247347 -0.00018366019 -0.008882627 0.0026168132 0.0060326103 0.0075309603
0.006750089 0.006777382 -0.009492221 0.00043807356 0.014324363 -0.010995738 0.014942653 0.0052217175
0.005618894 0.00067888916 -0.0033240775 0.015659122 0.0081356615 -0.00066225155 0.00011206499 -0.012477931
-0.0051318584 -0.0063316682 0.0020808456 0.0064761946 -0.011477285 0.031223377 -0.009740581 -0.008740635
-0.006959449 -0.016314091 0.009672738 -0.01887474 -0.026098048 -0.011732038 0.008473857 0.014715045
0.008030607 0.0064029805 -0.0121657895 0.00046980532 0.015370431 -0.008604057 0.016647758 0.0058571454
0.007863249 0.0013342465 -0.0034234829 0.014843616 0.0068534077 -0.0018737958 -0.0009598571 -0.014189432
-0.0008354549 -0.0050433353 -0.0041820095 -0.011806809 0.004637427 -0.0057062497 0.0061722053 0.01703098
0.009218282 0.005862682 -0.014071266 0.0037769924 0.00886333 -0.0057874965 -0.005612441 -0.0123506235
0.008689906 0.00047842742 -0.012957708 -0.0041473308 0.0049927123 -0.0036940721 0.0072107315 0.009168703
0.014519158 0.014460276 -0.003773951 0.003165523 0.0057943705 0.0045757196 -0.012889415 -0.014200692
0.008448712 0.0010018671 -0.008475412 -0.0038005193 -0.001042666 -0.010803787 -0.00037444924 0.0036383271
0.012408791 0.023303648 -0.0016484618 0.00014574172 0.0110829035 0.015046326 -0.018340828 -0.010265525
0.0024908718 0.0047007357 0.0012079433 0.012649297 -0.00427709 0.010161777 -0.0047685998 -0.016230425
-0.006828373 -0.0060392707 0.015075431 -0.005158857 -0.01220359 0.0045671905 0.0047901603 0.0110677
0.006541088 0.00855298 -0.0074338606 -0.00057919475 0.015856512 -0.01881958 0.014751494 0.0048218435
0.004370127 0.0025775228 -0.004319311 0.019499227 0.013922467 0.0024294686 0.00013838209 -0.013207357
0.0030222088 0.002941314 -0.0016938864 -0.007832055 0.008109539 -0.024016747 0.0069284583 0.009793934
0.0067958036 0.013408218 -0.010201856 0.0132574905 0.021003619 0.0075694406 -0.008131408 -0.012614826
0.0067297826 0.0053067855 -0.002164875 0.004506833 -0.0022242882 -0.008915452 -0.003291154 -0.0076990807
0.0025096873 0.013335973 0.0069963373 0.00074368535 0.005923957 0.016721485 -0.00907554 0.00039921387
-0.008584528 0.00032936258 0.011313449 0.0051097474 0.00014366143 0.006984763 -0.0015039049 -0.0069561945
-0.014629015 -0.021078806 0.0031396954 0.00054021034 -0.008409243 -0.011276204 0.018131074 0.012603047
-0.010631139 -0.002799255 0.017097285 0.007356179 -0.013458646 0.013956579 -0.015864445 -0.015577849
-0.01806364 -0.015742121 0.009741807 -0.013310031 -0.013977921 -0.002652288 0.01392345 0.023830876
00000000: 6869 293c ef85 ba3b 53da 42bc 8ce4 7c3b
00000010: 353a cf3b 988d 71bb 21c0 f43b 9563 15ba
00000020: d578 063c 7845 183c 679d 723b 5511 bc3b
00000030: d37b 123b 9f3f fa3b c22d f3bb 43bc 0bbc
00000040: 18ac bb3b 8774 ec3b c8ba 8cbb 6f4b cb3b
00000050: 67a7 d93b 0a61 cfbb 95d4 c63b 6e3a abbb
00000060: a8b6 b538 f385 5a3a d28c ac3b 958e 093c
00000070: 2877 283b 35e2 b33b 1886 753a 0804 08bb
00000080: 5b44 61bc 76ca 8abb c232 ae3c 80f2 0db9
00000090: 9a8a 24bc 421e 563b b59e 5dbc 734f e4bb
000000a0: c83b 8abc b8c2 5cbc a6c2 123a e552 eebb
000000b0: 6765 7dbb cec2 a9bb 6306 573c 19ff 943c
000000c0: e084 403b ad2b bf3b 1c2e 2fba b9b6 3c3c
000000d0: b44d 1139 f0c9 ce3b ad26 b8b9 baa6 58bc
000000e0: 8890 c3bb ab0d dcbb 19a9 483c e894 40b9
000000f0: 7088 11bc d77e 2b3b 34ad c53b 46c6 f63b
00000100: da2f dd3b cd14 de3b 4385 1bbc 3dad e539
00000110: bcb0 6a3c 7827 34bc 07d2 743c f11a ab3b
00000120: b31e b83b 7bf7 313a c4d8 59bb 8f47 803c
00000130: 704b 053c f39a 2dba 6f04 eb38 3c70 4cbc
00000140: 2629 a8bb e279 cfbb cc5e 083b 4236 d43b
00000150: 390b 3cbc 2bc8 ff3c f596 1fbc e134 0fbc
00000160: 170c e4bb 21a5 85bc 677a 1e3c 339f 9abc
00000170: 93cb d5bc bc37 40bc efd5 0a3c 5f17 713c
00000180: cf92 033c 18d0 d13b 0553 47bc 3450 f639
00000190: 43d4 7b3c 08f8 0cbc e160 883c 4ced bf3b
000001a0: dbd4 003c e2e1 ae3a 835c 60bb a332 733c
000001b0: 8d92 e03b 279a f5ba eb9e 7bba cb7a 68bc
000001c0: 6e02 5bba 9042 a5bb 3d09 89bb 5971 41bc
000001d0: 8ff5 973b 7efb babb 3640 ca3b 8e84 8b3c
000001e0: 4708 173c be1b c03b 2b8b 66bc 6b87 773b
000001f0: 8037 113c 0aa5 bdbb 91e8 b7bb 455a 4abc
00000200: 1c60 0e3c 71d5 fa39 914c 54bc 55e6 87bb
00000210: e899 a33b 3f18 72bb 0048 ec3b 5438 163c
00000220: c3e1 6d3c cbea 6c3c 6454 77bb aa74 4f3b
00000230: b4de bd3b ebef 953b 202e 53bc 05aa 68bc
00000240: 776c 0a3c 1551 833a 74dc 0abc 2212 79bb
00000250: 11aa 88ba 5e02 31bc ba51 c4b9 0071 6e3b
00000260: 3e4e 4b3c 4be7 be3c 3311 d8ba 3fd2 1839
00000270: 1195 353c de84 763c 813f 96bc bc30 28bc
00000280: e53d 233b a108 9a3b da53 9e3a ff3e 4f3c
00000290: d526 8cbb 957d 263c ea41 9cbb abf5 84bc
000002a0: 8bc0 dfbb 13e5 c5bb f1fe 763c a10b a9bb
000002b0: 91f1 47bc 5fa8 953b c7f6 9c3b 4c55 353c
000002c0: a056 d63b cc21 0c3c be97 f3bb 1ad5 17ba
000002d0: 84e5 813c 852b 9abc 40b0 713c 8e00 9e3b
000002e0: 4833 8f3b a8eb 283b 0289 8dbb d8bc 9f3c
000002f0: 0f1b 643c b837 1f3b a91a 1139 ac63 58bc
00000300: 4010 463b 0fc3 403b 6505 deba 0552 00bc
00000310: dfdd 043c c5be c4bc 1f08 e33b bd76 203c
00000320: 55af de3b 24ae 5b3c af25 27bc f235 593c
00000330: c80f ac3c 1209 f83b 9939 05bc 6aae 4ebc
00000340: 8285 dc3b 8be4 ad3b 93e0 0dbb 0eae 933b
00000350: 5dc5 11bb 1e12 12bc 67b0 57bb 9248 fcbb
00000360: 9179 243b 207f 5a3c 8841 e53b e1f3 423a
00000370: c11d c23b 7ffb 883c 93b1 14bc 944d d139
00000380: 1fa6 0cbc 4cae ac39 0b5c 393c ab6f a73b
00000390: d2a3 1639 70e0 e43b ad1e c5ba caf0 e3bb
000003a0: 89ae 6fbc 76ad acbc 59c3 4d3b e79c 0d3a
000003b0: ecc6 09bc d4bf 38bc 9e87 943c 037d 4e3c
000003c0: 3b2e 2ebc b573 37bb 9b0f 8c3c 1a0c f13b
000003d0: a781 5cbc 23aa 643c 27f6 81bc 3c3a 7fbc
000003e0: 33fa 93bc 9ff5 80bc 1a9c 1f3c 5112 5abc
000003f0: a603 65bc 02d2 2dbb 2f1f 643c f838 c33c

convs.3.fcn.bias f4 [16]
0.0001831822 -0.0011841127 -0.0016847526 -0.0037684483 -0.00038665312 -0.0028208448 -0.00014098502 0.00290506
0.0023986844 0.0033767489 -0.0029939767 4.353079e-05 0.0028302558 0.00063013704 -0.0034012643 -0.002911935
00000000: 9914 4039 3b34 9bba ebd2 dcba 12f8 76bb
00000010: b4b7 cab9 ecdd 38bb 61d5 13b9 d262 3e3b
00000020: 3f33 1d3b 724c 5d3b 9836 44bb d494 3638
00000030: d07b 393b c82f 253a bfe7 5ebb 2ad6 3ebb

convs.4.deg_coeff f4 [2]
0.7288603 -0.0860554
00000000: 9796 3a3f d03d b0bd

convs.4.coeff f4 [3]
-1.1182817 -1.1145046 1.1587025
00000000: db23 8fbf 16a8 8ebf 5d50 943f

convs.4.fcn.weight f4 [5, 16]
-0.6853177 -0.61802536 1.1742495 -0.79478675 -1.0173999 -1.2031616 -1.2054311 0.09900274
-0.17947215 1.3507818 -0.4358898 -0.687592 1.0144411 0.7420218 -0.79721916 0.2650542
1.0210238 0.96490765 -0.837748 0.93828034 0.81207734 -0.8697218 0.8530934 -0.97588915
0.3346405 0.83186567 1.0438669 0.9211354 0.31234807 1.0074269 -0.5027998 -0.6824438
-0.46818167 -0.040308315 0.9728567 0.7058844 -0.30967268 1.0112003 -0.30474967 -0.87677485
-0.87675345 -0.8543976 0.9426738 -0.5221479 -1.0171981 -0.48255932 0.969534 1.0295961
-0.7046608 -0.2362822 0.58093834 -0.7620875 0.8969018 -1.0831841 0.87694085 0.9910426
-0.28621858 -0.740095 -1.126408 1.0539291 0.8756772 -1.3358142 0.705327 -0.75180185
0.16114073 -0.8598782 -1.0342188 -0.6520313 -0.31696156 1.0955839 0.07234989 0.87156415
1.0990753 0.7237826 -0.3832664 -1.0040555 -0.6825168 -0.76776564 -1.0649678 -1.0673716
00000000: fb70 2fbf e936 1ebf cf4d 963f 2577 4bbf
00000010: 293a 82bf 3301 9abf 914b 9abf f3c1 ca3d
00000020: 8cc7 37be 6be6 ac3f f32c dfbe 0806 30bf
00000030: 35d9 813f 24f5 3d3f 8e16 4cbf 2fb5 873e
00000040: e8b0 823f 3004 773f a776 56bf 2433 703f
00000050: 4de4 4f3f 16a6 5ebf 5464 5a3f dfd3 79bf
00000060: 0056 ab3e 26f5 543f 6e9d 853f 88cf 6b3f
00000070: 16ec 9f3e 5df3 803f 7db7 00bf a3b4 2ebf
00000080: 82b5 efbe 551a 25bd 230d 793f d7b4 343f
00000090: 6b8d 9ebe 036f 813f 2608 9cbe 5174 60bf
000000a0: ea72 60bf cdb9 5abf 1253 713f 7cab 05bf
000000b0: 8c33 82bf 0412 f7be 6133 783f cec9 833f
000000c0: a664 34bf f6f3 71be 60b8 143f 2b18 43bf
000000d0: 5b9b 653f c7a5 8abf 327f 603f f8b4 7d3f
000000e0: 3e8b 92be de76 3dbf 232e 90bf 26e7 863f
000000f0: 622c 603f f6fb aabf 4f90 343f 1676 40bf
00000100: 1302 253e fa20 5cbf 4861 84bf 86eb 26bf
00000110: c948 a2be 183c 8c3f 2e2c 943d d41e 5f3f
00000120: 80ae 8c3f d149 393f 7e3b c4be e484 80bf
00000130: 6cb9 2ebf 4a8c 44bf dd50 88bf a29f 88bf

convs.4.fcn.bias f4 [5]
-0.14699157 -0.11955714 0.17220093 -0.12612213 -0.057127625
00000000: f584 16be 60da f4bd 7155 303e 2926 01be
00000010: a8fe 69bd

fcn.weight f4 [16, 1703]
3.1886163e-08 -0.0030289358 -4.773267e-08 -0.008489486 0.0010016132 0.013540583 -0.008540838 -0.009794846
0.015793763 0.00961447 0.0022864498 -0.026162481 -0.0015493549 0.022154866 5.724989e-06 -0.026776807
-0.01005808 0.0037048983 -0.0017289792 0.011171574 -0.004488152 -0.0033664613 -0.0022585504 -0.00033403447
0.02795562 -0.0066508586 0.005908588 -0.00013232569 0.008242258 -0.0055360887 -0.019843793 0.00013293923
-0.004917297 0.009677019 -7.8412915e-05 -0.007911103 -0.0054756547 -0.005279594 0.004548057 0.0050072176
0.00084223854 0.016021544 0.005160248 -0.051005784 -0.0018249877 0.0071024704 -0.0026697463 0.012980118
-0.0014464818 -4.2947423e-08 0.016662184 -0.003983496 0.002455238 -2.5458508e-05 0.003729981 0.0001440084
-0.0032805568 0.011480687 0.037455812 0.043364428 0.009352633 -0.015189044 2.18338e-05 -0.002317265
-0.005482116 -0.001992294 0.0071371524 3.632763e-08 -0.015552346 0.006868213 -0.00040300505 0.0067989137
7.345269e-07 -0.011462786 -0.0047580265 0.015449019 -0.00482361 0.0058509605 0.005767713 -0.0037760374
-0.014825165 0.017722927 -1.1535424e-07 -0.005046667 -0.0027218014 -8.514476e-09 -0.01242543 -3.352272e-08
3.3565395e-09 -0.0060491334 -0.004223237 -0.017178066 -0.013246995 -0.00018494768 7.2536927e-06 -0.0030087628
0.012457893 0.009233838 -0.0072722337 1.445646e-08 0.009942585 0.0025436813 -0.004037517 -6.829614e-08
-0.0050924723 -0.0035251654 0.0073268423 -0.012711003 0.006983763 0.019651655 0.0051706983 0.01658629
-0.009069896 -0.0004095329 -0.03267838 -0.0035836545 -0.025389392 0.0049198484 -3.324105e-08 -0.011224712
-0.013174022 0.013316464 -0.007705036 9.4754675e-08 -0.0021119292 -0.009438899 0.022825567 -0.0042748316
0.011741416 0.00080913433 -0.010381076 -0.0070133954 0.008017699 -0.009446472 -0.009136473 0.031519443
0.016079934 -0.009057711 -0.0033332033 -0.0138407415 0.00034238532 -0.008768817 0.009958008 0.0036544807
0.010591744 0.008465018 0.009290869 -0.01442425 -0.00263745 -0.017225511 0.00073685864 -0.0018618053
0.03161277 -4.1003445e-06 -0.04628146 -1.7433352e-10 0.0017917836 -0.013342027 -0.000624607 -0.00064738
3.3566554e-08 -0.001931742 -3.92354e-06 0.009431424 -0.03731402 -0.009981203 -3.783892e-05 0.015471021
-0.0047790403 -0.00012996797 -0.023864258 0.010542337 -0.0022219769 0.0170425 -0.005100939 0.0036537577
0.0074163047 0.005259955 3.9341472e-09 -4.3434943e-06 0.007208163 -0.015325838 0.0051006363 -0.0069642877
-0.005922997 0.022104723 0.00726799 -0.009182313 -0.004253017 7.2370156e-08 -0.009291006 0.00165955
8.762475e-05 -3.6569766e-06 -0.004620737 0.018359926 0.0043613818 -0.0022797463 0.0037576668 -0.004816233
0.0014428729 -0.008898524 -0.0004468008 0.009593037 -0.0013349834 -0.008551901 0.0016024174 -0.001648672
0.0050299033 -0.002537782 -0.019160252 -2.8166758e-08 0.013319997 0.00895013 0.0036038416 0.028231548
-0.0005074038 -0.0006392645 -0.016313665 0.0006101624 -0.00979831 -0.016292246 -0.0020687433 0.027007591
0.00033733787 0.018120313 0.00994036 -0.0027178896 -0.054372184 0.004200005 -0.020762922 -0.012010069
0.019675486 0.0055511054 -0.002735378 0.0035299333 -0.009213692 0.009863154 -5.305283e-05 -0.0015144235
0.015989928 0.014892149 0.007469779 -0.045576036 0.00014929635 4.7540518e-05 0.013258572 -0.002306378
0.008125692 0.007781771 -0.00014306544 -3.384522e-05 0.023086824 -0.0016450243 0.002801816 0.002595167
00000000: 35f3 0833 1c81 46bb a002 4db3 7c17 0bbc
00000010: 9048 833a 52d9 5d3c dfee 0bbc 907a 20bc
00000020: ec61 813c 0386 1d3c 43d8 153b b352 d6bc
00000030: b913 cbba 1f7e b53c 4819 c036 095b dbbc
00000040: a5ca 24bc e1cd 723b ea9e e2ba fa08 373c
00000050: 5911 93bb d99f 5cbb 3004 14bb 5921 afb9
00000060: 2f03 e53c 72ef d9bb d49c c13b e8c0 0ab9
00000070: 890a 073c 1468 b5bb 738f a2bc 9a65 0b39
00000080: 4721 a1bb 5c8c 1e3c 9d71 a4b8 929d 01bc
00000090: 1f6d b3bb 7200 adbb de07 953b 9613 a43b
000000a0: acc9 5c3a 9d3f 833c 4c17 a93b 71eb 50bd
000000b0: 6d34 efba d7bb e83b e9f6 2ebb 90aa 543c
000000c0: e097 bdba 3175 38b3 227f 883c fd87 82bb
000000d0: 0fe8 203b bb8f d5b7 b272 743b f600 1739
000000e0: 9cfe 56bb 7e19 3c3c 446b 193d e69e 313d
000000f0: c93b 193c 78db 78bc ba27 b737 41dd 17bb
00000100: 52a3 b3bb 2691 02bb c6de e93b a706 1c33
00000110: 44cf 7ebc bf0e e13b 6c4a d3b9 6cc9 de3b
00000120: 4e2c 4535 69ce 3bbc 38e9 9bbb e21d 7d3c
00000130: 600f 9ebb 6ab9 bf3b 15ff bc3b 6577 77bb
00000140: 40e5 72bc ac2f 913c aab8 f7b3 835e a5bb
00000150: 4060 32bb 1047 12b2 0894 4bbc 9ffa 0fb3
00000160: dea8 6631 cf37 c6bb 1463 8abb 04b9 8cbc
00000170: ed09 59bc 84ee 41b9 bf64 f336 aa2e 45bb
00000180: 311c 4c3c 8649 173c eb4b eebb 2f5c 7832
00000190: 39e6 223c e4b3 263b 264d 84bb 33aa 92b3
000001a0: c1de a6bb 7606 67bb 0216 f03b d041 50bc
000001b0: 0dd8 e43b 82fc a03c f66e a93b f9df 873c
000001c0: e799 14bc 93b6 d6b9 c4d9 05bd bfdb 6abb
000001d0: 6afd cfbc ae36 a13b ecc4 0eb3 dbe7 37bc
000001e0: dad7 57bc 4c2d 5a3c 877a fcbb ef7b cb33
000001f0: 4b68 0abb 9da5 1abc affc ba3c e313 8cbb
00000200: 115f 403c 161c 543a 6315 2abc a0d0 e5bb
00000210: ab5c 033c 60c5 1abc 25b1 15bc 881a 013d
00000220: 11ba 833c cb66 14bc df71 5abb 47c4 62bc
00000230: 2e82 b339 16ab 0fbc ea26 233c 0380 6f3b
00000240: ff88 2d3c dcb0 0a3c bb38 183c b153 6cbc
00000250: 11d9 2cbb 841c 8dbc bf29 413a d207 f4ba
00000260: 647c 013d b195 89b6 a191 3dbd 86ae 3faf
00000270: 48da ea3a 8498 5abc abbc 23ba f0b4 29ba
00000280: d12a 1033 8132 fdba f4a6 83b6 4286 1a3c
00000290: 96d6 18bd 3388 23bc 3bb5 1eb8 2a7a 7d3c
000002a0: 7f99 9cbb 0348 08b9 fa7e c3bc c4b9 2c3c
000002b0: 969e 11bb b79c 8b3c c725 a7bb e273 6f3b
000002c0: 7904 f33b b35b ac3b 202d 8731 55be 91b6
000002d0: 7432 ec3b 3919 7bbc 3d23 a73b ae34 e4bb
000002e0: b315 c2bb f714 b53c 5228 ee3b 6a71 16bc
000002f0: e45c 8bbb ea69 9b33 4e39 18bc 4285 d93a
00000300: 2ec3 b738 616a 75b6 8d69 97bb 8e67 963c
00000310: ece9 8e3b cc67 15bb 3043 763b 7ed1 9dbb
00000320: c81e bd3a 1dcb 11bc 9740 eab9 1d2c 1d3c
00000330: 9cfa aeba 461d 0cbc 3508 d23a 4118 d8ba
00000340: e3d1 a43b eb50 26bb f6f5 9cbc 5bf3 f1b2
00000350: 1e3c 5a3c 91a3 123c 6e2e 6c3b d945 e73c
00000360: 4b03 05ba 5094 27ba 3ca4 85bc 4ef3 1f3a
00000370: 1789 20bc 5177 85bc c193 07bb 063f dd3c
00000380: b9dc b039 0d71 943c e4dc 223c 9f1e 32bb
00000390: 5eb5 5ebd 32a0 893b 0117 aabc e1c5 44bc
000003a0: 7c2e a13c 0ce6 b53b 0744 33bb 7456 673b
000003b0: 06f5 16bc 1199 213c 0b85 5eb8 9f7f c6ba
000003c0: 4ffd 823c 33fe 733c 0cc5 f43b f0ad 3abd
000003d0: 6f8c 1c39 3e66 4738 7b3a 593c 9a26 17bb
000003e0: 9f21 053c 3afe fe3b d603 16b9 07f5 0db8
000003f0: 9420 bd3c db9d d7ba ac9e 373b ad13 2a3b

fcn.bias f4 [16]
-0.028285868 -0.03430336 0.5299919 0.049243882 -0.05023988 0.28651795 -0.036995515 0.051526826
0.013751322 0.17454565 0.03238613 -0.051967375 0.007971725 0.046560165 0.09230732 0.16575122
00000000: c4b7 e7bc ae81 0cbd 8dad 073f f4b3 493d
00000010: 55c8 4dbd 7bb2 923e 9c88 17bd cb0d 533d
00000020: 3a4d 613c 18bc 323e 52a7 043d bedb 54bd
00000030: d79b 023c dfb5 3e3d 9f0b bd3d b0ba 293e
