GGCN/pretrained/GGCN_chameleon_08_02_07_13.pt (torch, 617044 bytes, 22 tensors)

convs.0.deg_coeff f4 [2]
000000 0c 93 5e 3e 13 7d 96 3e
       0.21735781 0.293923

convs.0.coeff f4 [3]
000000 2b 48 58 3e 51 c5 8e be 6c 87 46 3e
       0.2112128 -0.27884915 0.19387597

convs.0.fcn.weight f4 [32, 2325]
000000 76 02 84 3a 04 7e c9 3a c0 2b d6 ba ca 82 3e bd
       0.0010071534 0.0015372639 -0.0016339943 -0.04651145
000010 94 48 57 bb 26 3d 3b 3b 9a 71 77 39 3d 42 84 38
       -0.0032849656 0.0028570383 0.00023598075 6.306588e-05
000020 2f bc ee 3a 5b 3e e7 3a a7 b0 d4 b9 45 20 3c bb
       0.0018214042 0.0017642485 -0.00040567407 -0.0028705758
000030 77 34 9e bb 86 1c 82 bb a4 28 43 3b a7 f3 9b ba
       -0.0048280316 -0.0039706854 0.0029778862 -0.0011898176
000040 17 b6 a5 3a 74 0f 9d 3a a7 29 e7 3a ea 33 44 3b
       0.0012642768 0.0011982755 0.0017636315 0.002993817
000050 6c f7 43 39 22 df 31 ba af 97 76 bb 8b 95 0d bb
       0.00018688821 -0.00067852635 -0.0037627032 -0.0021604027
000060 a4 a9 7c bb 04 d2 a6 bc e6 0a 16 3b ab e5 01 3a
       -0.0038553262 -0.020363815 0.002289468 0.00049551827
000070 06 fe 0a 3b e0 8f ee ba 1b 0b fd 3a ee 07 0a 3b
       0.0021208539 -0.0018200837 0.0019305678 0.0021061855
000080 a4 dd 8e 3a 49 04 8d bc e7 03 44 ba 1c f8 4b 3a
       0.0010899794 -0.017213957 -0.0007477388 0.00077808066
000090 b1 a3 5f 3b de ea 65 3b b4 45 19 3b b5 45 bc 3a
       0.0034124667 0.0035082619 0.0023387494 0.0014364036
0000a0 33 7d aa 3a 72 cd f0 3a 32 59 49 3b 40 a6 05 bd
       0.0013007283 0.0018371774 0.003072333 -0.03262925
0000b0 1b 2c f9 3a 71 a9 ea bc 2c 3d 41 3b 8a b9 c9 3a
       0.0019010337 -0.02864525 0.0029485924 0.0015390378
0000c0 63 90 58 ba ed d7 8b bc 4c 7c 4a 3b 71 98 81 ba
       -0.00082612614 -0.017070735 0.003089684 -0.000988735
0000d0 a5 98 90 3b aa c8 44 bb 3c fa 64 ba b2 b2 29 3b
       0.004412728 -0.0030026832 -0.00087347976 0.0025893864
0000e0 57 12 2a 3c ba 6b 16 3a b0 0e 95 3a 19 5a fe ba
       0.010380349 0.00057380984 0.0011372175 -0.0019405513
0000f0 eb 82 24 3b c2 a1 07 3b 0e 45 7a ba f8 5c 30 3a
       0.0025102447 0.002069578 -0.0009547033 0.00067277206
000100 8c 22 80 ba 1c 86 c9 ba f5 03 b2 3a 72 79 0e ba
       -0.0009775921 -0.0015375051 0.0013581502 -0.0005434967
000110 06 24 b2 3a 0c 2d 0a bb 6c 46 ff 3a 4b 9a 03 39
       0.0013591058 -0.002108398 0.0019475943 0.00012550612
000120 9c 5b bf 3a e9 5c 99 39 2b b3 79 bb fe 42 de ba
       0.0014599445 0.00029251658 -0.0038101177 -0.0016957221
000130 ff e0 0d 3b 93 dc 8f 3a de 29 2a 3a 64 47 61 ba
       0.0021649 0.001097577 0.0006491224 -0.0008593707
000140 74 6f 8d 3a 6f d1 1a 3b 71 6b 0c 3a b4 a4 20 3b
       0.0010790662 0.0023623367 0.0005356586 0.0024512233
000150 0c 4b e5 3b 34 eb b4 3a 78 77 a6 b8 71 33 e9 3a
       0.0069974717 0.0013803006 -7.9377496e-05 0.001779182
000160 20 a7 10 3b 76 7d d8 3a 2b 38 5c b9 24 8b d7 3a
       0.002207227 0.0016516882 -0.00021001759 0.0016444665
000170 54 d4 92 ba 6a 19 8b 3a 24 5f c9 3a d2 7a 4f 3b
       -0.0011202195 0.0010612432 0.0015363437 0.00316589
000180 1f a4 9e b9 49 44 9e 3a 8f dc ba b9 b0 3b ff 3a
       -0.00030258388 0.0012074794 -0.00035641014 0.0019472744
000190 ee 3e f4 39 d8 75 8a bb 4c 66 95 bb 97 d8 b9 bb
       0.00046586193 -0.004225474 -0.004559314 -0.0056715715
0001a0 98 46 45 ba 39 8b 77 3a 8a 27 9b 39 c5 f7 9d 3a
       -0.0007525473 0.0009443048 0.00029593363 0.001205199
0001b0 7e d9 01 3b 3b 80 aa 3b c3 8c a1 3a 13 a9 be 3a
       0.0019813473 0.0052032745 0.0012325275 0.0014546238
0001c0 3d b4 a3 ba a3 ff 22 3b fa 7a 01 3b d4 f7 83 3a
       -0.0012489628 0.002487161 0.0019757138 0.0010068365
0001d0 b8 6a 90 3a 68 82 22 ba 28 e8 56 b9 62 fd 55 ba
       0.0011018133 -0.00061992416 -0.00020495115 -0.0008163062
0001e0 d4 b1 b3 bb 17 73 50 bb 9b 1d 86 3c 6e 85 10 3c
       -0.0054838452 -0.003180688 0.016371539 0.008820875
0001f0 85 98 f0 ba d8 91 fd 3a 95 76 b7 39 9b 2f 6b b9
       -0.0018356001 0.0019345833 0.0003499283 -0.00022429081
000200 d6 ea 34 bb 36 12 49 3b a6 80 54 bb 4f 28 b5 3a
       -0.0027605793 0.003068102 -0.0032425313 0.0013821217
000210 5c 2b 5f ba 37 7f 37 ba 60 9b c3 3a 18 f0 60 3a
       -0.0008513236 -0.00069998525 0.0014923625 0.00085806986
000220 59 90 08 3c ac 3b 33 bb bb c5 da ba 96 da db 38
       0.008335196 -0.00273488 -0.0016691008 0.000104834486
000230 d7 b8 81 3a 30 8f fc b9 64 86 a6 3a ff ae af 3b
       0.0009897006 -0.0004817187 0.0012704846 0.0053614373
000240 70 8d 48 3b 5d 21 04 bb ad 02 03 39 bb c9 3f 3b
       0.0030601881 -0.0020161488 0.0001249413 0.0029264528
000250 75 dc 0f bb 30 56 06 3b f8 74 cf 3a 68 92 80 ba
       -0.002195147 0.002049815 0.0015827706 -0.0009809257
000260 55 94 ef 3a 39 73 28 bc 24 68 0e bc a6 ad 76 ba
       0.0018278459 -0.0102813775 -0.008691821 -0.0009410031
000270 04 5c 48 bb 03 d0 24 39 64 f8 fa 3a 9d 95 53 ba
       -0.0030572424 0.00015717749 0.0019147513 -0.00080713053
000280 20 49 11 bb ea 16 0c 3b 11 18 aa b9 c5 c3 01 3c
       -0.002216883 0.0021375963 -0.00032442858 0.00792021
000290 6d 12 ed 3b 58 b5 df ba ba 31 f9 ba 0a 6d 51 bb
       0.0072348625 -0.0017067594 -0.0019012012 -0.0031955861
0002a0 33 5e 93 39 57 f5 be ba 03 9d 72 3a fb 59 d6 ba
       0.0002810821 -0.0014568967 0.0009254964 -0.001635372
0002b0 fa ba af 3a e5 cc 0c 3b 13 ac ca b9 d2 88 b7 bb
       0.0013407164 0.0021484431 -0.00038656648 -0.005601027
0002c0 c7 33 17 3b fb c5 71 3a be 44 82 3b f1 43 a3 bb
       0.0023071633 0.0009222922 0.00397548 -0.0049824645
0002d0 92 b8 80 3b ed 35 59 3b ed ce 63 3b d9 f4 71 b9
       0.0039282525 0.0033143715 0.0034760789 -0.00023074764
0002e0 06 e6 cb 3a a6 14 fe ba 53 37 e1 39 81 83 eb b9
       0.0015556223 -0.0019384816 0.00042956564 -0.0004492067
0002f0 2d a6 bd 3a 7c d3 96 3a c2 ae a6 39 a3 42 8b 3b
       0.001446908 0.0011507119 0.00031792192 0.004249887
000300 33 89 d3 bb 7a f2 26 bb db 5d 28 3b 87 cc 31 b9
       -0.0064555644 -0.0025474117 0.0025690708 -0.00016956228
000310 f8 3b 56 3a 44 55 c0 39 5f 96 ce 3a 52 60 6d 3b
       0.0008172388 0.00036684622 0.0015761367 0.0036220741
000320 ea f7 78 bc 2b 1c 34 bb d2 f9 c8 3b 57 ab 09 3b
       -0.015195826 -0.002748261 0.0061332965 0.0021006668
000330 ee a4 0b 3b f3 d1 05 3b 54 67 21 3b 9b ce 97 ba
       0.0021308023 0.002041933 0.0024628239 -0.0011581959
000340 97 62 0a 3b 90 d8 5f ba dd ea 44 bb ef 6e 44 39
       0.0021115893 -0.0008539045 -0.0030047216 0.00018733343
000350 03 85 80 3b e2 74 25 3b f0 a7 1f 3b 70 64 c3 3a
       0.003922106 0.002524667 0.0024361573 0.0014907252
000360 c8 8b 58 3b 32 80 20 3b bb 38 35 3b f5 cc 44 ba
       0.00330423 0.0024490473 0.0027652222 -0.00075073476
000370 7f 3b 4c ba 93 43 17 3b 5f 2e 08 3a af 02 d7 3a
       -0.0007790848 0.002308105 0.0005194898 0.0016403998
000380 90 27 c8 39 48 33 fd b9 7f 5b 07 bb 62 23 0e 3b
       0.0003817645 -0.00048294128 -0.00206539 0.002168857
000390 e6 99 23 3b 46 9d 3b 3a a1 30 70 3b 2f de 08 b9
       0.0024963557 0.00071569195 0.003665008 -0.0001305274
0003a0 48 cd 60 3a 4b fc 66 ba 60 e5 93 ba 9e bb 69 ba
       0.0008575511 -0.00088113983 -0.0011283569 -0.0008916202
0003b0 66 06 36 3a 45 44 d6 ba 3a ca 19 3b 20 4e 16 bc
       0.00069437025 -0.001634725 0.0023466484 -0.0091739
0003c0 2f eb 36 39 99 54 99 3a 84 15 6e 3b 3f 7e 04 3c
       0.00017444485 0.0011698186 0.0036328742 0.00808674
0003d0 d3 06 cc 3b af 89 a8 ba 4d f6 1b 3b 42 6b 2c 3a
       0.0062263994 -0.0012858416 0.002379793 0.0006577262
0003e0 d8 b4 1b 3a 45 b6 d8 b9 ff 1e c4 3b a8 40 41 3b
       0.00059397286 -0.00041334532 0.0059851403 0.0029488
0003f0 e1 ac 00 3a f5 9b 88 3b 7b f3 72 3a eb b9 8f 3a
       0.00049085735 0.004168982 0.0009267849 0.0010965442

convs.0.fcn.bias f4 [32]
000000 a4 53 4d bd f7 6e 23 3d 6b 16 cd 3d 76 90 4d bc
       -0.050128594 0.039900746 0.100140415 -0.012546649
000010 11 b0 70 3c f4 bf 34 3d 8a 08 bf 3d d3 c1 a0 bc
       0.014690415 0.044128373 0.093278006 -0.019623673
000020 75 ba 67 bd 31 f2 04 3e c9 91 01 bc 53 05 3e 3c
       -0.056574304 0.12983014 -0.007908293 0.011597949
000030 8f 3a 93 bd 8e da dd bd 77 ed 02 bd 66 19 fc bc
       -0.071889035 -0.108327016 -0.031964745 -0.03077383
000040 96 03 26 3d 23 d4 2b 3c 4e 57 d5 bd 6d 0f 2d 3d
       0.040530764 0.010487589 -0.10417043 0.04225104
000050 00 79 95 3c ef 99 63 3d fa 94 ac bd f4 06 c5 bd
       0.018246174 0.055566724 -0.084268525 -0.09620467
000060 ef b7 dc ba 44 43 bf 3d f2 3f bd bd 38 f3 d1 bc
       -0.0016839484 0.09339002 -0.09240712 -0.025628671
000070 8c b1 79 bd c9 53 ff 3d 33 0c 25 3d ca 4f 44 3d
       -0.060960338 0.124671526 0.040294837 0.047927655

convs.1.deg_coeff f4 [2]
000000 ca 24 72 3e bd 55 80 3b
       0.23646846 0.003916471

convs.1.coeff f4 [3]
000000 8f 18 fb 3a b0 13 99 bb 11 b1 98 3b
       0.0019157099 -0.0046715364 0.00465978

convs.1.fcn.weight f4 [32, 32]
000000 6a 2c f6 3b 46 d4 13 bb 53 8f e3 3a 6c a9 21 3b
       0.007512619 -0.0022556945 0.001736144 0.0024667634
000010 51 43 92 bb 14 28 e3 bc 6b ff 63 bb 09 fc ed bc
       -0.004463591 -0.027729072 -0.0034789692 -0.029050844
000020 f6 87 86 3c 7d 63 9c ba 87 99 4b 3b 8c 1f ac 3b
       0.016422253 -0.0011931505 0.0031066851 0.005252784
000030 c7 99 bf 3a a8 42 8c bb dd f4 eb 3c 26 ba e5 3c
       0.0014617973 -0.004280407 0.028803283 0.028042864
000040 ed 75 95 ba 2f 93 d4 3b 4f 4f 99 3c c2 61 a9 3c
       -0.0011402942 0.006487272 0.018714575 0.020676497
000050 ca 71 03 ba 6a 45 ec bc 57 ba bc bb 60 71 cd bc
       -0.00050142093 -0.028841693 -0.005759518 -0.025078475
000060 42 12 3f 3b fa 5b 83 bc b3 f9 b8 3a db d0 fe bb
       0.002915517 -0.016035069 0.0014112502 -0.0077763624
000070 89 a0 47 3a f7 73 ca b9 d0 db 3b bc 7c 15 89 3b
       0.0007615169 -0.00038614843 -0.011465982 0.0041834693
000080 89 10 52 bb f1 87 0e bc d8 bf e3 3b 8c de 78 bb
       -0.0032053313 -0.008699403 0.00695036 -0.0037974445
000090 76 ea 32 ba 36 17 c3 bb ad 0b 57 3b ac 68 6a 3b
       -0.00068250985 -0.0059536947 0.0032813356 0.0035767956
0000a0 8a 0f e9 bc 3f 7b 37 3c fe cf f0 bc 46 27 c1 3a
       -0.028449792 0.011198818 -0.029396053 0.0014736436
0000b0 60 f9 d2 bb 58 af e3 bc ed b7 ba bc 17 26 80 bc
       -0.006438419 -0.027793571 -0.02279278 -0.015643163
0000c0 e7 f1 be bc d4 f3 b0 bc ec 01 31 3c f5 80 8d bb
       -0.023308707 -0.021600641 0.010803681 -0.0043183514
0000d0 28 0c e9 3c 96 2c 02 3b 17 9b 74 39 e7 fb b9 bc
       0.02844818 0.0019863 0.00023327429 -0.022703124
0000e0 f8 ff d3 bc e9 4a e0 3b d2 0d 9b 3b 9c a9 c1 bc
       -0.025878891 0.0068448675 0.004731872 -0.023640446
0000f0 bb 20 a6 3b ab d1 fe bb 42 4f f7 3c a5 6f 8b 3b
       0.0050698197 -0.007776459 0.03018916 0.0042552524
000100 bc b0 32 3b 53 b2 db bc 45 3f 10 bc d5 9b 71 bb
       0.0027265986 -0.02681843 -0.008804147 -0.0036866565
000110 6a 7c 96 bb 3b 50 3b 3b 3d b5 16 bb 2a c0 f9 3a
       -0.004592468 0.0028581757 -0.002299621 0.0019054462
000120 0e 2f ef bc 1a 66 77 3c 4a 3a bc b9 c9 69 e1 3c
       -0.029197242 0.0151000265 -0.00035901583 0.027516263
000130 3c 5f c1 bc 24 6d 3b bb df 71 98 3c 49 f2 4f 3c
       -0.023604982 -0.0028598988 0.018608985 0.012692043
000140 4c ab f2 3c d4 1f bc bb 63 61 8b bc 19 a5 40 3c
       0.029622696 -0.005741099 -0.017014211 0.011758112
000150 6f 5e 06 3b 90 2a ad bb 54 58 3f bc ce 2d b1 3a
       0.0020503064 -0.005284615 -0.011678774 0.0013517679
000160 f5 fd d7 ba d8 64 d6 bc 61 ee 37 bb f3 2d ff 3b
       -0.0016478883 -0.026171133 -0.002806567 0.00778746
000170 5a ec e1 3c 9d 79 b3 3c 52 5a e3 3c 3e f5 17 bc
       0.027578522 0.021908576 0.027753029 -0.009274779
000180 5f b1 cd 3b 68 64 98 bb 86 58 35 bc 1d 58 c5 3b
       0.006277248 -0.004650641 -0.011068469 0.006022467
000190 b1 92 d2 39 ec 31 e3 3c cc 0e ca 3c 58 9d 36 bb
       0.00040163615 0.027733766 0.024665259 -0.002786478
0001a0 74 1f 2c 3c b8 81 c2 bb ff ec f5 3c 33 cc e5 bc
       0.010505546 -0.005935874 0.030020235 -0.028051471
0001b0 87 7d 1e 3c b6 0f f6 ba fb f0 78 bb 3f f3 27 3c
       0.009673483 -0.0018772993 -0.0037985432 0.0102508655
0001c0 2d 4c df bc 9b 25 33 3c 7b 0a 01 3b b0 fa d8 bc
       -0.027258003 0.010934259 0.0019690085 -0.026486725
0001d0 35 74 a6 3b 37 64 54 3c eb 8f e8 bc 4e 4f f5 bb
       0.005079771 0.012963346 -0.028388938 -0.0074862605
0001e0 2c 0f fe bb 9e ab 9e bc 9a 89 1b bc 7f 51 6a 3b
       -0.0077532735 -0.019368943 -0.009493256 0.0035754142
0001f0 55 6e 96 3b 72 db e0 3c 86 bd 1c bc b7 31 1c bc
       0.0045907893 0.02744839 -0.00956667 -0.009533337
000200 f0 76 87 ba 45 8c ec bc 7b 6d e9 bc c0 26 02 3b
       -0.0010335129 -0.02887548 -0.028494587 0.0019859523
000210 4f 9b 63 b9 78 02 e7 3c 1c b0 2b 3c 98 77 b2 3a
       -0.00021706264 0.02819942 0.0104789995 0.0013615964
000220 91 4f dc 3c 5e 57 da bc d6 bb 24 3c 00 0d 88 bb
       0.026893409 -0.026652988 0.010054549 -0.0041519403
000230 49 3b e6 bc 5f d6 b8 bb 8c 7e c3 3b 15 65 4d 3c
       -0.028104441 -0.0056407894 0.0059660133 0.012536307
000240 ab 13 02 3c 5e 3a 7e 3c 65 ac cd 3c 12 2b c5 ba
       0.0079392595 0.0155168455 0.025106618 -0.0015042743
000250 60 fe 8f 3c 9b f2 bd 3c e5 96 2e bb a7 ab 01 bc
       0.01757735 0.023186972 -0.0026640233 -0.00791446
000260 a6 b7 20 bc 23 40 91 3c 23 58 1e bc c7 80 67 3b
       -0.00980941 0.017730778 -0.009664568 0.003532456
000270 5c 45 a4 bc e0 e8 1b 3c a6 61 41 3b c5 ba f2 bb
       -0.020052604 0.009515971 0.0029507666 -0.0074075186
000280 e6 89 8e bc e1 26 17 bc db cf b0 3a 64 a1 e2 bc
       -0.01739974 -0.009225578 0.001348968 -0.027664848
000290 98 67 2f bc d7 3b 3f 3c a9 b0 53 bc 6a 77 a7 3a
       -0.010705851 0.011671982 -0.012920537 0.0012776677
0002a0 47 43 02 bc 57 3d 4e 3a fc 71 eb 3c 11 06 e6 bc
       -0.0079506105 0.0007867417 0.028740875 -0.028079065
0002b0 37 78 da bc 25 ea d2 bc 81 61 f3 b8 4f 02 47 bc
       -0.026668651 -0.025746414 -0.000116053045 -0.0121465465
0002c0 76 91 08 bb 23 34 ba bb fc a3 00 bc f4 45 41 3c
       -0.0020838655 -0.0056824847 -0.007851597 0.011796463
0002d0 6a cb c0 ba 40 4b 18 bc b3 42 ef bc 36 52 dd 3c
       -0.001470906 -0.009295285 -0.02920661 0.02701674
0002e0 9b fd 9c bc d0 22 d0 bc ce 5e f6 3a 03 14 ec bc
       -0.019163897 -0.025407225 0.0018796565 -0.028818136
0002f0 d9 bc df ba 43 9a c2 3c c5 70 31 bb ea ae 8e 3a
       -0.0017069831 0.023755198 -0.0027075273 0.0010885869
000300 c2 cf be bc 8b a6 93 3c 51 6d e8 3b 2a 14 bd bb
       -0.023292426 0.01802375 0.0070931097 -0.005770226
000310 36 35 1b ba 71 2a d0 3c b1 91 c7 bc b0 76 bf 3c
       -0.000592071 0.025410863 -0.024361463 0.023372024
000320 14 d4 cb bc 59 c8 c9 bc 94 52 dc bc 16 91 8e bc
       -0.0248814 -0.024631666 -0.026894845 -0.017403167
000330 75 1c 31 bc e3 8f e2 bc 46 b7 b5 3c ed 84 2e bc
       -0.010810007 -0.027656501 0.022182118 -0.010651809
000340 fc 45 fb 3b 5c aa e2 3c 41 e2 d1 bc aa 64 ca 3b
       0.007668255 0.027669124 -0.025620582 0.006176551
000350 f8 a6 94 3c 06 38 e4 3c 4a d8 bb b9 31 dd d1 3c
       0.018146023 0.027858745 -0.00035828567 0.025618168
000360 0e d2 9a bc bf 7e ce bb 39 bd 07 bb 28 38 2a 3b
       -0.01889899 -0.0063017304 -0.002071215 0.0025973413
000370 75 37 cc bb bd 3d 9b 3b f3 77 36 bc 56 3c e9 3c
       -0.006232197 0.0047375844 -0.011136997 0.028471153
000380 3d 80 89 ba 97 c6 6b bc c8 8b 4f bb 32 18 1d 3b
       -0.0010490488 -0.014390609 -0.003166901 0.002397072
000390 39 40 f3 ba 16 c3 d9 3c 37 c2 de 3c 49 c3 65 3c
       -0.0018558569 0.026582282 0.027192218 0.01402361
0003a0 27 20 b3 3c 80 54 4e 3b 3c 50 7c bc 84 2e 34 3b
       0.021865917 0.0031483471 -0.015399989 0.0027493546
0003b0 c6 11 da bc 20 86 94 3b 3d 1f d6 3c 07 58 23 bc
       -0.026619803 0.0045325905 0.026137942 -0.009969718
0003c0 13 6d bf bc e6 4f 81 bc 21 c8 1f bc 32 d9 f0 3a
       -0.02336744 -0.015785169 -0.009752304 0.0018375276
0003d0 a5 78 c9 bc be be 3b 3b 3e 32 a6 3a 71 40 af bb
       -0.02459366 0.0028647627 0.0012679768 -0.005348258
0003e0 f7 d9 cc 3b 2f 03 9d 3c df 0d ce bc ab 78 d9 3b
       0.0062515694 0.019166557 -0.025153099 0.006636699
0003f0 ea 02 ff 3b 03 26 ca 3c 86 19 92 bc bf 5d f1 3a
       0.00778233 0.024676329 -0.017834436 0.0018414779

convs.1.fcn.bias f4 [32]
000000 ae 71 14 3c e0 bd e9 3c 2f b4 25 3c b0 c4 cf 3c
       0.0090603065 0.028532922 0.01011376 0.025362343
000010 70 01 d2 3c cc 6f 29 bc 7e 81 cd bc e4 97 be bc
       0.025635451 -0.010341596 -0.02508616 -0.023265786
000020 bb 91 b6 bb da 37 8b 3c e9 1c a6 bb db d3 f7 bc
       -0.0055715716 0.016994406 -0.0050693643 -0.030252388
000030 b9 c7 ed bc 5e c0 a2 3b f9 d4 f4 3c 3e 01 09 bb
       -0.0290259 0.0049667796 0.02988671 -0.0020905281
000040 97 d2 94 3c a0 2a df 39 00 78 35 bc 01 7e d4 3c
       0.018166823 0.00042565633 -0.0110759735 0.02593899
000050 0a 05 dd 3c 3d 90 c6 bb 12 ce c3 bc fc d1 26 3c
       0.026979942 -0.006059675 -0.023901973 0.0101819
000060 79 94 47 3b 57 3f 82 3c e8 ab e8 bc 91 11 89 bc
       0.0030453487 0.015899343 -0.028402284 -0.01673201
000070 b2 ab 50 bc 99 24 ae bc 0a a3 f2 3c cd ff de 3c
       -0.012736248 -0.021257685 0.029618759 0.027221585

convs.2.deg_coeff f4 [2]
000000 a8 3f 72 3e 25 9e 26 3b
       0.23657095 0.0025423851

convs.2.coeff f4 [3]
000000 97 22 ee 3a 81 8f 48 3a 4a eb 1f ba
       0.0018168268 0.0007650778 -0.00061004295

convs.2.fcn.weight f4 [32, 32]
000000 bc dd c4 bc 36 14 8d 3b d7 dd 3f bb fc 9e 27 bc
       -0.024031512 0.004305388 -0.0029276514 -0.010230776
000010 10 e6 bb bb 44 be ab 3b 31 87 e2 ba ac 7e 3d bc
       -0.0057342127 0.0052411873 -0.0017282722 -0.011565845
000020 62 20 2b bc dc b7 8a ba d4 6f ec 3c 4a 18 d8 bb
       -0.010444732 -0.0010583359 0.028861918 -0.0065946924
000030 4b 44 e3 3b 61 da d1 3c 97 50 80 3b 5b 50 dd bc
       0.0069356314 0.025616826 0.003915857 -0.027015856
000040 84 7d f5 3b 88 3a d5 bc 06 c9 54 3c 6f cb 28 3c
       0.0074917693 -0.026028886 0.012987381 0.010302409
000050 e6 46 de bc 83 e5 4a bc d3 75 1f 3c 8f 6d 87 3a
       -0.027133416 -0.012383821 0.009732681 0.0010332334
000060 ff c7 8e 3c 8b c6 d4 3c 5d 52 e6 3c 99 52 57 bb
       0.01742935 0.025973579 0.028115446 -0.0032855629
000070 46 56 e4 bb 71 32 e5 bb b7 ab d5 3a b8 5f 11 3c
       -0.0069682924 -0.0069945385 0.0016301785 0.008872919
000080 1c dd e7 bc 40 73 c8 3c 45 bd 0c 3c 85 d3 ce bc
       -0.028303675 0.024469018 0.008590047 -0.025247345
000090 92 0f 59 3c 83 b3 70 3b f0 20 86 bc 17 2a ea 3c
       0.013248341 0.003672809 -0.016373128 0.028584523
0000a0 99 32 22 bc 9c 8c d4 3c 35 73 ba ba 48 8a d6 bc
       -0.009899759 0.025945954 -0.0014225008 -0.026188985
0000b0 e4 ef cc bc fb 0c 57 3c d8 5a e2 3c 94 d1 da 3c
       -0.025016733 0.013125653 0.027631208 0.026711263
0000c0 c5 00 df bc 61 dd 77 bc 67 cc 2f bc ba ce 5f bc
       -0.027222047 -0.015128464 -0.010729886 -0.013660127
0000d0 3b c8 de bc 3f 29 da b9 a0 28 f1 3b dd 79 d7 bc
       -0.027195087 -0.0004161093 0.007359579 -0.026303226
0000e0 4c 00 39 3c 03 61 ce 3c 06 f9 2e bc 4b a9 5b 3b
       0.011291575 0.025192743 -0.010679489 0.0033517655
0000f0 c8 28 cd bc 12 6c ce 3c a2 d9 db bc f2 13 98 3b
       -0.02504386 0.025198016 -0.026837174 0.0046410495
000100 f3 1c c0 bb e9 5f 93 bb 43 62 dc bc 61 cc c7 3b
       -0.005862826 -0.0044975174 -0.026902324 0.006097362
000110 22 03 de 3c 52 14 e1 3c 26 63 76 3c e4 dc 65 ba
       0.027101103 0.02747551 0.015038287 -0.0008768572
000120 78 16 a3 3c 10 46 b7 bb 1a 05 fd bb f4 3e 29 bb
       0.019908175 -0.005593069 -0.0077215554 -0.0025824877
000130 88 54 ea bc bd 1f 1a bb 45 57 cd 3c 82 35 34 3c
       -0.02860476 -0.0023517453 0.025066027 0.010999085
000140 38 76 d6 bc 2b bb 09 bb 18 f2 c8 3c dd 46 5f bb
       -0.026179418 -0.0021016102 0.024529502 -0.0034069337
000150 8a e6 bb 3c b5 87 bd 3a 3e 58 e4 3c cd 02 d3 bc
       0.022937078 0.001446 0.027874108 -0.025758171
000160 4c ae 13 3c 03 1d 83 bb ac eb e5 3a fd 6b 33 3c
       0.009013724 -0.004001261 0.0017541549 0.010951039
000170 e8 6c cd ba 39 d6 92 bb b4 c7 c9 bc de 91 d4 3c
       -0.0015672715 -0.0044811037 -0.024631359 0.025948461
000180 c1 48 dc 3c 28 28 65 38 db 09 70 bb 72 ff 2f 3b
       0.02689016 5.4635253e-05 -0.0036626968 0.0026855138
000190 f0 5d df bc b2 e4 1d bc 36 7c fa 3b 82 24 00 3c
       -0.027266473 -0.009637045 0.0076442016 0.007821204
0001a0 a8 e6 09 3c d6 29 0f 3b b2 b0 d8 bc f7 1a 64 bb
       0.008416809 0.0021845005 -0.026451442 -0.0034806111
0001b0 dc 89 42 3b 37 c2 c0 3c e4 9d 3c 37 58 87 94 bb
       0.0029684221 0.023530109 1.1242435e-05 -0.004532736
0001c0 0f 49 d5 bc d7 ef 9f 3c 8d b6 82 3c 95 9c a8 bb
       -0.026035814 0.019523544 0.015956188 -0.005145619
0001d0 1e 63 99 3c d7 1b d1 bc f8 c6 1c 3c 5c 0d 18 bb
       0.01872402 -0.02552597 0.009568922 -0.0023201322
0001e0 73 08 e3 bc b5 57 85 b8 77 67 dd 3c 95 84 a6 bb
       -0.02771399 -6.358271e-05 0.027026875 -0.005081723
0001f0 e4 45 da bc 68 2e c3 bc f0 ea f9 3b 56 b8 e2 3c
       -0.026644655 -0.02382584 0.0076268837 0.027675789
000200 fc dd db 3c e5 21 09 3c a6 90 d6 3c d7 f8 ed 3c
       0.026839249 0.0083698975 0.02619202 0.02904932
000210 1e 0e f6 3c 93 80 c7 bc b5 94 39 3c 1d 6f b7 ba
       0.030036028 -0.024353301 0.011326958 -0.0013994906
000220 4b 52 b0 bb 55 63 ce bc 20 d2 59 3c fe 13 98 ba
       -0.005380904 -0.02519385 0.013294727 -0.0011602638
000230 0e 82 6e 3a 56 cf 12 bb 57 50 3e 3c a1 0f 79 3c
       0.0009098359 -0.0022401414 0.011615834 0.01520148
000240 fa 93 a7 3c 04 67 a5 3b a9 a2 f2 bb dd 85 d3 3a
       0.020456303 0.005047681 -0.0074046445 0.0016137917
000250 53 8f 21 bb 66 f3 cf 3b c6 4f c0 bc b6 70 6e 3c
       -0.0024652078 0.006346154 -0.023475539 0.01455324
000260 80 5f db bc b2 eb ea bc 67 4d f5 bb 8f 68 f9 bb
       -0.026778936 -0.028676841 -0.0074860337 -0.0076113413
000270 95 17 ab b9 0e 30 1d 3c 20 06 bb 3b 51 71 e1 bc
       -0.00032633232 0.009593977 0.0057075173 -0.027519854
000280 b9 4b 96 3c a1 f0 50 3c b8 dd 2b 3b e1 81 d7 bc
       0.018346654 0.012752683 0.0026224684 -0.026307048
000290 20 95 9a 3b 00 03 cb 3a fb c4 e8 3c 34 4b d2 3c
       0.004717484 0.0015488565 0.02841424 0.025670625
0002a0 7d 64 bf bc cd 61 db bb 76 e1 e1 3c e8 ac 2d bb
       -0.023363346 -0.0066950084 0.027573328 -0.0026500765
0002b0 81 f6 66 3b f3 d6 1f 3c ac bc c4 bb 01 d2 1f bc
       0.0035242143 0.009755838 -0.0060039368 -0.009754659
0002c0 7a 73 3d bc 5c 54 b7 3c d8 22 95 bc 13 f5 af 3c
       -0.011563176 0.022379093 -0.018205091 0.021479165
0002d0 7f e9 3e bb 4a 67 ca 3b 52 76 fd bb 27 1b 20 3c
       -0.0029130874 0.006176864 -0.007735052 0.009772099
0002e0 36 97 e8 bc 77 2c 8c 39 ac 29 93 38 85 d5 de bc
       -0.028392415 0.0002673601 7.017268e-05 -0.027201423
0002f0 76 1d e0 bc 59 cb d5 bc 45 5f ae 3c df b5 52 3b
       -0.027357798 -0.02609794 0.021285662 0.003215186
000300 24 3b 25 3c ca f6 e2 3c 89 bf 85 bb 6a 8b 2a 3c
       0.010084901 0.027705569 -0.0040816707 0.010409215
000310 57 ca de bc c1 52 e6 3a c0 0b 05 bc 1c 75 54 3c
       -0.027196093 0.001757227 -0.008120477 0.012967374
000320 e9 a6 15 3c 56 ad 21 bb 4c 78 15 39 0c b0 dc 3c
       0.009134033 -0.0024669967 0.00014254561 0.026939414
000330 cc a9 dd bc e9 e7 bf bc 6c 60 de 3c c5 77 1d 3c
       -0.027058505 -0.023426013 0.027145587 0.009611075
000340 fa 2d ad bc 55 dc f2 3a 76 5c 2c bc 73 96 e2 3c
       -0.021140087 0.0018528799 -0.010520091 0.02765963
000350 35 5b a0 3b 90 4c b8 bc ab 0f 8f bc e6 46 40 bb
       0.004893685 -0.022497445 -0.017463526 -0.0029339134
000360 5d ce b2 bb 75 e0 a3 3a 61 cd cd 3c e4 7b 04 bc
       -0.0054567293 0.0012502806 0.025122346 -0.008086178
000370 91 d1 ba 3c 5a f6 89 3a ab 09 e6 3c f0 1c 66 bc
       0.022805007 0.0010525689 0.028080782 -0.014044985
000380 43 d7 b1 3c da 53 81 3b e2 07 04 3b 13 09 9d 3c
       0.02170909 0.0039467635 0.00201463 0.019169366
000390 88 11 b4 bb d3 54 e9 bc b1 29 de bc d9 04 d3 bc
       -0.005495254 -0.02848283 -0.02711949 -0.025759147
0003a0 e9 2e 54 bb 69 46 1c 3b 6b d2 ad bb eb ab ac 3b
       -0.0032376593 0.0023845679 -0.005304625 0.0052695177
0003b0 ed 62 11 bc 2b 8b e4 bc 7f 99 19 3c 29 3a e3 bb
       -0.008873683 -0.027898392 0.009374975 -0.0069344235
0003c0 a5 a5 be bc f6 7c d0 3c b9 a3 e1 bc 2c 14 41 bc
       -0.023272345 0.025450211 -0.02754389 -0.0117845945
0003d0 d3 f4 e7 ba 99 f3 d8 3c bc 7c 54 bb 45 6d ef 3c
       -0.0017696865 0.026483344 -0.003242298 0.029226908
0003e0 c4 65 cc 3b bc 72 5f 3b 55 60 4c 3b 49 ad 88 3b
       0.0062377173 0.0034095487 0.0031185348 0.004171048
0003f0 dd f2 c9 bc bd 75 63 ba 03 e4 a2 bc f7 3b be bc
       -0.024651939 -0.0008676907 -0.019884115 -0.023221953

convs.2.fcn.bias f4 [32]
000000 4c 78 d4 3a a3 81 e0 39 0e cc 99 3b ff 03 5f bb
       0.0016210168 0.00042821196 0.0046935147 -0.0034029481
000010 3f 4a fc ba 34 86 af b9 61 6a ba 3b 49 4f b1 ba
       -0.0019248201 -0.0003347859 0.005688951 -0.0013527657
000020 42 a2 8a bb 5d 41 3a 3c d0 2e 6f 3c 69 7d e2 bc
       -0.0042307684 0.011368123 0.014598563 -0.02764769
000030 e2 26 c7 3b e2 86 9b bb db d0 c9 ba ce 58 cf bc
       0.0060776332 -0.004746304 -0.0015397327 -0.0253109
000040 ae 73 86 bb 7c 18 c9 bc a3 c0 9b ba 06 ff 0d bc
       -0.0041031456 -0.024547808 -0.0011882972 -0.008666759
000050 1f 3e 83 bb 5a c3 c4 3c 95 d0 8b 38 14 4c f6 bc
       -0.004005208 0.024018932 6.666888e-05 -0.030065574
000060 1c 22 24 bc 9e a4 db bc 1d 6f a6 bb bd 78 28 3c
       -0.010017898 -0.026811894 -0.0050791637 0.0102826925
000070 52 2e b5 3b a8 0b cd 3c d9 79 19 3c 12 2a d1 3c
       0.0055292035 0.025029972 0.00936743 0.025532756

convs.3.deg_coeff f4 [2]
000000 a7 3c 72 3e 8b 54 cd ba
       0.2365595 -0.0015665455

convs.3.coeff f4 [3]
000000 a5 cb ec 3a 88 92 b7 3a 9a 1d ac ba
       0.0018066062 0.0014005462 -0.001313138

convs.3.fcn.weight f4 [32, 32]
000000 27 e8 8e 3a a8 a3 25 bc 3f fa 08 3b 36 b3 bd bb
       0.0010902927 -0.0101098195 0.0020901111 -0.005789186
000010 eb a9 dc bc 68 93 b0 3a ed e2 21 bb cc c6 6a ba
       -0.026936492 0.0013471665 -0.0024701909 -0.00089560146
000020 d4 d5 cb bb ec f9 78 bb 4a 46 94 bc dd 19 90 3b
       -0.0062205587 -0.0037990762 -0.018099923 0.0043976144
000030 ec 2e c1 bc 1b 56 cf 3c c6 29 79 bc d4 bf d0 3c
       -0.023581944 0.025309613 -0.0152077135 0.025482096
000040 d6 ee d3 bc e8 1c 92 bc 88 98 2e 3c c0 f2 c6 3c
       -0.025870722 -0.01783605 0.0106564835 0.024285674
000050 19 07 af 3b 60 7f a3 bc 33 f4 98 ba 5c 73 e6 bc
       0.0053414223 -0.019958198 -0.0011669457 -0.02813118
000060 3b 3c a1 3a a7 1e 43 bc 8a ed dd bc f2 cf 27 3c
       0.0012301275 -0.011909164 -0.027090807 0.010242449
000070 30 61 2e 3c bc 61 dc 3c eb 9e 88 3b 08 80 cf 3c
       0.0106432885 0.026902072 0.004169335 0.025329605
000080 8a 29 d6 3c 4d b3 df 3b 22 64 27 3c 1f a5 dc bc
       0.026142854 0.0068267942 0.010216745 -0.026934205
000090 af a4 bc bc 96 9a f2 bb e6 7a 22 3c df 95 dd bc
       -0.023027746 -0.007403682 0.009916997 -0.027049003
0000a0 9f a2 eb bb 01 2f e7 3c ec 68 6e 3b e7 fc b4 bb
       -0.007191017 0.028220655 0.0036378456 -0.0055233124
0000b0 f2 64 b7 bc 40 47 49 bb 38 30 ce 3b 40 32 1e 3c
       -0.022387002 -0.0030712634 0.006292369 0.009655535
0000c0 7c 15 e3 bc c0 1f 1d 38 78 07 2e bc 3b aa 92 ba
       -0.027720205 3.7461286e-05 -0.010621898 -0.0011189649
0000d0 5a 7f e5 bb 2e bb 8d 3a 0d e6 2a bc 14 60 d2 bc
       -0.007003707 0.001081323 -0.010430825 -0.02568058
0000e0 83 7d e8 3c cb 97 a6 bb 0f 93 75 bb 45 59 93 3b
       0.028380161 -0.005084013 -0.0037471687 0.0044967257
0000f0 2a a4 eb 3b 9a b0 8a 3b 40 61 c6 bc ca 42 de 3c
       0.0071912007 0.0042324783 -0.024216294 0.027131457
000100 bb 0a af bb 8b 89 d1 bc 40 d9 9b bb 2f 57 c7 bc
       -0.0053418553 -0.02557828 -0.004756123 -0.024333565
000110 72 c8 80 bb d1 57 7a ba 35 6e e5 bc 0a 6d 2d 3a
       -0.003930145 -0.0009549829 -0.028006652 0.00066156744
000120 5b 8b 58 bb 06 75 2f 3c 29 7b a0 3c f9 8b 88 3c
       -0.0033042047 0.010709053 0.019589977 0.016668307
000130 94 90 39 3b 0a 74 a6 3c 52 d7 1f 3c da 5b cc 3b
       0.0028314935 0.020319004 0.009755926 0.0062365355
000140 6e 17 e5 bc 25 f8 6f bb 4b ff 9b b9 8b eb ca bc
       -0.027965274 -0.0036616412 -0.00029754112 -0.024770519
000150 05 f2 9b bb d0 a6 e5 bc 9f 95 b6 bc d1 2d db bc
       -0.0047590756 -0.028033644 -0.022288142 -0.026755245
000160 a0 33 df bc eb a8 32 3b 3c d5 79 3a 79 4e 82 3b
       -0.027246296 0.0027261327 0.00095303706 0.00397664
000170 49 07 0d bb 6a 8f e1 bc 01 df 51 3a c5 68 ce 3c
       -0.0021519235 -0.027534205 0.00080059475 0.025196442
000180 1f a7 95 bb d5 fc d0 3c d5 4a e4 bc 05 d8 79 bc
       -0.0045670415 0.025511185 -0.027867714 -0.015249257
000190 fa 19 84 ba af 3a fb ba 55 22 b2 3b e0 0d 7b 3a
       -0.0010078542 -0.0019167269 0.0054362216 0.00095769577
0001a0 b8 41 5f ba 8a 0c e2 ba c2 ac d1 3c 0a ae 36 bb
       -0.0008516568 -0.0017246169 0.025595073 -0.0027874731
0001b0 fa 2b 92 ba ef a9 be 3a e5 37 03 bc 14 5d a0 bb
       -0.0011152022 0.0014546494 -0.008008932 -0.0048939083
0001c0 1f 7f 39 bc 0f ec c3 bc 6d 7b ea ba ec ee 4d bb
       -0.011321812 -0.023916272 -0.0017889567 -0.0031422926
0001d0 8c 08 e0 bc f3 4f e3 3c 94 a5 e5 3b 2f 6e 0e 3c
       -0.027347825 0.027748084 0.007008264 0.008693262
0001e0 83 68 29 3c 78 1b d2 bc e4 4a e7 3c 75 52 db 3c
       0.010339859 -0.025647864 0.028233953 0.026772717
0001f0 89 3e 89 bc 11 d6 e5 bc 00 5a e8 bc d0 c2 e1 bc
       -0.016753452 -0.028056176 -0.028363228 -0.027558714
000200 77 9e 83 3b 11 01 ac bc 43 80 ac 3c 66 42 1a 3b
       0.004016693 -0.020996602 0.021057254 0.0023538112
000210 57 c1 a7 3c b6 97 ce 3c a2 a2 80 3c 7b 2e 1e ba
       0.020477934 0.025218826 0.01570255 -0.0006034148
000220 67 12 cc 3a 54 74 b2 b8 17 ca ca bc 62 73 b6 bb
       0.0015569449 -8.509369e-05 -0.024754567 -0.005567954
000230 5b c4 03 3c fc 39 c3 3a 0a 56 e6 3c b8 d9 ba b8
       0.00804242 0.00148946 0.028117198 -8.9097244e-05
000240 20 67 e3 bb 5c 3b 3c b8 f1 86 59 3b 54 fd 22 bc
       -0.0069397837 -4.4877976e-05 0.0033192004 -0.009948093
000250 71 7c ef bb 5e 00 05 3b 51 1d f7 3b 03 3b 2c bc
       -0.0073085357 0.0020294408 0.0075413366 -0.010512116
000260 5a 7f d4 3a bf cc 5f 3b f8 e1 d3 bc a9 3b b1 3c
       0.001621227 0.0034149138 -0.025864586 0.021634893
000270 58 e2 b7 bc 06 1f e9 3c 65 c5 11 3a fb 09 eb ba
       -0.022446796 0.028457176 0.0005560725 -0.0017932052
000280 45 06 b6 3c e6 e4 b2 3c 3d 92 dc bc fc bb e9 ba
       0.022219786 0.021837663 -0.0269252 -0.0017832513
000290 b6 68 c0 39 cb f2 e5 3c c1 af 49 3c 1a 00 0d 3c
       0.0003669911 0.028069874 0.012309969 0.008605981
0002a0 2e 24 e0 bc 90 1c d9 bc ef c0 01 bc 56 55 62 3a
       -0.027361002 -0.026502877 -0.007919534 0.0008633932
0002b0 66 13 94 bc 8d d9 80 3b 45 18 89 3b d3 42 07 3c
       -0.018075656 0.003932184 0.0041838014 0.008255678
0002c0 32 b0 64 bc 51 24 1a bc b2 6d ca 3c 4b ec e2 bc
       -0.013958024 -0.009408073 0.02471051 -0.027700564
0002d0 ee aa ae bb 13 24 df 3c 6a 2b 20 3a 02 68 e8 bc
       -0.005330435 0.027238881 0.0006109985 -0.028369907
0002e0 59 34 e5 3c 29 b1 21 3c 33 0e a7 3b 8c 7d bf 3a
       0.027979063 0.009868898 0.005098128 0.001460956
0002f0 dc e3 e5 bc 49 9a b9 3c 79 a7 9f bc b9 ed 47 3b
       -0.028062753 0.022656577 -0.019489037 0.0030506684
000300 66 f9 1b 3c 73 2d 97 bb c2 7b 22 3b 0a 70 1a 3b
       0.00951991 -0.0046135723 0.0024793004 0.0023565316
000310 ae 5d aa ba 89 5b b7 bb 83 65 e1 3c 82 a5 72 3c
       -0.001299789 -0.0055956286 0.027514225 0.014809968
000320 b4 62 93 3b fd 4c 27 bb df 5b 5f 3c 3d a8 d8 3b
       0.0044978503 -0.0025528066 0.013632744 0.0066118524
000330 8b 35 bc 3a f7 b6 d0 bc ef e5 ae bb b2 b8 f9 3b
       0.0014359219 -0.02547787 -0.005337469 0.0076208944
000340 d5 a1 2f bc 88 8c 30 3c 24 8f a5 3b e7 cd 16 bb
       -0.010719736 0.010775693 0.005052464 -0.002301091
000350 a7 f7 ff 39 c6 4a 49 3b 8b 77 14 3c a3 2e d9 39
       0.00048821906 0.0030714734 0.009061704 0.00041424212
000360 21 1d e2 3c a8 1d 32 3c ec 1e d2 bb 66 42 3b bb
       0.02760178 0.010871328 -0.0064123776 -0.0028573512
000370 01 6a 2a bc b4 f4 9f bc 37 15 ae bc 3d 30 be 3c
       -0.01040125 -0.019525863 -0.02125035 0.023216361
000380 bf 25 2d bb d0 7a d9 bc 72 45 e7 3c a6 26 c1 3b
       -0.0026420204 -0.02654782 0.028231356 0.0058945
000390 ca eb 1c 3c dc 0c f0 3b 53 2f 42 bc ce 1d 89 3b
       0.009577701 0.0073257517 -0.011852103 0.004184461
0003a0 8f 28 09 3c 4c 72 25 bc a7 b7 ef bc d9 af b5 bb
       0.008371486 -0.010098051 -0.029262377 -0.0055446443
0003b0 12 f1 38 bc 26 33 16 bc ba 1a de bc 67 90 15 bb
       -0.011287944 -0.009167468 -0.027112354 -0.0022821666
0003c0 3f ec eb 3c 76 d0 ec ba ba 32 3e 3a 11 d8 03 bb
       0.028799174 -0.0018067497 0.00072554837 -0.00201178
0003d0 16 c8 01 3b cb f0 de bc 5a c0 59 3b b1 8c 35 bb
       0.0019803098 -0.027214428 0.0033226223 -0.0027702267
0003e0 54 67 3d 3c 37 4b 84 bb 7a 2a b8 3c f8 6c d9 bc
       0.01156028 -0.0040372866 0.022481192 -0.026541218
0003f0 8e a7 d4 3c ed 30 b7 3c ed 93 dd bc b3 43 0f bc
       0.025958803 0.022362197 -0.027048076 -0.008744168

convs.3.fcn.bias f4 [32]
000000 d4 0f 81 bb b3 5b 39 3c a5 cb c8 3c 4b 25 d2 3c
       -0.0039386544 0.011313367 0.024511168 0.025652548
000010 1e 1f ab ba 5e 32 25 3b e7 05 9a bb 79 73 82 b9
       -0.0013055538 0.0025207023 -0.0047004106 -0.00024881566
000020 22 6c e3 3c 9e 3c d0 b7 b7 32 5e 3c 82 33 53 bb
       0.027761523 -2.482376e-05 0.013561896 -0.0032226746
000030 15 4b 24 bc cf 43 81 bb ff 07 63 3c aa 73 08 3c
       -0.010027667 -0.003944851 0.013856887 0.008328358
000040 b0 08 34 bc 1a 8f d2 3c 15 69 ce bc d3 98 de 3b
       -0.010988399 0.025703002 -0.025196591 0.0067931204
000050 5e c1 21 bc 3b c1 3f bc 70 eb ac bb 83 ef 2d bc
       -0.0098727625 -0.011703785 -0.00527709 -0.010616186
000060 6e 9e 1b 3c 1d 5d 21 bb 56 54 3b bb 55 b9 e1 bc
       0.009498222 -0.002462215 -0.0028584204 -0.027554194
000070 f6 9f df bc eb 57 29 bb 2d a3 c1 bb f7 d0 2f bb
       -0.027297955 -0.0025839757 -0.0059093446 -0.0026827434

convs.4.deg_coeff f4 [2]
000000 79 d2 65 3e 7c 98 81 3e
       0.2244357 0.2531165

convs.4.coeff f4 [3]
000000 10 7f ec bc 3d e2 84 be d6 5d 84 3e
       -0.028869182 -0.25953856 0.2585284

convs.4.fcn.weight f4 [5, 32]
000000 05 b0 46 3d 5d 1e a3 3d db a7 10 be 15 65 55 bd
       0.04850771 0.07964776 -0.14126532 -0.052098352
000010 b1 dc 8c be 1b 40 29 be 33 97 20 be 89 37 82 3e
       -0.27512124 -0.1652836 -0.15682678 0.25432995
000020 d3 60 b5 3c 5e 0d fe bd ba 3c 72 be c6 4a 38 3e
       0.022140896 -0.12404893 -0.23655978 0.17997274
000030 94 61 ac 3d 02 8c 2b 3e 80 3c 1e bd 1c 20 6b bd
       0.08417049 0.16752627 -0.038631916 -0.05740367
000040 e5 52 1d 3e 16 05 6a be ec 6f 08 3e 84 03 0d be
       0.15363653 -0.22853503 0.13323945 -0.13770872
000050 a8 95 8e 3c e2 b6 02 3e c8 04 3c 3e 81 c5 56 3e
       0.017405346 0.12765077 0.18361199 0.2097378
000060 f3 6c c1 3d 29 bd d7 bd 3d 59 0e 3e 39 7f 88 3e
       0.094446085 -0.10534126 0.13901229 0.26659563
000070 6c 90 00 3e c9 29 7b be f4 af 1a 3e 40 d6 06 bd
       0.12555093 -0.24527659 0.15106183 -0.03291917
000080 96 07 52 be b6 94 43 3e 81 da 47 3e 16 89 06 be
       -0.20510706 0.19099697 0.19516946 -0.13138232
000090 df fb ad be 24 08 37 bd 90 8c b5 3d a8 d8 91 3e
       -0.33981225 -0.044685498 0.08864701 0.28485608
0000a0 db 1a 29 be ef a5 89 3e fe f5 c1 be 14 67 a3 3e
       -0.16514151 0.2688441 -0.3788299 0.3191458
0000b0 97 7b 78 bd 03 02 ee bd e3 4d 0b be fa 96 7f be
       -0.06066474 -0.116214775 -0.1360393 -0.24959937
0000c0 78 fc a0 3e 75 f9 66 be 8b b0 4f be 0a 83 76 bd
       0.31442618 -0.22556098 -0.2028219 -0.060183562
0000d0 ca fd 06 3b 42 00 76 3e 3c 5c 2d 3c bb 1f 99 3d
       0.0020598047 0.24023536 0.010581072 0.07476755
0000e0 01 42 2d 3e 70 32 5f 3e de 23 d8 bd 7f 59 83 3e
       0.1691971 0.21796584 -0.10553716 0.25654218
0000f0 d2 e5 73 bc 98 94 d8 3d 64 39 ae 3e 3f 32 00 3e
       -0.014886336 0.10575217 0.3402816 0.12519167
000100 97 9b 9d 3d 55 46 b7 bd 4e 39 9a bd 47 9b 99 3d
       0.07695692 -0.08948962 -0.07530461 0.0750032
000110 ee 1b 1f 3e a3 80 32 bb c0 16 85 bc 05 6b c6 bd
       0.15537998 -0.0027237318 -0.0162462 -0.09688381
000120 ef 42 5f 3d 94 ca 01 be 3f 96 29 3e e5 9c 0b be
       0.054507192 -0.12674934 0.1656122 -0.1363407
000130 71 60 26 3d b2 4f fc 3c 0c 6a 60 3d 82 fc da 3d
       0.040619317 0.03079972 0.054788634 0.10692693
000140 23 f9 31 be 4b c9 12 3e 38 e6 4a 3d 11 54 0c 3d
       -0.17380194 0.143346 0.04953596 0.03425986
000150 a3 d6 79 bd 37 eb a2 bd 2b ea ac bc aa 76 5e bd
       -0.06099571 -0.0795502 -0.021107754 -0.054312386
000160 89 7f 54 bd f7 9f fa bc 90 5c f6 3c 76 a7 ed bd
       -0.05187944 -0.030593855 0.030073434 -0.11604206
000170 09 83 ff bc 15 f2 a1 bc c2 5c 1b be 66 15 84 bd
       -0.031190412 -0.019768754 -0.15172103 -0.06449394
000180 02 d5 81 3d f6 f2 b9 bd b9 76 1b 3d 37 a7 bb 3d
       0.06339456 -0.09079544 0.03795502 0.09162753
000190 7b 65 84 3e 1a fc be 3d c0 3c c2 3d b4 2c 85 be
       0.25858673 0.09325428 0.094842434 -0.26010668
0001a0 1d 48 7d 3d 83 8f 97 3c 0d ff 84 3e be 29 5f be
       0.06183635 0.018501049 0.25975838 -0.21793267
0001b0 cd 09 26 bd 48 58 56 bd b8 d1 85 3d 51 e8 c6 3d
       -0.04053669 -0.052330285 0.06534141 0.097122796
0001c0 36 14 33 be 03 68 76 3e c2 11 9d bc 71 3c d3 3d
       -0.17488179 0.24063115 -0.019173507 0.10314263
0001d0 01 f4 07 bc d6 a3 37 be 4c 85 17 be 56 9a 1a be
       -0.008297921 -0.17933592 -0.14796942 -0.15097937
0001e0 38 32 e5 bd bc 12 75 bd 42 a0 1d bd e0 e1 97 be
       -0.11191219 -0.05983232 -0.038482912 -0.29664516
0001f0 33 ac 67 bd a5 05 d1 3d 39 ee 58 be 49 b3 43 bd
       -0.056560706 0.10206155 -0.21184625 -0.0477784
000200 52 3f 55 3c d7 95 d8 bd bf 6f 08 bb 97 46 80 3d
       0.013015585 -0.10575455 -0.002081856 0.06263464
000210 de c3 6f 3e a9 57 9f 3d 07 b4 f0 3c 04 cf 53 be
       0.23414561 0.07780392 0.029382719 -0.20684439
000220 52 12 0f 3d 84 95 84 bc 47 a2 63 3e dc 0a 4e be
       0.03492958 -0.016184576 0.22229873 -0.2012133
000230 0e cb 71 bc 9a c7 e8 3b 42 c2 5b 3d 50 83 e2 3d
       -0.014757885 0.0071038725 0.053652056 0.11060202
000240 1c f6 1c be e7 75 25 3e c0 ce ee 3b aa 91 96 3d
       -0.15328258 0.16158257 0.00728783 0.07352002
000250 39 20 35 bc e7 a9 b0 bd 21 ca 9b bd ad f7 05 be
       -0.011055046 -0.08626156 -0.076069124 -0.13082762
000260 f1 7a ba bd f0 b4 a2 bc e0 ea bf bc 8d e4 3e be
       -0.091054805 -0.019861668 -0.023427427 -0.18641873
000270 ac b2 5e bd b0 aa 51 3d f3 18 43 be b1 1d f9 bb
       -0.054369614 0.05118817 -0.19052486 -0.0076024164

convs.4.fcn.bias f4 [5]
000000 8d b0 e3 3d 10 11 5d bc ac 3a d6 3d 4b 80 16 3e
       0.11117659 -0.013492838 0.104604095 0.14697377
000010 fe 76 3c bd
       -0.046011917

fcn.weight f4 [32, 2325]
000000 ce 29 cf 3a 49 ab ac 3a 0e c5 cc 3a e2 4d 96 bc
       0.0015805305 0.0013173606 0.0015622692 -0.018347684
000010 0d 55 5f bb 92 af af 3a ef 95 26 bb fc d6 f4 39
       -0.0034077794 0.0013403764 -0.0025418957 0.00046699482
000020 67 31 96 3b 46 3e 57 3b 33 7b d6 ba 5d f7 9d 3a
       0.004583526 0.0032843514 -0.001636362 0.0012051869
000030 1d 65 02 bb 43 2a c6 bb 42 0d 80 bb 73 8c 39 3a
       -0.0019896694 -0.0060475185 -0.0039078305 0.00070781185
000040 f5 fd 51 3b f7 e3 cb 3a a5 14 32 3b 56 cb 08 3c
       0.003204224 0.001555561 0.002717295 0.00834926
000050 90 fd b6 3a aa 58 23 3a 2f bc 81 3b 8a 60 34 bb
       0.0013961066 0.00062311685 0.003959201 -0.0027523362
000060 b2 92 9d bb 76 38 c6 bc ca b4 00 3b 4d d6 0e 3b
       -0.004808747 -0.024196845 0.0019639009 0.0021795214
000070 70 ee 0b b9 95 d3 ae b9 6f 8e 3d 3a f4 9d b6 3a
       -0.00013344898 -0.00033345507 0.0007231002 0.0013932572
000080 ee a8 45 3b 7d e0 1c bc 38 54 e2 3a 1e 6c 62 b9
       0.0030160504 -0.009575007 0.0017267531 -0.00021593316
000090 cc 0f 82 3a 6a ec 9f 3b 14 71 21 3b 62 84 59 3b
       0.0009922921 0.0048804777 0.002463405 0.0033190479
0000a0 71 02 eb 3a 6e 50 19 ba 6c 24 c2 ba 5d b0 12 bd
       0.0017929805 -0.0005848472 -0.001481188 -0.035812724
0000b0 5a 77 e4 bb ae 73 22 bd 09 d3 2c 3b b2 da d4 3a
       -0.0069722356 -0.039661102 0.0026370904 0.0016239493
0000c0 0b 1e 9c b9 d4 6c c7 bb 27 77 85 3b e5 dd cc 39
       -0.00029777022 -0.0060859714 0.004073042 0.00039075236
0000d0 df cd 56 3b 84 69 ca b9 bb d3 20 bb fe ab f0 3a
       0.0032776517 -0.00038607058 -0.0024540264 0.0018361805
0000e0 39 86 d7 3b 4a bf b6 38 59 e0 52 3b 90 f9 f7 b9
       0.00657728 8.714067e-05 0.0032177179 -0.0004729745
0000f0 90 67 9a 3b 14 5e b8 3a 01 4b 6b ba 48 73 0f bb
       0.0047120526 0.0014066123 -0.0008975715 -0.0021888781
000100 4e e5 14 3a c6 6d bc 3a 32 c4 f6 b7 7e 7c a2 39
       0.0005679921 0.0014375977 -2.9416846e-05 0.00030991802
000110 77 e3 6e ba 83 41 43 bb a2 ad d8 3a 03 0c 11 ba
       -0.00091128744 -0.0029793687 0.0016531239 -0.0005533101
000120 52 0e 4d ba 40 1e 4b 3a 86 ec e1 bb 94 97 a8 3a
       -0.0007822263 0.0007748343 -0.006894651 0.0012862557
000130 5b 59 ed 3a 14 98 a6 ba 2e 0d 23 ba 59 ab f9 3a
       0.0018108295 -0.0012710118 -0.00062199205 0.0019048258
000140 99 e5 67 3a 3d 59 c6 3a 70 6c 44 ba 6c 0b 8a 3b
       0.00088461634 0.0015132796 -0.0007492965 0.0042127874
000150 e6 db 48 3c ff 2b d1 b8 58 b7 02 bb cf 4c 4f b9
       0.012259459 -9.9740915e-05 -0.0019945707 -0.00019769672
000160 d7 37 18 3b 40 c4 0b 3b 70 2c b1 ba c1 07 53 bb
       0.0023226643 0.002132669 -0.0013517272 -0.0032200667
000170 0f e0 cc ba e3 58 f3 ba 22 5b f8 ba 63 e9 4b 3b
       -0.001563074 -0.0018565919 -0.0018948058 0.003111445
000180 7f d9 7f bb 63 3d 10 bb dc a3 cc 3b 1d 40 2c 3a
       -0.003903955 -0.0022009246 0.0062451195 0.0006570833
000190 0c 62 11 3b f5 64 92 b9 61 be b3 bb 9c e3 b2 ba
       0.0022183685 -0.0002792251 -0.0054853414 -0.0013648155
0001a0 b3 00 64 ba bc 9b 18 39 1a ea e0 3b 92 66 2c ba
       -0.0008697614 0.00014553865 0.0068638446 -0.00065765635
0001b0 48 b1 10 3b e8 94 c8 3b b3 6c d5 ba 82 f0 0a bb
       0.0022078324 0.0061212666 -0.0016283005 -0.0021200483
0001c0 85 e7 f9 b9 5f f8 1a 3b 88 3b 85 39 f5 31 82 ba
       -0.00047665476 0.0023646576 0.0002541209 -0.0009933101
0001d0 b3 a5 82 ba a0 9c f6 ba db 7f 8e ba fd ec 02 bb
       -0.0009967595 -0.0018814988 -0.0010871844 -0.0019977682
0001e0 28 8e 1e bc 62 6a ba ba f9 50 86 3c b0 bd 12 3c
       -0.009677447 -0.0014222378 0.016396033 0.008956358
0001f0 73 23 87 ba e9 46 e3 3a 3d 12 12 3a 9f a6 41 bb
       -0.0010310247 0.0017339858 0.0005572176 -0.0029548777
000200 58 8c c6 3a a2 a6 97 3b 1c dc 4b 3b 52 ca 04 39
       0.0015148027 0.0046280185 0.0031106537 0.00012663871
000210 ff 96 47 bb f3 ca 10 bb 19 d7 58 3b df d1 be ba
       -0.003045499 -0.0022093623 0.0033087193 -0.0014558396
000220 cc 4b b4 3b 0c b8 98 b7 52 f9 21 ba 10 f1 09 bb
       0.0055021998 -1.8205516e-05 -0.0006178814 -0.0021048225
000230 26 4c 49 3b ed 5a 2f 3b 99 c5 09 3a 33 17 ba 3b
       0.0030715554 0.0026757077 0.00052555796 0.005679035
000240 bd 26 ab b9 39 b6 6e 3b b0 1c 9b ba 7b be fa 39
       -0.00032644524 0.003642453 -0.0011834111 0.00047825635
000250 3d f7 13 3b fe f0 5a bb e6 7e ce 3a 76 98 52 ba
       0.0022577785 -0.0033407803 0.0015754371 -0.00080335827
000260 33 40 73 3b ee e1 98 bc 5d 46 29 bc 4c 07 1f 3b
       0.0037117123 -0.01866242 -0.010331717 0.0024265824
000270 65 37 97 ba 95 0b 6d ba 77 e1 98 3a 11 50 f7 ba
       -0.0011536895 -0.00090425584 0.0011663873 -0.0018868466
000280 60 af bd b9 4d 46 6e 3b d1 05 7a 3a b8 d3 68 3b
       -0.00036179554 0.003635782 0.000953761 0.0035526585
000290 fb 30 6f 3a 2a bd 40 3b df 23 11 3b c2 4d 1a 3a
       0.0009124425 0.0029409626 0.0022146625 0.00058862206
0002a0 70 d6 c9 3a 01 8a 25 3b 70 57 ce 3a e0 91 4f 3b
       0.001539899 0.0025259259 0.0015742611 0.0031672642
0002b0 eb 74 9d 3a d6 96 27 3b d2 6f 87 3a 40 11 24 bb
       0.0012012994 0.0025572083 0.0010333008 -0.0025034696
0002c0 06 86 0b ba fc 62 57 3b 54 5b c4 3b fa 38 67 39
       -0.00053224 0.0032865396 0.0059923325 0.00022051102
0002d0 1a 00 db ba b7 48 49 bb 83 9f 05 ba a1 4c 2e bb
       -0.0016708404 -0.0030713507 -0.00050973165 -0.0026595967
0002e0 9d 28 03 39 aa 7f 0f bb f7 b2 00 3b 69 7b a0 ba
       0.00012508263 -0.0021896162 0.0019637921 -0.001224381
0002f0 37 79 0e bb 83 a1 e0 ba 6a f1 6a 39 a4 1a f9 3b
       -0.002173973 -0.0017137978 0.00022405913 0.0076020528
000300 0e 8c 3b bb d2 22 34 bb 11 b7 4c bb 24 dd a8 3a
       -0.0028617415 -0.0027486575 -0.0031237046 0.0012883288
000310 e0 4e 84 3b a9 d5 01 bb d1 75 eb ba 95 76 37 3b
       0.004037723 -0.001981119 -0.0017964189 0.0027994264
000320 12 af 7d bc 9b 32 5e 3b 54 b7 1b 3b b8 ab f5 ba
       -0.015483635 0.0033904675 0.0023760395 -0.0018743193
000330 c0 86 70 3a 48 77 c1 3a bf 70 0e 3a 33 fb 3c 39
       0.0009175353 0.001476028 0.00054336706 0.00018022656
000340 b7 2c d1 3a 43 6f d6 3a 4d ed 43 3a 2f cc 0c 3b
       0.0015958761 0.0016360063 0.000747402 0.0021484008
000350 de 88 3f b8 7f c8 8e ba 38 b6 03 3b fd 22 0b 3b
       -4.5665416e-05 -0.0010893493 0.0020097625 0.0021230571
000360 57 7b 4a bb 39 df 62 39 52 30 0f 3b a0 28 b6 ba
       -0.003089627 0.00021636196 0.002184887 -0.0013897605
000370 66 d8 84 ba d5 0f 01 3b 31 97 92 ba bc 9c 12 3b
       -0.0010135293 0.0019693275 -0.0011183975 0.0022371253
000380 ec 3b 2b ba 47 44 cc ba 9a ba 36 3a 55 3f 8a 3b
       -0.00065320614 -0.0015584313 0.0006970555 0.0042189755
000390 93 84 81 3b 99 30 45 3a 75 a2 0f bb c4 70 ff 3a
       0.0039525717 0.0007522195 -0.00219169 0.0019488563
0003a0 66 d7 d7 ba fd d1 46 bb de 0e 66 ba d6 41 c9 3a
       -0.0016467392 -0.0030337565 -0.0008776019 0.0015354704
0003b0 28 03 1e 3b 6e 7e 9a 3a ff a1 7e ba 4a 63 8f bb
       0.0024110768 0.0011786947 -0.00097134704 -0.00437585
0003c0 4e 93 b4 39 62 06 fe b9 c9 8b 8f ba 59 5f 18 3c
       0.00034442026 -0.0004845141 -0.0010951693 0.009300076
0003d0 d8 f2 82 3b ff 7d 3a 39 eb 46 08 3b db 5a c6 3a
       0.0039962344 0.0001778528 0.0020794224 0.0015133278
0003e0 5d 41 8b bb 37 af 04 ba 17 09 b5 3b 2d e3 c4 3a
       -0.0042497353 -0.00050615094 0.0055247652 0.0015021317
0003f0 55 fe 0b 3b 9b f6 c8 3a 65 48 0c bb 73 e4 f1 3a
       0.002136131 0.0015332283 -0.0021405455 0.0018454924

fcn.bias f4 [32]
000000 bb db b3 3d 93 fc 47 3c dc bf 97 bd 0e 31 0c 3c
       0.08782145 0.0122062145 -0.07409641 0.008556617
000010 1c 4e 55 3d 7d 9f d6 bc a6 2f 68 bc 0e aa af 3b
       0.052076444 -0.026199097 -0.0141715165 0.0053608483
000020 60 4b 26 bc ce 4b a6 bd 1b bf a1 3d 57 e4 33 bc
       -0.010149807 -0.08119927 0.078977786 -0.010979733
000030 24 c2 cb bc 3a 96 0a 3d 78 4d 90 bc 78 3f 20 3c
       -0.024872847 0.033834673 -0.017615065 0.009780757
000040 34 f8 ae 3c 01 19 1e 3d e2 44 bc 3c 65 71 6c bc
       0.021358587 0.038598064 0.022982065 -0.014431332
000050 7a 33 16 3d 7f 16 8b bc b8 10 0c 3d a7 46 06 3d
       0.036670186 -0.0169785 0.03419563 0.032782223
000060 db 74 00 bc 6f a3 3c bd a4 46 16 3d 06 a8 98 3b
       -0.0078403605 -0.0460543 0.036688462 0.004658702
000070 d0 2c f5 3c 2c 65 97 bd bb 61 f1 bc d0 f8 b4 bc
       0.029928595 -0.07392344 -0.029465547 -0.0220913
