GGCN/pretrained/GGCN_pubmed_04_14_43_35.pt (torch, 149588 bytes, 22 tensors)

convs.0.deg_coeff f4 [2]
0	0xbd5cf1c2	-0.053941496
1	0x3f8e4393	1.1114372

convs.0.coeff f4 [3]
0	0x3f76bbcd	0.9638031
1	0xbec18c6e	-0.37802452
2	0xbe588894	-0.2114585

convs.0.fcn.weight f4 [32, 500]
0	0x3e0c2c21	0.13688709
1	0x3e8f8ca0	0.28036976
2	0x3ba26bb5	0.0049566873
3	0xbdf2dad3	-0.11858144
4	0xbcd05136	-0.02542935
5	0xbd976e8f	-0.07394134
6	0xbe85e7bc	-0.26153362
7	0x3e10c4c9	0.14137568
8	0xbdd1a3dc	-0.10236332
9	0x3ec29cca	0.38010246
10	0x3dd291be	0.10281704
11	0xbe407a62	-0.18796685
12	0x3c900395	0.017579833
13	0xbe3b55ef	-0.182945
14	0x3d30d1a8	0.043168694
15	0xbe02c794	-0.12771446
16	0x3f3189ba	0.6935078
17	0xbe3e4b97	-0.18583523
18	0xbda11f30	-0.07867277
19	0xbd9f9d45	-0.07793669
20	0x3d99dba5	0.07512597
21	0xbe7758a8	-0.24154913
22	0xbdb2f98f	-0.08739006
23	0xbe56534a	-0.2093021
24	0x3e11a408	0.14222729
25	0xbe9492f3	-0.29018363
26	0x3cd61f4b	0.026137969
27	0x3d8ec6b8	0.06971496
28	0x3eae660f	0.3406224
29	0x3ddeb81a	0.10874958
30	0xbdb4f11c	-0.088350505
31	0x3d0c2a5b	0.03422008
32	0xbcc5e4e8	-0.024157003
33	0xbdc879cb	-0.09788855
34	0x3c875b73	0.016523099
35	0xbd1af801	-0.03783417
36	0x3d127ad4	0.03576167
37	0xbe612bf4	-0.21989423
38	0x3e3322b8	0.17493713
39	0xbde20bf3	-0.110374354
40	0x3d88bfa1	0.06677175
41	0x3e1f6c2e	0.15568611
42	0xbdbd471b	-0.09242078
43	0xbdd9fd8a	-0.10644062
44	0x3e3d6516	0.18495592
45	0x3e6b1f9e	0.2296128
46	0x3e651a05	0.22373207
47	0x3e426abe	0.18986031
48	0xbcee40c1	-0.029083611
49	0x3da0f6bd	0.078595616
50	0x3db75aac	0.08952841
51	0xbd8c10ae	-0.06839119
52	0x3daebe74	0.0853242
53	0xbe92eb13	-0.28694972
54	0xbde189f8	-0.110126436
55	0xbe9d03a8	-0.30666852
56	0xbe01fa82	-0.12693217
57	0x3abd983c	0.0014464925
58	0x3d81d9f8	0.06340402
59	0xbe900330	-0.28127432
60	0x3e4b72c9	0.19868006
61	0xbd2718ff	-0.040795323
62	0xbe0f4ff8	-0.1399535
63	0xbe35e60a	-0.17763534
64	0xbe07fa2b	-0.13279025
65	0xbd0c08c3	-0.034188043
66	0x3d0e663c	0.034765467
67	0x3e8d9d71	0.2765918
68	0x3e825525	0.25455585
69	0x3eb11102	0.34583288
70	0x3e2061f3	0.15662365
71	0xbd70ae65	-0.058760066
72	0x3c32b2c7	0.010906882
73	0x3e23ca77	0.15995203
74	0xbe020525	-0.12697275
75	0xbeafb856	-0.34320325
76	0xbdc5f84c	-0.096664995
77	0x3e05845d	0.13038774
78	0x3cbc285b	0.022968462
79	0x3e9ba9f1	0.30403093
80	0x3c3b70d1	0.011440472
81	0x3e3561f0	0.17713141
82	0xbe4d2d8d	-0.20036907
83	0xbe9b486f	-0.303287
84	0xbe23a680	-0.15981483
85	0x3c966e70	0.018363208
86	0xbe14d0ad	-0.14532728
87	0x3e4b0ef7	0.19829927
88	0x3e415736	0.18880925
89	0x3e9c9c3a	0.3058794
90	0x3b8859fe	0.0041611185
91	0xbe25e3c6	-0.1620017
92	0xbe6779a0	-0.2260499
93	0x3d4a5e1a	0.04940615
94	0x3c7c6ce5	0.015406822
95	0x3e2c5967	0.1683098
96	0xbccca94c	-0.02498307
97	0x3da62c61	0.08113933
98	0xbe43ee7b	-0.19133942
99	0x3e55aa76	0.20865807
100	0xbe449df4	-0.1920088
101	0x3dd4e948	0.10396057
102	0xbdc4ed15	-0.09615532
103	0xbe5d1e81	-0.21593668
104	0xbdd3daad	-0.103444435
105	0x3e69cead	0.22832747
106	0xbd9d3aff	-0.07677268
107	0x3ec3a99f	0.38215348
108	0xbe4e3929	-0.20138992
109	0x3db75e27	0.08953505
110	0x3e90a3d1	0.28249982
111	0xbc658112	-0.014007824
112	0x3d0275d5	0.031850655
113	0xbe0b77f3	-0.13619976
114	0xbddbbd83	-0.10729506
115	0xbc7ce37c	-0.015435096
116	0x3e31e6ff	0.17373274
117	0x3dc02d08	0.09383589
118	0x3e1751d9	0.14777316
119	0x3d5074db	0.050892692
120	0x3da17ffe	0.07885741
121	0xbde1818e	-0.11011039
122	0xbd2dcaaa	-0.042429604
123	0x3e538005	0.20654304
124	0x3da2090f	0.07911884
125	0xbd771a5a	-0.060327865
126	0x3d5ee54d	0.054417897
127	0xbdb0c8ab	-0.086320244
128	0x3d1e96bb	0.038717967
129	0xbcae9a8c	-0.021313928
130	0x3dcf9200	0.10135269
131	0x3c032a4c	0.00800569
132	0x3ddb8c48	0.10720116
133	0xbd40c054	-0.04705842
134	0xbe4fb2a7	-0.20282994
135	0xbe584f77	-0.21124063
136	0xbe8c3e12	-0.27391106
137	0x3e7a5068	0.24444735
138	0xbe06458f	-0.13112472
139	0xbf20e9bf	-0.6285667
140	0xbdb0fc85	-0.08641914
141	0xbeb349e4	-0.35017312
142	0x3bebea52	0.007199564
143	0x3e28a44d	0.16468926
144	0x3e187cd5	0.1489137
145	0x3d34af7a	0.04411266
146	0xbe858f46	-0.2608587
147	0x3d63ce98	0.055616945
148	0x3dfc20a8	0.12310916
149	0x3d089822	0.03334821
150	0xbb951f3c	-0.0045508426
151	0x3c258ae4	0.010103915
152	0x3e5a6e83	0.2133122
153	0xbe986f3b	-0.29772362
154	0xbea98cd2	-0.3311525
155	0xbdadb823	-0.08482387
156	0x3d326395	0.043552
157	0xbe562a05	-0.20914467
158	0x3e2d5b9c	0.16929477
159	0xbd5bf4c3	-0.05370022
160	0x3ded6fb1	0.11593569
161	0xbdb04867	-0.0860756
162	0xbb92de7e	-0.0044820895
163	0xbd3ea68d	-0.046545554
164	0x3e1a56eb	0.15072219
165	0x3dd4e791	0.1039573
166	0xbcada684	-0.021197565
167	0x3ecc4023	0.39892682
168	0xbe1dc810	-0.15408349
169	0x3d5d795d	0.05407082
170	0xbeb21b01	-0.34786227
171	0x3d6e0770	0.05811256
172	0x3d62ed0f	0.055401858
173	0x3dc48c0e	0.09597026
174	0x3d922d72	0.07137574
175	0x3df7794e	0.12083684
176	0x3d59d0b3	0.053177547
177	0xbdf8a77f	-0.12141322
178	0x3dd1950c	0.102335066
179	0x3bd71d50	0.0065647736
180	0x3c78fd35	0.015197088
181	0xbd8449dc	-0.064594
182	0x3e10aadb	0.14127676
183	0x3dcaeeb2	0.09908809
184	0xbf8691da	-1.051326
185	0xbcb07f3e	-0.021545049
186	0x3e6084fb	0.21925728
187	0xba4faafe	-0.0007921903
188	0x3d33f95f	0.04393899
189	0xbc601f44	-0.013679329
190	0xbbe89e4b	-0.007098948
191	0xbe2737f3	-0.16329937
192	0x3d8dad9a	0.069178775
193	0xbe30b14d	-0.17255135
194	0x3e1994df	0.14998196
195	0x3cbd21e4	0.02308745
196	0x3c62dc49	0.013846465
197	0xbe49c01e	-0.19702193
198	0x3e3a25ef	0.18178533
199	0xbe10ff9c	-0.14160007
200	0xbeaebe19	-0.34129408
201	0x3de82a83	0.113362335
202	0xbbbdf959	-0.005797547
203	0xbcd09ce6	-0.02546544
204	0xbdb9f3a6	-0.090796754
205	0x3de206cc	0.11036453
206	0x3d7549ff	0.05988502
207	0xbb3789f2	-0.0028005806
208	0xbd7c586c	-0.061607763
209	0x3e7733f4	0.24140912
210	0x3ea431b7	0.3206918
211	0x3ee09c8c	0.43869436
212	0x3dc0de92	0.09417452
213	0x3e56a123	0.20959906
214	0xbe1c6584	-0.152731
215	0x3d25919a	0.04042206
216	0xbd2e634e	-0.042575173
217	0x3e377fd3	0.17919855
218	0x3e211823	0.15731864
219	0x3c84810b	0.016174814
220	0xbe1dd049	-0.15411486
221	0x3e0f8220	0.14014482
222	0x3e0d5d1e	0.13805053
223	0xbd9e629e	-0.077336535
224	0x3e002874	0.12515432
225	0x3df10c88	0.11769968
226	0x3e27d9db	0.16391699
227	0xbd05b710	-0.032645285
228	0xbd006fb5	-0.031356532
229	0x3d3fb35f	0.04680192
230	0x3ddb4785	0.10707001
231	0x3d087225	0.03331198
232	0xbdc88b7a	-0.09792228
233	0x3e2f2bd4	0.17106563
234	0xbda2e12e	-0.07953106
235	0x3e9bb53d	0.3041171
236	0x3e7400ef	0.23828481
237	0x3e499a86	0.19687852
238	0xbd3adcd9	-0.045620773
239	0x3f37aa33	0.7174408
240	0x3de0e398	0.1098091
241	0xbebd4009	-0.36962917
242	0x3d9d47d8	0.07679719
243	0x3e276b3b	0.16349499
244	0x3d5a0a28	0.053232342
245	0x3e177284	0.14789778
246	0x3db3dd84	0.08782485
247	0xbe08022c	-0.13282079
248	0x3e75d7c8	0.24008095
249	0x3e27427e	0.16333959
250	0xbe467bd9	-0.19383182
251	0x3eb4b139	0.3529146
252	0xbee91dc4	-0.45530522
253	0x3e993e2d	0.2993025
254	0xbdcd0b59	-0.1001193
255	0x3e0749cc	0.13211745

convs.0.fcn.bias f4 [32]
0	0xbcba15d6	-0.02271549
1	0x3bdfeacb	0.0068334094
2	0x3d108a21	0.03528798
3	0xbd0f6c5e	-0.035015456
4	0xbceffbab	-0.02929481
5	0x3c4b135b	0.012394751
6	0xbc02080d	-0.00793649
7	0xbc00188e	-0.007818354
8	0x3c1b7f60	0.009490818
9	0x3d2d3e08	0.042295486
10	0xbc8a5701	-0.01688719
11	0x3cd6dbec	0.026227914
12	0xbd46c7df	-0.048530456
13	0x3bf41242	0.0074484656
14	0xbc909647	-0.017649783
15	0x3d42cbe4	0.047557727
16	0xbdda84e0	-0.10669875
17	0x3d209c64	0.039211646
18	0x3c8a4a2b	0.01688107
19	0xbc9910a3	-0.01868469
20	0x3d08bd1d	0.033383477
21	0x3d0e42cb	0.034731667
22	0x3d1e51aa	0.0386521
23	0xbb3ac7e8	-0.00285005
24	0x3cf5d6f2	0.03000972
25	0x3d22b134	0.039719775
26	0xbca80777	-0.020511372
27	0x3cec6f15	0.028861562
28	0x3d14cd4a	0.03632859
29	0xbc12ef33	-0.008968162
30	0x3d33afe6	0.04386892
31	0x3b9b8d04	0.004747035

convs.1.deg_coeff f4 [2]
0	0x3f144372	0.57915413
1	0x3f7455c7	0.95443386

convs.1.coeff f4 [3]
0	0x3ede2833	0.43390045
1	0xbf1e2523	-0.61775416
2	0x3e94069c	0.28911293

convs.1.fcn.weight f4 [32, 32]
0	0x3f08bd0b	0.53413457
1	0xbe9c89f2	-0.30573994
2	0x3ee28704	0.44243634
3	0xbd9b8936	-0.0759453
4	0xbe607d17	-0.21922718
5	0x3ef7aff3	0.48376426
6	0x3ebe8831	0.3721328
7	0xbf11d369	-0.5696321
8	0xbef4f425	-0.47842517
9	0xbe753f4c	-0.23949927
10	0x3e08405a	0.13305798
11	0x3d7da081	0.061920647
12	0xbf0a8256	-0.54105127
13	0x3b256415	0.0025236655
14	0xbd2efd18	-0.042721838
15	0xbefb879c	-0.491269
16	0xbcedde85	-0.02903677
17	0xbed1d137	-0.4097993
18	0xbf0d482f	-0.5518827
19	0x3ea87809	0.3290408
20	0x3cdd58bb	0.027019849
21	0x3e83a289	0.25709942
22	0x3ca81e90	0.020522386
23	0xbe699768	-0.22811663
24	0x3ebfa9ec	0.37434328
25	0xbebe976f	-0.3722491
26	0xbe2d63f8	-0.16932666
27	0xbee14a6f	-0.440021
28	0x3f01199e	0.50429714
29	0x3ec8ad5e	0.3919477
30	0x3ed0bec0	0.4077053
31	0x3ec579ed	0.38569584
32	0xbeef3c71	-0.467258
33	0x3efbec31	0.49203637
34	0xbe3a66bd	-0.18203254
35	0x3e45d2f5	0.19318755
36	0xbce9d1c6	-0.02854241
37	0xbd8abf01	-0.06774712
38	0xbe8a03d3	-0.26956043
39	0x3e951b5f	0.29122445
40	0x3f14bf85	0.58104736
41	0x3e8b98fa	0.2726515
42	0x3d90d1e8	0.070712864
43	0x3d01f554	0.031728104
44	0x3eb77059	0.35827902
45	0x3c9b6ad5	0.01897184
46	0x3e0556c8	0.13021386
47	0x3e81d77a	0.25359708
48	0xbd81ace7	-0.06331807
49	0x3eda35a8	0.4261906
50	0x3f0573cf	0.52129835
51	0xbeee07a2	-0.46490198
52	0xbcb956a8	-0.022624329
53	0xbe180aea	-0.14847913
54	0x3e4b27c5	0.1983939
55	0x3e8c9a49	0.2746146
56	0xbe9ba033	-0.3039566
57	0x3ee1f6a1	0.44133475
58	0x3e019c03	0.1265717
59	0x3f0a43cb	0.54009694
60	0xbe8b1e9a	-0.27171785
61	0xbeba2cab	-0.36362204
62	0xbe2e5c70	-0.1702745
63	0xbeb309b9	-0.34968355
64	0x3f38c49d	0.7217501
65	0xbebf6fd4	-0.37390006
66	0x3f601ad8	0.8754096
67	0xbd53a8cb	-0.051674645
68	0x3de23830	0.11045873
69	0x3f43aed4	0.7643864
70	0x3f2dd447	0.67902035
71	0xbf4656ee	-0.77476394
72	0xbea5791f	-0.3231897
73	0xbe6dce14	-0.23223144
74	0x3ea8c98d	0.3296627
75	0xbe574905	-0.21023948
76	0xbf11ef4a	-0.5700575
77	0x3e79b29c	0.2438454
78	0xbdbd6161	-0.09247089
79	0xbdb2e541	-0.08735133
80	0x3e13651b	0.14394037
81	0xbe4ad780	-0.19808769
82	0xbe7efc24	-0.24900872
83	0x3ef1c9e3	0.4722434
84	0x3e802816	0.25030583
85	0x3f2f3490	0.6843958
86	0xbd0a8cad	-0.033825565
87	0xbe90af46	-0.28258723
88	0x3f2ab43e	0.6668128
89	0xbe96beee	-0.29442543
90	0xbdde5a47	-0.10857063
91	0xbec8f69f	-0.39250657
92	0x3f33a94b	0.70180196
93	0x3f1ac592	0.6045772
94	0x3f5d85ea	0.8653246
95	0x3f392b6a	0.7233187
96	0xbe12f013	-0.14349394
97	0x3e958147	0.29200193
98	0x3e77c952	0.24197891
99	0x3ee923e9	0.4553521
100	0x3e11a9b4	0.14224893
101	0x3d9c8302	0.07642175
102	0xbe71fd01	-0.2363167
103	0x3e303819	0.172089
104	0x3e956d30	0.29184866
105	0x3dcc5c6f	0.09978568
106	0x3e9916de	0.2990026
107	0xbe346b23	-0.17618994
108	0xbeb2fc62	-0.34958178
109	0x3eb5861b	0.35453877
110	0x3eaccdf0	0.33750868
111	0x3e5812f9	0.21100987
112	0xbd9f7d6e	-0.07787596
113	0x3d29323d	0.041307677
114	0x3e3e264e	0.185693
115	0xbde3a630	-0.11115682
116	0xbe231a30	-0.15927958
117	0xbe4b8bca	-0.19877544
118	0x3d34b688	0.044119388
119	0x3ea138f8	0.31488776
120	0x3e515a9c	0.20444721
121	0x3ed6149f	0.41812608
122	0x3ec5bba8	0.38619733
123	0x3e827ce6	0.25485915
124	0x3dfc026d	0.1230515
125	0xbe73fa1a	-0.23825875
126	0x3dfbf5e1	0.12302757
127	0xbe8fb25e	-0.2806577
128	0xbe4dd84b	-0.2010204
129	0x3e15a859	0.14615001
130	0x3e225416	0.15852389
131	0x3eb6459a	0.35599977
132	0x3ed2dd08	0.41184258
133	0x3dfc7ad0	0.12328112
134	0xbe5a4826	-0.21316585
135	0x3e2e3630	0.17012858
136	0x3e63ab7f	0.2223339
137	0x3de8e771	0.11372269
138	0x3e6b5c83	0.22984509
139	0xbd2e3651	-0.04253227
140	0xbe1565b2	-0.14589575
141	0x3eef256a	0.46708232
142	0x3eda0120	0.42578983
143	0x3d1504bb	0.036381464
144	0xbe476518	-0.19472158
145	0x3e07d7e9	0.13265957
146	0x3e573651	0.21016814
147	0xbe8c4ee0	-0.27403927
148	0xbe848cce	-0.25888675
149	0xbe21e7d9	-0.15811099
150	0xbc0d6111	-0.0086290995
151	0x3e4044c8	0.18776238
152	0x3dbbdd0b	0.0917302
153	0x3e934040	0.28759956
154	0x3f03c5aa	0.51473486
155	0x3e65d528	0.22444594
156	0x3d208dfc	0.039197907
157	0xbe8cfab8	-0.27535033
158	0xbb575930	-0.0032859556
159	0xbea833d4	-0.32852042
160	0x3eba6eae	0.36412567
161	0xbed0e818	-0.40802073
162	0x3f510670	0.8165045
163	0xbdd4a59d	-0.10383151
164	0xbd8eda7c	-0.06975266
165	0x3f4f1978	0.8089824
166	0x3ecf3c19	0.40475538
167	0xbf2346f2	-0.6378013
168	0xbe5cdfc0	-0.21569729
169	0xbe71e40a	-0.23622146
170	0x3ea753e4	0.3268119
171	0xbce6836f	-0.028138844
172	0xbeb963c9	-0.36208943
173	0x3e8078dd	0.2509221
174	0x3d99b049	0.07504327
175	0xbe2944dc	-0.16530174
176	0xbdb49121	-0.08816744
177	0xbe549522	-0.20760015
178	0xbeccb652	-0.3998285
179	0x3eec1018	0.4610603
180	0x3e8bcdb5	0.2730538
181	0x3f0e7ac4	0.55656075
182	0xbe4ec4c7	-0.20192252
183	0xbe575b7a	-0.2103099
184	0x3f3a2dae	0.7272595
185	0xbeb43de3	-0.35203466
186	0xbe8bb338	-0.2728517
187	0xbe8ca110	-0.2746663
188	0x3f2aee76	0.6677011
189	0x3ef2a648	0.47392488
190	0x3f2e845a	0.681707
191	0x3eb31f83	0.3498498
192	0x3d81ffed	0.06347642
193	0xbd8cf6b4	-0.068829924
194	0x3e9cc09a	0.30615693
195	0xbe9c0ae8	-0.3047707
196	0xbe939182	-0.2882195
197	0x3e48289f	0.19546746
198	0x3e75f363	0.24018626
199	0xbe7a0f57	-0.24419914
200	0xbdabbbfd	-0.08385465
201	0x3e268cee	0.16264698
202	0xbebd10f3	-0.36926994
203	0x3e8a49e4	0.270095
204	0xbe7f610c	-0.24939364
205	0xbdd5547f	-0.10416507
206	0xbd996812	-0.07490553
207	0x3e723370	0.23652434
208	0xbe8e2989	-0.27766064
209	0x3e4b7dc4	0.19872195
210	0xbd0bf0ee	-0.034165315
211	0x3dcbe256	0.099552795
212	0x3dfa0d77	0.122095995
213	0x3ec3af3a	0.38219625
214	0x3e955449	0.29165867
215	0xbceb124e	-0.028695252
216	0x3ef7adde	0.48374838
217	0xbdf1168f	-0.11771881
218	0xbe6add31	-0.2293594
219	0x3d66a053	0.05630524
220	0x3ea35cb9	0.3190668
221	0x3e7b86eb	0.24563186
222	0x3ef5d58d	0.4801449
223	0x3efa0209	0.48829678
224	0xbeb958dc	-0.36200607
225	0x3e064604	0.13112646
226	0xbea01ae6	-0.31270522
227	0xbba93cc3	-0.005164714
228	0xbe203c16	-0.15647921
229	0xbeafb1ab	-0.34315237
230	0xbed76a65	-0.4207336
231	0x3e94fb15	0.2909781
232	0x3ea88dba	0.3292063
233	0x3ded92aa	0.116002396
234	0xbb8e6216	-0.004345189
235	0x3d3cb449	0.04607037
236	0x3e61f72f	0.2206695
237	0xbe9dab6e	-0.30794853
238	0x3cb15560	0.021647155
239	0x3d5efaf4	0.054438546
240	0x3d549f12	0.051909514
241	0x3deb54b7	0.114907674
242	0x3e9252c2	0.28578764
243	0xbe92e461	-0.28689864
244	0xbdfb5735	-0.12272493
245	0xbe978d81	-0.29600146
246	0x3d39c048	0.04534939
247	0x3dc397ef	0.095504634
248	0xbec9e307	-0.3943102
249	0x3d97f47d	0.07419679
250	0x3df9bd90	0.12194359
251	0x3e91e654	0.2849604
252	0xbea4472c	-0.3208555
253	0xbee3e424	-0.44509995
254	0xbeb25660	-0.34831524
255	0xbed09643	-0.4073964

convs.1.fcn.bias f4 [32]
0	0x3db7d406	0.08975987
1	0xbd70d790	-0.058799326
2	0x3e8e16e9	0.27751854
3	0xbd787ae6	-0.06066408
4	0xbd1091e7	-0.035295393
5	0x3e1b3357	0.15156303
6	0x3eabdbd8	0.33566165
7	0x3e26c27b	0.16285126
8	0x3ec43b16	0.3832633
9	0x3c85f9de	0.016354498
10	0xbe11754d	-0.14204903
11	0x3e3281b9	0.17432298
12	0xbe01974b	-0.1265537
13	0xbc9453b9	-0.018106328
14	0xbcb911d6	-0.022591513
15	0x3e0a11b9	0.13483323
16	0xbbdf7cf7	-0.006820317
17	0x3e054834	0.13015825
18	0xbcfa0858	-0.030521557
19	0x3dd1314d	0.102144815
20	0x3d9a4a7e	0.075337395
21	0x3da79cea	0.08184226
22	0x3e4fc309	0.20289244
23	0xbef47ebf	-0.4775295
24	0xbe1589c1	-0.1460333
25	0x3ee71233	0.45131072
26	0x3c9457da	0.018108297
27	0xbd739487	-0.05946782
28	0x3e5bb3a3	0.21455245
29	0x3e33f46b	0.17573707
30	0x3e536354	0.2064336
31	0xbc22b33c	-0.009930428

convs.2.deg_coeff f4 [2]
0	0x3f91777f	1.1364592
1	0x3f975fbd	1.1826092

convs.2.coeff f4 [3]
0	0x3f0e3b07	0.5555882
1	0xbf562347	-0.8364758
2	0x3ec8f23d	0.39247313

convs.2.fcn.weight f4 [32, 32]
0	0x3ecd7d24	0.40134537
1	0xbe903ac6	-0.2816984
2	0x3ef107ae	0.47076172
3	0xbd4c746f	-0.049915727
4	0xbdb785f9	-0.089611
5	0x3ebea3e9	0.3723443
6	0x3eae2c08	0.34017968
7	0xbede931d	-0.43471614
8	0xbe81b8ae	-0.25336212
9	0xbec6e684	-0.38847744
10	0xbd976936	-0.07393114
11	0xbd3b2ad4	-0.04569514
12	0xbf07e215	-0.5307935
13	0x3e74020a	0.23828903
14	0xbe17c189	-0.14819922
15	0xbed0ca43	-0.40779313
16	0xbdd8432b	-0.10559686
17	0xbec415f6	-0.38298005
18	0xbeacd76a	-0.33758098
19	0x3ed80c76	0.42197007
20	0x3d2334d1	0.03984529
21	0x3ec49216	0.38392705
22	0x3dd1f2e1	0.102514036
23	0xbe829f8a	-0.25512344
24	0x3ea24706	0.31694812
25	0xbeb71641	-0.35759166
26	0xbdf913c8	-0.12161976
27	0xbee4778e	-0.44622463
28	0x3edc1498	0.42984462
29	0x3eb0d189	0.34534863
30	0x3f0d4a3b	0.5519139
31	0x3eff2a63	0.49837026
32	0xbec85a0f	-0.3913121
33	0x3eb723cd	0.357695
34	0xbe84c58e	-0.25931972
35	0x3dabe82e	0.08393894
36	0xbd0b56f6	-0.03401848
37	0xbdfbb0a7	-0.12289553
38	0xbde98161	-0.1140163
39	0x3ea8cc06	0.32968158
40	0x3ed2bb38	0.41158462
41	0x3e86dc77	0.26340076
42	0x3d810faf	0.063018195
43	0x3db8aaec	0.09016976
44	0x3e2fdfa3	0.17175154
45	0xbcf23885	-0.029567966
46	0x3de7f7e7	0.113265805
47	0x3ead768c	0.33879507
48	0xbc8dd0bd	-0.017311448
49	0x3ecdfb95	0.40231004
50	0x3ec25a00	0.3795929
51	0xbe3132f1	-0.17304589
52	0xbc2c5820	-0.0105190575
53	0xbe2e6569	-0.17030872
54	0x3e074c2f	0.13212655
55	0x3e48b5db	0.19600622
56	0xbe43e4a6	-0.19130191
57	0x3ed5d44d	0.41763535
58	0x3d41fc49	0.04735974
59	0x3ee82d80	0.45347214
60	0xbdc33107	-0.095308356
61	0xbea48286	-0.3213083
62	0xbe7f16db	-0.24911062
63	0xbed6e8ef	-0.4197459
64	0x3f049d15	0.5180219
65	0xbe8bf2d9	-0.27333716
66	0x3f66d07d	0.9016188
67	0xbe45904c	-0.19293326
68	0x3c9e91b2	0.019356582
69	0x3f6a0d43	0.91426486
70	0x3ee2b2e0	0.44277096
71	0xbf25101d	-0.6447771
72	0xbe25f998	-0.16208494
73	0xbdbe1e6d	-0.09283147
74	0x3c4a5f75	0.01235186
75	0xbdb81552	-0.089884415
76	0xbe9ddfb3	-0.3083473
77	0x3e9cbd5c	0.3061322
78	0x3d25c0b9	0.040466998
79	0xbd4c7427	-0.04991546
80	0x3dd5225c	0.10406944
81	0xbdf9bca3	-0.12194183
82	0xbe75b057	-0.2399305
83	0x3ef978d9	0.48725012
84	0x3e2df224	0.169869
85	0x3f232fa7	0.63744587
86	0xbd1687d3	-0.036750626
87	0xbe8bc9a6	-0.27302283
88	0x3f4205b8	0.75789976
89	0xbda850f2	-0.08218564
90	0xbdcf3af6	-0.10118668
91	0xbea03c5f	-0.3129606
92	0x3f41c766	0.7569488
93	0x3f3622d2	0.7114688
94	0x3f8187b2	1.0119536
95	0x3f25fa6e	0.6483525
96	0xbe45f922	-0.19333318
97	0x3e6d8f4c	0.23199195
98	0xbcc40504	-0.023928173
99	0x3ea10f68	0.31457067
100	0x3e8320b2	0.25610882
101	0xbd149aa5	-0.036280293
102	0xbe2f4da5	-0.17119463
103	0x3e83cb7a	0.25741178
104	0x3e96fe97	0.29491112
105	0x3df38538	0.11890644
106	0x3dda80f2	0.106691256
107	0xbe0ae4e2	-0.13563874
108	0xbdb181e4	-0.08667353
109	0x3e72418d	0.23657818
110	0x3ed1bb37	0.40963146
111	0x3d12e1e2	0.03585995
112	0xbddccf8a	-0.107817724
113	0x3e50f43b	0.20405667
114	0x3e84a3ae	0.25906128
115	0xbe1289ee	-0.14310429
116	0xbeb604f6	-0.3555066
117	0xbe73b8ba	-0.23800936
118	0xbcc72aec	-0.024312459
119	0x3eace7bc	0.3377055
120	0xbde2851c	-0.11060545
121	0x3eac85a6	0.33695716
122	0x3eb1a257	0.34694168
123	0x3e5d018f	0.21582626
124	0x3c317f7b	0.010833616
125	0xbe73eb45	-0.23820217
126	0xbdbcee6a	-0.092251614
127	0xbed35f50	-0.41283655
128	0xbdfe1626	-0.12406568
129	0x3e9054f9	0.2818983
130	0x3c64172d	0.013921541
131	0x3eb1b91b	0.34711537
132	0x3e96fcbb	0.29489693
133	0xbd375026	-0.04475417
134	0xbe732a68	-0.23746645
135	0x3e9f6cbc	0.31137645
136	0x3e7f035e	0.24903628
137	0x3d928f0c	0.0715619
138	0x3d912250	0.07086623
139	0xbde49fb6	-0.11163275
140	0xbc7ca430	-0.015420005
141	0x3e8824e7	0.26590654
142	0x3e8cb1a6	0.27479285
143	0x3d63b6c9	0.05559424
144	0xbd8bd337	-0.068273954
145	0x3d79364a	0.06084279
146	0x3e5be2da	0.21473256
147	0xbe1e82f1	-0.15479638
148	0xbe9d929b	-0.30775914
149	0xbec1b33d	-0.3783206
150	0xbe08acde	-0.13347194
151	0x3e5b83ab	0.21436946
152	0x3c99661a	0.018725444
153	0x3e7968b4	0.24356347
154	0x3e9d4808	0.30719018
155	0x3e8fdea5	0.28099552
156	0xbdc755bc	-0.097331494
157	0xbdff342a	-0.124611214
158	0xbe222c45	-0.158372
159	0xbf05b827	-0.5223412
160	0x3efc1dfb	0.49241623
161	0xbe82a393	-0.25515422
162	0x3f6d130f	0.92607206
163	0xbe22484a	-0.15847889
164	0x3d8d77a8	0.06907588
165	0x3f2595b2	0.6468154
166	0x3ea0aab1	0.31380227
167	0xbf346200	-0.70462036
168	0xbe6b6602	-0.22988132
169	0xbe70865e	-0.23488757
170	0x3ddf170b	0.10893067
171	0xbdd1db61	-0.10246921
172	0xbefb1696	-0.4904067
173	0x3eca6454	0.3952967
174	0x3dd7ee24	0.105434686
175	0xbe768e3e	-0.24077699
176	0xbd0dcaaa	-0.034617104
177	0xbe7bce8e	-0.24590513
178	0xbe85eeb3	-0.26158676
179	0x3efe7158	0.4969585
180	0x3e7984d4	0.24367076
181	0x3efe38d7	0.4965274
182	0xbe0d4fa7	-0.13799916
183	0xbd9503da	-0.07276125
184	0x3f48a20f	0.7837228
185	0xbe247d5a	-0.16063443
186	0xbca44237	-0.020051105
187	0xbed52ea9	-0.4163716
188	0x3f567ff1	0.83788973
189	0x3f168d17	0.58809036
190	0x3f61c7eb	0.88195676
191	0x3f0b14da	0.5432869
192	0x3e1a8cfe	0.15092847
193	0x3c8c3c38	0.017118558
194	0x3ec80b09	0.3907092
195	0xbea89015	-0.32922426
196	0xbec93ae7	-0.3930275
197	0x3e9d4de3	0.30723485
198	0x3e6f058c	0.2334196
199	0xbe13cbff	-0.14433287
200	0x3da39983	0.079882644
201	0x3e87b4d7	0.26505157
202	0xbe8a1409	-0.2696841
203	0x3e6a4357	0.2287725
204	0xbdac9183	-0.08426192
205	0xbe9fcac4	-0.31209385
206	0xbe8b5eaa	-0.2722066
207	0x3e82cc9b	0.25546727
208	0xbe9ca405	-0.30593887
209	0x3ea89d90	0.3293271
210	0x3d99f929	0.07518227
211	0x3dfe8cfe	0.12429236
212	0x3e2bf098	0.16790998
213	0x3eb1a830	0.3469863
214	0x3ee5d7fd	0.44891348
215	0x3b369be3	0.0027863912
216	0x3ebd11ae	0.3692755
217	0x3e45ef43	0.19329552
218	0xbe20f16e	-0.15717098
219	0x3cbaf1f6	0.022820454
220	0x3ebd6d16	0.36997288
221	0x3e9f60c7	0.31128523
222	0x3ed7720f	0.42079207
223	0x3ec4e915	0.38459077
224	0xbec95c30	-0.39328146
225	0x3db35ef5	0.08758346
226	0xbf075c09	-0.5287481
227	0x3b9d95fa	0.0048091384
228	0xbd61d4a1	-0.05513442
229	0xbebbc79e	-0.36675733
230	0xbe8e447e	-0.2778663
231	0x3e858609	0.26078823
232	0x3e3b21c1	0.18274595
233	0x3d8aaa8b	0.0677081
234	0xbe44f20b	-0.19232957
235	0x3c20f81c	0.009824779
236	0x3e7d6d1e	0.24748656
237	0xbdccd26d	-0.10001073
238	0xbdbc9a72	-0.092091456
239	0x3e3d551f	0.18489502
240	0x3cb5f7a4	0.02221281
241	0x3e0e61fa	0.13904563
242	0x3e74f336	0.23920903
243	0xbec2c3ae	-0.38039917
244	0x3cc697a3	0.024242228
245	0xbed8af4b	-0.42321238
246	0x3e20c9b2	0.1570194
247	0x3dbd1785	0.092330016
248	0xbec24ac6	-0.37947673
249	0x3e89e0e9	0.26929405
250	0xbe406e12	-0.18791988
251	0x3ea7d61c	0.3278054
252	0xbe62c79b	-0.22146456
253	0xbec60bb9	-0.3868082
254	0xbf03c0c1	-0.51465994
255	0xbe88f7ed	-0.26751652

convs.2.fcn.bias f4 [32]
0	0x3e69b1a6	0.22821674
1	0xbd47c940	-0.04877591
2	0x3e2dc7df	0.16970776
3	0xbdb0ba75	-0.08629314
4	0xbe15309d	-0.14569326
5	0x3edc4ae2	0.4302588
6	0x3ed99b5c	0.42501342
7	0x3d920bef	0.071311824
8	0x3e825163	0.25452718
9	0x3e2d65ae	0.16933319
10	0xbe0cc6f1	-0.13747765
11	0x3b7b35fe	0.0038331742
12	0x3e3315be	0.17488763
13	0xbdb9f549	-0.090799876
14	0x3e6242ec	0.22095841
15	0x3edec0de	0.4350652
16	0xbdbe467d	-0.09290788
17	0x3e4a29e1	0.19742538
18	0x3dfe5000	0.124176025
19	0x3beca9e9	0.0072224033
20	0x3e78f940	0.24313831
21	0x3ea80d30	0.3282256
22	0x3e137277	0.14399134
23	0xbdb48de5	-0.08816127
24	0x3ea798f3	0.32733878
25	0x3e9c0f8a	0.30480605
26	0x3cd6de1d	0.026228959
27	0x3db0edd5	0.08639113
28	0x3e3e049a	0.18556443
29	0x3e0c2073	0.13684253
30	0x3ec2e5e2	0.38066012
31	0x3eaecd8a	0.3414119

convs.3.deg_coeff f4 [2]
0	0x3ff502bd	1.9141461
1	0x3fabf6aa	1.3434651

convs.3.coeff f4 [3]
0	0x3f3f7d05	0.7480014
1	0xbf62ef46	-0.8864635
2	0x3e6c2444	0.23060709

convs.3.fcn.weight f4 [32, 32]
0	0x3ea780ce	0.32715458
1	0xbe7c7778	-0.24654949
2	0x3ea04846	0.3130514
3	0xbe220392	-0.15821674
4	0xbe4e02d7	-0.20118271
5	0x3e80d915	0.2516562
6	0x3e02fadc	0.12791008
7	0xbe9a085a	-0.30084497
8	0xbeb45352	-0.35219818
9	0xbe73d326	-0.23811015
10	0xbdde9eab	-0.10870107
11	0x3dd108b9	0.10206742
12	0xbeac5fae	-0.33666748
13	0x3d508e50	0.05091697
14	0xbd0c54dd	-0.03426062
15	0xbea18f54	-0.31554663
16	0xbbaf007e	-0.005340635
17	0xbe9ba563	-0.30399618
18	0xbebebede	-0.37254995
19	0x3ebf6e99	0.37389067
20	0x3e3cd5df	0.1844096
21	0x3e35c590	0.17751145
22	0x3c826d22	0.01592118
23	0xbe522349	-0.20521273
24	0x3e72ec38	0.23722923
25	0xbe9c2520	-0.30497074
26	0xbe1e8bcd	-0.15483017
27	0xbec34692	-0.38139778
28	0x3e89fd3e	0.2695102
29	0x3e870cee	0.26377052
30	0x3e930c20	0.28720188
31	0x3e99dfb3	0.3005348
32	0xbef1b26d	-0.4720644
33	0x3efacb44	0.48983204
34	0xbea9cede	-0.3316564
35	0x3dff224f	0.12457716
36	0xbbe6d3b5	-0.0070442804
37	0xbe6afe73	-0.22948627
38	0xbe41510d	-0.18878575
39	0x3eee2794	0.4651457
40	0x3f248e36	0.64279497
41	0x3f144303	0.5791475
42	0x3cac1ea7	0.02101071
43	0x3c86fb90	0.016477376
44	0x3e36ed75	0.1786402
45	0x3b70c34b	0.0036737497
46	0x3e3737f0	0.17892432
47	0x3f15b914	0.5848553
48	0xbdc39bb4	-0.095511824
49	0x3f1a7b0b	0.60344
50	0x3f0cc953	0.54994696
51	0xbea1a404	-0.31570446
52	0x3c276a47	0.01021821
53	0xbdef5e84	-0.11687949
54	0x3e0f01f2	0.13965586
55	0x3e83ee4c	0.25767744
56	0xbe42bde9	-0.19017757
57	0x3f296944	0.6617625
58	0x3d777c8a	0.060421504
59	0x3f04f486	0.51935613
60	0xbe525287	-0.20539294
61	0xbe7596a4	-0.23983246
62	0xbe4f6866	-0.20254669
63	0xbe99e6f0	-0.30059004
64	0x3efd5476	0.494785
65	0xbe640b73	-0.22269993
66	0x3f25a3f2	0.64703286
67	0xbd71ac77	-0.059002366
68	0xbd90be6b	-0.07067569
69	0x3f370196	0.71486795
70	0x3ea4e815	0.32208315
71	0xbf17f988	-0.5936513
72	0xbe44da6e	-0.1922395
73	0xbe4fb521	-0.20283939
74	0x3dd2a1ae	0.10284744
75	0xbd661ad0	-0.056177914
76	0xbed3a2b7	-0.4133508
77	0x3e5119ea	0.20420042
78	0x3d1527fb	0.03641508
79	0xbe21095a	-0.15726224
80	0x3d5f5bc6	0.05453088
81	0xbe751711	-0.2393458
82	0xbe835431	-0.2565017
83	0x3ebb3ec3	0.3657132
84	0x3e7c186b	0.2461869
85	0x3f2a6aad	0.66569024
86	0xbc2a4509	-0.010392436
87	0xbdd2f9b2	-0.10301532
88	0x3f21a089	0.6313558
89	0xbe0d96f3	-0.13827114
90	0xbdbf5b9c	-0.09343645
91	0xbea8971e	-0.32927793
92	0x3f2ba551	0.6704913
93	0x3ef6d7ba	0.4821146
94	0x3f53b8da	0.82703936
95	0x3f15470e	0.58311546
96	0xbde14b00	-0.11000633
97	0x3e3daaa1	0.18522121
98	0xbcd5a7e2	-0.02608103
99	0x3e34530f	0.1760981
100	0x3da82a31	0.08211172
101	0xb9d1a762	-0.00039988296
102	0xbe14797a	-0.14499465
103	0x3e8e2ab2	0.2776695
104	0x3e612663	0.219873
105	0x3d32c036	0.043640338
106	0x3dac0bda	0.08400698
107	0xbcb1149e	-0.021616276
108	0x3cbc4627	0.02298267
109	0x3dfd6217	0.12372225
110	0x3e4b4ef8	0.19854343
111	0x3dce74da	0.100808814
112	0xbe24415e	-0.1604056
113	0x3e6473e4	0.22309834
114	0x3e6592e1	0.22419311
115	0xbdeeac35	-0.1165394
116	0xbe033ace	-0.12815401
117	0xbe13779a	-0.14401093
118	0xbcffbdec	-0.031218491
119	0x3e2eb736	0.17062077
120	0xbd282733	-0.04105301
121	0x3e9761f5	0.29566923
122	0x3e40b50a	0.18819061
123	0x3e197240	0.14984989
124	0xbdf44da9	-0.11928875
125	0xbddaf978	-0.10692114
126	0xbd415af0	-0.047205865
127	0xbe82a85a	-0.25519067
128	0x3db95aee	0.090505466
129	0x3da8b6a1	0.08237959
130	0x3ea96ec0	0.33092308
131	0x3e3ae21d	0.18250318
132	0x3d96fbef	0.07372271
133	0x3e976071	0.29565766
134	0xbceb0c86	-0.028692495
135	0x3e035842	0.12826636
136	0x3e13600b	0.14392106
137	0x3b7dda49	0.0038734844
138	0x3d84cd59	0.064844795
139	0xbdad8ac7	-0.08473735
140	0xbdbef1a4	-0.09323433
141	0x3e2d1c7a	0.16905394
142	0x3e25f1d2	0.16205528
143	0x3da87ae9	0.08226568
144	0xbe624b8e	-0.22099134
145	0x3deeab7e	0.11653803
146	0x3e066e66	0.13128051
147	0x3de1ce36	0.1102566
148	0xbdbb7bdc	-0.09154484
149	0x3e1becbb	0.15227024
150	0x3c64f202	0.013973715
151	0x3db132fb	0.08652302
152	0x3e1a54a7	0.15071355
153	0x3e46013b	0.19336407
154	0x3e1c94c5	0.15291126
155	0x3e110fb9	0.14166154
156	0x3e3dd0fb	0.18536751
157	0x3df996be	0.12186955
158	0x3e8d3ae7	0.27584
159	0x3b32f262	0.0027305116
160	0x3ee01cf3	0.43772087
161	0xbe6d0704	-0.23147207
162	0x3f26b0d8	0.6511359
163	0xbce536cd	-0.027980233
164	0xbe0d72f1	-0.13813378
165	0x3f2f5106	0.68483007
166	0x3edfa857	0.4368312
167	0xbefadaf5	-0.48995176
168	0xbe19d70e	-0.15023443
169	0xbe12b3d2	-0.14326409
170	0x3d117924	0.03551592
171	0xbda9e66a	-0.08295901
172	0xbe9ae4a0	-0.30252552
173	0x3e66e7cd	0.22549362
174	0x3d30177b	0.042991143
175	0xbe2499f5	-0.16074355
176	0xbc7250c3	-0.014789763
177	0xbe7a54b6	-0.24446377
178	0xbe5ea41c	-0.2174229
179	0x3e9e93a9	0.3097203
180	0x3e56bd77	0.20970713
181	0x3f0b5ddc	0.54440093
182	0x3d456676	0.048193417
183	0xbe468ab1	-0.19388844
184	0x3f2208a6	0.63294446
185	0xbe4f113e	-0.20221421
186	0xbd44f007	-0.04808047
187	0xbe9c2192	-0.30494362
188	0x3f34b7b3	0.705928
189	0x3f0175ed	0.50570565
190	0x3f4ebb6e	0.80754745
191	0x3ecfd082	0.40588766
192	0x3e15e6ff	0.146389
193	0xbd9ae8ab	-0.07563909
194	0x3e19f078	0.15033138
195	0xbddfa122	-0.109194055
196	0xbe8c9eb9	-0.27464846
197	0x3d5df824	0.054191723
198	0x3e317664	0.17330319
199	0x3c4e14e7	0.012578226
200	0x3d67ef60	0.05662477
201	0x3dc9e970	0.09858978
202	0xbebe4235	-0.37159887
203	0x3ee4f66f	0.44719264
204	0x3dded655	0.10880724
205	0xbe879a58	-0.26484942
206	0xbe3106c3	-0.17287736
207	0x3dca9c67	0.09893113
208	0xbe759275	-0.2398165
209	0x3dfebbac	0.12438139
210	0x3d6c5ca4	0.057705536
211	0x3e28acd5	0.1647218
212	0x3ea734cd	0.3265747
213	0x3e337439	0.17524804
214	0x3ec7b666	0.39006346
215	0xbdef2d76	-0.11678593
216	0x3d757045	0.05992152
217	0x3d6a4548	0.057194978
218	0xbe02919d	-0.1275086
219	0xbca0b763	-0.019618696
220	0x3ca70dbf	0.020392297
221	0x3e7f587f	0.24936102
222	0x3e5c57fc	0.21517938
223	0x3ea13e12	0.31492668
224	0xbf050202	-0.5195619
225	0x3e483ceb	0.19554488
226	0xbeebebcc	-0.46078336
227	0xbe4896b8	-0.19588745
228	0xbe5719e5	-0.21005972
229	0xbe83d528	-0.25748563
230	0xbe699760	-0.22811651
231	0x3e123d35	0.14281161
232	0x3ebf9424	0.3741771
233	0x3e872b19	0.26400068
234	0xbd980120	-0.074220896
235	0x3ddf47aa	0.10902341
236	0x3eae2935	0.34015813
237	0xbe850dc3	-0.25987062
238	0xbdc41bb9	-0.095756
239	0x3e9b535f	0.30337045
240	0xbdd908b6	-0.105973646
241	0x3ec4b7aa	0.38421375
242	0x3ea45922	0.32099253
243	0xbeb5f402	-0.35537726
244	0xbca1de36	-0.019759279
245	0xbe7b1fd0	-0.24523854
246	0x3e6253e5	0.22102316
247	0x3c4b7fa1	0.012420566
248	0xbe9a80f3	-0.30176505
249	0x3ec34bb6	0.381437
250	0xbe07120e	-0.13190481
251	0x3ec15e3c	0.37767208
252	0xbe6fdb9d	-0.2342362
253	0xbe910e5a	-0.28331262
254	0xbeb09c06	-0.34494036
255	0xbe439025	-0.19097956

convs.3.fcn.bias f4 [32]
0	0x3d18fdfe	0.0373516
1	0x3ea5d9b3	0.32392654
2	0x3e871193	0.26380596
3	0x3d9ea345	0.07745985
4	0x3e00098e	0.12503645
5	0x3e05fd9a	0.13085023
6	0x3e326575	0.17421515
7	0x3d8314f4	0.06400481
8	0x3e33f2a7	0.17573033
9	0x3f2df01d	0.6794451
10	0x3e1683f7	0.14698778
11	0x3a31b94d	0.0006779626
12	0x3dc044c5	0.09388117
13	0x3e30afc6	0.17254552
14	0xbca6e237	-0.02037154
15	0x3e6913a8	0.22761405
16	0x3e2f3166	0.17108688
17	0x3f140e5a	0.578344
18	0x3ddf2d9c	0.10897371
19	0xbc7b7763	-0.015348288
20	0x3edb0db4	0.42783892
21	0x3e1f3b3e	0.15549943
22	0xbb3f5d70	-0.002919998
23	0x3e62c82c	0.22146672
24	0x3d044931	0.032296363
25	0x3ebbd84e	0.36688465
26	0xbcf1c9ad	-0.029515112
27	0x3edc1f3a	0.42992574
28	0x3daf8d7b	0.08571907
29	0xbdc6dbe5	-0.0970991
30	0x3e10c9a1	0.14139415
31	0xbdb64efd	-0.089017846

convs.4.deg_coeff f4 [2]
0	0x3fb162d6	1.3858287
1	0x3e28012d	0.16406699

convs.4.coeff f4 [3]
0	0xbe981e1f	-0.2971048
1	0xbeeebb82	-0.46627432
2	0x3ef2ed7d	0.47446814

convs.4.fcn.weight f4 [3, 32]
0	0xbe96d564	-0.2945968
1	0x3ee33786	0.443783
2	0x3f1dbdca	0.6161772
3	0x3efe8047	0.49707243
4	0x3eb92f00	0.3616867
5	0x3f144efc	0.5793302
6	0xbe75c4a9	-0.24000801
7	0xbe5ad305	-0.2136956
8	0x3e979347	0.2960455
9	0x3edb30b2	0.4281059
10	0x3edfffc4	0.4374982
11	0xbf1189b7	-0.5685076
12	0xbea4608d	-0.32104912
13	0x3ecee6c5	0.40410438
14	0x3f152ffe	0.58276355
15	0x3f0e997e	0.5570296
16	0x3e86de55	0.263415
17	0x3ef28fb9	0.47375277
18	0x3ee68b52	0.45028168
19	0xbe8423ef	-0.25808665
20	0xbeb970ed	-0.36218968
21	0x3eb3ff14	0.35155547
22	0xbef8ea24	-0.48616135
23	0x3f02c484	0.5108111
24	0x3f07b9c2	0.5301782
25	0x3eef0f93	0.4669157
26	0x3f0f9a14	0.5609448
27	0x3f09c467	0.5381531
28	0x3f184515	0.5948041
29	0xbe36ddb8	-0.17858016
30	0x3f2dfd88	0.67964983
31	0xbe766539	-0.24062051
32	0x3eed7320	0.46376896
33	0xbef54ecd	-0.47911683
34	0x3ecbc3b8	0.3979776
35	0xbeed39a1	-0.4633303
36	0xbef83d69	-0.48484352
37	0x3ecb109e	0.39661115
38	0x3ef2ecb2	0.4744621
39	0xbebb07e2	-0.36529452
40	0xbee7e3ee	-0.45291084
41	0xbe7a3b03	-0.24436574
42	0xbeeabd48	-0.45847535
43	0x3ef83404	0.48477185
44	0x3e1e8d29	0.15483536
45	0xbece755f	-0.40323922
46	0xbec12b3d	-0.377283
47	0xbe53ec4a	-0.20695606
48	0xbee8afb1	-0.45446542
49	0xbea3000b	-0.3183597
50	0xbeb05f69	-0.34447792
51	0x3ef428e1	0.47687438
52	0x3ee469a0	0.44611835
53	0x3e9073d5	0.28213373
54	0x3ee5e5bb	0.44901833
55	0xbecae3cf	-0.3962693
56	0x3e74a646	0.23891553
57	0xbea01409	-0.31265286
58	0xbeea0a22	-0.45710856
59	0xbea0fff2	-0.3144527
60	0x3e6aed34	0.22942048
61	0x3eff2b23	0.49837598
62	0x3edd4718	0.43218303
63	0x3e61da6f	0.22055982
64	0xbf0d35b3	-0.55160064
65	0x3e3ed62b	0.18636386
66	0xbf0954e6	-0.5364517
67	0xbec58351	-0.3857675
68	0xbf103f5d	-0.56346685
69	0xbf08ff55	-0.53514606
70	0x3c79abe8	0.01523874
71	0x3ee8881a	0.45416337
72	0x3e83b3e5	0.25723186
73	0x3eb12570	0.34598875
74	0xbedb6dce	-0.42857212
75	0x3f079f6d	0.5297764
76	0x3f0ebb13	0.557542
77	0xbf011bb0	-0.5043287
78	0xbec09091	-0.37610295
79	0x3edf9822	0.43670756
80	0xbee14dda	-0.4400471
81	0x3ed28d48	0.41123414
82	0x3e8f39d4	0.27973807
83	0xbe8421c9	-0.25807026
84	0x3ee29372	0.44253117
85	0xbeb3a939	-0.35090044
86	0x3ef5297d	0.47883216
87	0x3d97c2c0	0.074101925
88	0xbedb0c68	-0.42782903
89	0x3ebb6515	0.36600557
90	0xbeb083d5	-0.3447558
91	0x3ec0d110	0.37659502
92	0xbeef4c38	-0.46737838
93	0xbe64c11e	-0.22339293
94	0xbeab4212	-0.33448845
95	0xbe9cc9a2	-0.30622584

convs.4.fcn.bias f4 [3]
0	0x3c486ade	0.01223251
1	0xbd881d11	-0.06646169
2	0x3da62428	0.08112365

fcn.weight f4 [32, 500]
0	0xbe462f74	-0.1935404
1	0x3dbc1afb	0.091848336
2	0x3dbe693b	0.09297415
3	0xbdb47044	-0.088104755
4	0x3ad357dc	0.0016124207
5	0x3dcca4c7	0.09992366
6	0xbd6ae14f	-0.057343777
7	0x3e151acd	0.14561005
8	0xbe187b59	-0.14890803
9	0xbe01c1e3	-0.12671618
10	0x3d865335	0.06558839
11	0xbe961407	-0.29312155
12	0x3e94204a	0.28930885
13	0xbe47a6b2	-0.19497183
14	0xbde3811d	-0.11108611
15	0xbe6b57a2	-0.22982648
16	0x3f2a0400	0.66412354
17	0x3de08d44	0.10964444
18	0x3c377047	0.011196203
19	0xbd9c49d7	-0.07631271
20	0x3e6c3a6c	0.23069161
21	0xbe1506b8	-0.14553344
22	0x3dca74f5	0.09885589
23	0xbe73a8f6	-0.23794922
24	0xbe28e854	-0.16494876
25	0xbe55f5f3	-0.20894603
26	0x3e365098	0.17804182
27	0xbcc33ae7	-0.023831798
28	0x3e3af408	0.18257153
29	0x3e2be8ff	0.167881
30	0x3e9661b6	0.29371423
31	0x3e8ea333	0.27858886
32	0xbd884647	-0.06654029
33	0xbe01e9d1	-0.1268685
34	0x3e7b986f	0.24569868
35	0xbe995f46	-0.299555
36	0x3e2e9f46	0.17052945
37	0xbc3ccd65	-0.011523579
38	0x3e9f6f5f	0.31139657
39	0xbe746d24	-0.23869759
40	0xbe8346e9	-0.25640038
41	0x3bda0c0d	0.0066542686
42	0xbe882ac2	-0.26595122
43	0xbdd2fbf2	-0.10301961
44	0x3ea03bff	0.31295773
45	0x3e368fa3	0.1782823
46	0xbe698732	-0.22805479
47	0x3e6aa955	0.22916158
48	0xbe73cf9b	-0.23809664
49	0x3cd8f80c	0.026485465
50	0x3d3505ab	0.04419486
51	0x3e5e7f16	0.21728167
52	0x3e3b06e0	0.18264341
53	0xbe6c2d43	-0.23064141
54	0xbe3270bb	-0.17425816
55	0xbe11a793	-0.1422408
56	0xbd40f44c	-0.04710798
57	0x3d2b146f	0.041767534
58	0x3d70c857	0.05878481
59	0x3db4469b	0.088025294
60	0x3ca259eb	0.019818267
61	0x3bae8012	0.0053253258
62	0xbc50e22a	-0.012749234
63	0x3e12f2dd	0.14350457
64	0x3e262c3a	0.16227809
65	0xbe267515	-0.16255601
66	0x3deadb7a	0.11467643
67	0xbbe9bc06	-0.00713301
68	0x3e2f0b01	0.17094041
69	0x3e9905b9	0.2988718
70	0xbd638a61	-0.05555189
71	0x3e6de858	0.23233163
72	0xbe308cac	-0.17241162
73	0x3c9b4252	0.018952522
74	0xbe41fe77	-0.18944727
75	0xbdba8112	-0.091066495
76	0xbe5e3ea9	-0.2170359
77	0xbeca989f	-0.39569566
78	0xbc68bf1e	-0.014205722
79	0xbcb53646	-0.022120606
80	0xbb897708	-0.004195098
81	0x3e50cdda	0.20391026
82	0xbd575864	-0.05257453
83	0x3d521812	0.051292486
84	0xbe966800	-0.2937622
85	0x3de92f00	0.11385918
86	0x3dc02674	0.09382334
87	0x3e83de8b	0.25755724
88	0x3cf7b6ff	0.030238627
89	0x3eade7ba	0.33965856
90	0xbbc9b429	-0.00615551
91	0xbd346bf4	-0.044048265
92	0xbdf0e2e4	-0.11762026
93	0xbd938333	-0.07202759
94	0xbe9440d7	-0.2895572
95	0xbdd69a5d	-0.10478661
96	0x3e3a5811	0.18197657
97	0xbe14e99f	-0.14542244
98	0xbd2512a4	-0.04030098
99	0x3c6a55a3	0.014302644
100	0x3ca1bb14	0.019742526
101	0x3d6dd9d2	0.058069058
102	0x3e054830	0.13015819
103	0x3e72c710	0.23708749
104	0xbe526dae	-0.20549652
105	0x3e4e3082	0.20135692
106	0x3d221664	0.039572135
107	0xbe05617b	-0.13025467
108	0xbe99a7b5	-0.30010763
109	0x3df84f1d	0.12124465
110	0x3d89322f	0.06699025
111	0x3b832f39	0.004003432
112	0xbe7c6357	-0.2464727
113	0x3dd02e35	0.10165063
114	0x3e3081e6	0.17237052
115	0x3da42219	0.08014316
116	0x3e3b52da	0.18293324
117	0xbc73c508	-0.014878519
118	0x3d1bc59e	0.03803026
119	0xbc7adc6e	-0.015311344
120	0x3dbf0253	0.09326615
121	0xbda13375	-0.07871143
122	0xbdcdec18	-0.10054797
123	0x3e16554f	0.1468098
124	0xbdaae48b	-0.08344372
125	0x3d4b5c79	0.049648736
126	0x3d49e0e3	0.049286734
127	0x3e65d511	0.2244456
128	0x3dbaaa30	0.09114492
129	0x3ea92c4a	0.33041602
130	0x3e287903	0.16452412
131	0x3bcb3cae	0.006202302
132	0x3d096e58	0.033552498
133	0xbda06acd	-0.07832871
134	0x3bc7ca6d	0.006097129
135	0x3d8dca5c	0.069233626
136	0x3ef0c1b7	0.47022793
137	0x3e39d3b8	0.1814717
138	0xbc2d8f69	-0.010593274
139	0xbf23c17c	-0.6396711
140	0x3d397fde	0.04528796
141	0xbda47da1	-0.08031774
142	0x3d5e2c93	0.054241728
143	0xbdbda35e	-0.092596754
144	0x3d8244f9	0.06360812
145	0x3e41d63b	0.18929379
146	0x3dd826a6	0.105542466
147	0x3daa2da0	0.083094835
148	0x3e45e48e	0.19325468
149	0xbcf2e9a1	-0.029652419
150	0x3d19f0b0	0.037583053
151	0x3d3d1573	0.046163034
152	0x3df9ded5	0.12200705
153	0x3da86e61	0.08224178
154	0xbdcd1ae6	-0.10014896
155	0x3d08fd3f	0.03344464
156	0xbdb71ce9	-0.08941061
157	0x3d89b68e	0.06724273
158	0xbdb85af6	-0.090017244
159	0xbe876b8a	-0.26449233
160	0x3d8923ef	0.06696307
161	0x3e48986b	0.19589393
162	0xbd4aaf89	-0.04948381
163	0xbdfa126b	-0.12210544
164	0xbe963441	-0.29336742
165	0xbd19bf5a	-0.037536003
166	0xbe54e0f5	-0.2078894
167	0x3e4a2e11	0.19744135
168	0xbd77ed65	-0.06052913
169	0x3d98142f	0.07425725
170	0x3cd122be	0.025529262
171	0x3d8d2844	0.06892446
172	0x3e727b9d	0.23679967
173	0x3e0c0397	0.13673244
174	0x3e1c48ee	0.15262195
175	0xbcd674a6	-0.02617867
176	0x3c03fddd	0.008056131
177	0xbd0cd5b6	-0.034383498
178	0x3d32aab6	0.043619834
179	0xbdf46d33	-0.119348906
180	0xbdd53adc	-0.10411617
181	0x3e6beb89	0.23039068
182	0x3e404d16	0.18779406
183	0xbe16cca5	-0.14726503
184	0xbf86c395	-1.0528437
185	0xbdbd9742	-0.09257366
186	0x3e9d07e2	0.30670077
187	0x3d6198ad	0.055077244
188	0x3dd5c758	0.104384124
189	0xbd74bfa5	-0.05975308
190	0x3e249d36	0.16075596
191	0xbd2e3042	-0.04252649
192	0xbcbaf51f	-0.022821961
193	0x3e23b0a8	0.15985358
194	0xbd4d5ebb	-0.05013917
195	0xbd8a050a	-0.067392424
196	0xbe004c17	-0.12529026
197	0x3e3cf31c	0.18452114
198	0x3ee8ce7f	0.45470044
199	0x3c40c16e	0.011764867
200	0xbe614208	-0.21997845
201	0x3e3a7bea	0.18211332
202	0xbe1f6c45	-0.15568645
203	0x3d2788f0	0.04090208
204	0xbd740129	-0.05957142
205	0x3e0cef8a	0.13763252
206	0x3e176109	0.1478311
207	0xbe5bc5fa	-0.21462241
208	0xbd86ce0b	-0.06582268
209	0xbe50399c	-0.20334476
210	0xbe216c14	-0.15763885
211	0x3d8af28f	0.06784546
212	0x3e13c386	0.14430055
213	0x3e15e5c5	0.14638431
214	0x3c4615f7	0.012090198
215	0x3dfaef0d	0.122526266
216	0x3ed6d71f	0.41961
217	0x3e3a26e1	0.18178894
218	0x3cdff567	0.027338697
219	0x3ddc6d7f	0.10763072
220	0x3d4b02c7	0.049563196
221	0x3d53982d	0.051658798
222	0xbdbbc083	-0.09167578
223	0x3d4742d0	0.0486477
224	0x3d56e59d	0.05246507
225	0xbde65d18	-0.11248225
226	0x3d62876e	0.055304937
227	0x3e426bcb	0.18986432
228	0x3e0ffec2	0.14062026
229	0x3e4051ff	0.18781279
230	0x3d9488b2	0.07252635
231	0x3e48161c	0.19539684
232	0x3d623d75	0.05523439
233	0xbd659a1a	-0.056055166
234	0xba7b7fa5	-0.00095939107
235	0x3e8dad6b	0.2767137
236	0xbe43157d	-0.19051166
237	0x3e952180	0.2912712
238	0xbcbfec36	-0.023428064
239	0x3f1ec844	0.6202433
240	0xbeabdd57	-0.33567306
241	0x3dcffc1f	0.1015551
242	0x3e2d9766	0.16952285
243	0x3d94beab	0.072629295
244	0x3e57e529	0.21083511
245	0xbd59de5f	-0.053190585
246	0x3e831c0e	0.25607342
247	0xbd31ae6c	-0.043379232
248	0x3e1d853b	0.15382855
249	0xbca99d88	-0.020705
250	0x3de917a2	0.11381461
251	0x3e980641	0.2969227
252	0x3d8b92c2	0.06815101
253	0x3e16a6c3	0.14712052
254	0xbe567b76	-0.20945534
255	0xbe049cb1	-0.12950398

fcn.bias f4 [32]
0	0xbd061be0	-0.032741427
1	0x3c6b2b55	0.014353593
2	0x3cf941d7	0.030426903
3	0xbc930703	-0.01794768
4	0xbcf02f3b	-0.029319396
5	0x3cd39098	0.025825784
6	0x3d34e1a3	0.044160496
7	0x3d0bdeef	0.034148153
8	0x3c497785	0.012296562
9	0x3d197932	0.037469096
10	0xbc0cc81c	-0.008592632
11	0x3d4b7efe	0.049681656
12	0x3dafaba4	0.0857766
13	0xbcf142e0	-0.029450834
14	0xbb35c245	-0.0027734202
15	0x3d934f98	0.07192916
16	0xbb08fc7f	-0.0020902453
17	0x3d2b33b2	0.041797347
18	0x3d0937de	0.033500545
19	0x3cc47f9a	0.023986626
20	0x3da4a5c6	0.08039431
21	0x3d765359	0.06013808
22	0x3d73c7c0	0.05951667
23	0x3c6f5d88	0.014609702
24	0x3cce1bdf	0.025159774
25	0x3dc05a48	0.0939222
26	0x3bb6d99b	0.00558014
27	0x3da37eac	0.07983145
28	0x3c92185a	0.017833877
29	0x3d558b6a	0.05213491
30	0x3daaf793	0.08348002
31	0x3b94a188	0.0045358576
